tests/data_pth/abs_diff_ties0.pth (torch, 10282 bytes, 14 tensors)

l7.bias f4 [20]
0.05397892 0.77469325 0.40559295 0.6319604 0.6383121 0.5981686 0.4705614 0.58989006
0.6180372 0.34023088 0.9100306 0.7294048 0.18401253 0.9960442 0.3256212 0.8756747
0.998746 0.42499334 0.31408238 0.0066877007
00000000: 0019 5d3d 4c52 463f e1a9 cf3e 28c8 213f
00000010: 6c68 233f 9421 193f 6ced f03e 0903 173f
00000020: b037 1e3f be32 ae3e c4f7 683f 46ba 3a3f
00000030: c86d 3c3e c1fc 7e3f d2b7 a63e 382c 603f
00000040: d1ad 7f3f ba98 d93e 68cf a03e 8024 db3b

l7.weight f4 [20, 10]
0.31243145 0.581975 0.7542118 0.7323555 0.66195655 0.6415426 0.97926897 0.4936447
0.4576978 0.55316114 0.2437774 0.71670824 0.14288443 0.34490728 0.5761653 0.37824658
0.7326827 0.18122599 0.85585815 0.5615683 0.66725963 0.45947433 0.27127135 0.73737216
0.91521764 0.40704942 0.40148914 0.97812885 0.07500303 0.22927874 0.5435257 0.33503258
0.016480684 0.15255284 0.58744276 0.5993403 0.8267013 0.45325655 0.483209 0.98001343
0.63829595 0.71277463 0.5928118 0.7333754 0.58002156 0.09548938 0.2466479 0.76200604
0.2676927 0.40437272 0.6512233 0.35248277 0.49559167 0.6432318 0.22936547 0.045997024
0.33058172 0.28131205 0.26253557 0.8151184 0.39991874 0.6783189 0.9368608 0.45938152
0.6646364 0.5990064 0.69123626 0.49358308 0.2197243 0.33788925 0.54109395 0.66731143
0.16059053 0.2659074 0.4835922 0.42057025 0.48007306 0.2123667 0.68308514 0.633078
0.9311746 0.38036293 0.3084103 0.30242366 0.3765753 0.34497416 0.490898 0.16251016
0.7296152 0.34008116 0.6313725 0.63473576 0.45356262 0.3145889 0.265176 0.6096954
0.510658 0.3386612 0.64610445 0.80619204 0.28839058 0.58290744 0.4860229 0.61402017
0.5992545 0.7486032 0.4027173 0.8801433 0.4313686 0.8024775 0.35312253 0.5350635
0.15377581 0.62660396 0.2436685 0.81195676 0.115412116 0.5944966 0.112318635 0.8210186
0.31369734 0.8348982 0.2192387 0.8148613 0.6788181 0.36918116 0.70797014 0.10654676
0.7000294 0.116707206 0.5121747 0.78505266 0.3647896 0.70936245 0.26488385 0.4043311
0.34009874 0.25331396 0.7166479 0.47119826 0.45366317 0.7513317 0.24076688 0.7562257
0.67147964 0.38950852 0.67683923 0.6019742 0.7647415 0.2960695 0.6886267 0.5497023
0.48077977 0.613734 0.5865683 0.916438 0.3669858 0.6963582 0.60451955 0.51221037
0.43711698 0.22341645 0.22945929 0.93150485 0.91870844 0.60320985 0.71602505 0.16764939
0.38808477 0.27033734 0.3556525 0.24724466 0.1518783 0.40132797 0.05963844 0.0008788705
0.44620037 0.2904098 0.2502442 0.6388562 0.71169764 0.80827034 0.674671 0.58994055
0.76255864 0.19249022 0.8302689 0.19708782 0.25530416 0.51419544 0.52871126 0.6623423
0.71689177 0.35502493 0.49255118 0.8694249 0.41836095 0.30286145 0.2801063 0.7849139
00000000: 04f7 9f3e 50fc 143f 0614 413f a67b 3b3f
00000010: fc75 293f 233c 243f 5fb1 7a3f 00bf fc3e
00000020: 5e57 ea3e f89b 0d3f c8a0 793e 317a 373f
00000030: 4c50 123e b097 b03e 927f 133f 89a9 c13e
00000040: 1891 3b3f 4e93 393e 8519 5b3f f1c2 0f3f
00000050: 87d1 2a3f 3840 eb3e 14e4 8a3e 6cc4 3c3f
00000060: b44b 6a3f c868 d03e fc8f cd3e a766 7a3f
00000070: 309b 993d 0cc8 6a3e 8024 0b3f 6489 ab3e
00000080: 8002 873c d036 1c3e a662 163f 5e6e 193f
00000090: b2a2 533f 3e11 e83e 2c67 f73e 29e2 7a3f
000000a0: 5d67 233f 6678 363f 84c2 173f 7dbe 3b3f
000000b0: 4b7c 143f f08f c33d 4491 7c3e d412 433f
000000c0: 040f 893e f109 cf3e 92b6 263f 9f78 b43e
000000d0: 31be fd3e d7aa 243f c8de 6a3e 6067 3c3d
000000e0: 0242 a93e 2208 903e 106b 863e 99ab 503f
000000f0: 26c2 cc3e 4fa6 2d3f 1cd6 6f3f 0e34 eb3e
00000100: 9c25 2a3f 7c58 193f dcf4 303f ecb6 fc3e
00000110: 68ff 603e d2ff ac3e 2285 0a3f ecd4 2a3f
00000120: d871 243e 0425 883e 6699 f73e fc54 d73e
00000130: 23cc f53e a876 593e abde 2e3f 6611 223f
00000140: 7561 6e3f eebe c23e f4e7 9d3e 46d7 9a3e
00000150: 7ace c03e 74a0 b03e fc56 fb3e 1069 263e
00000160: 10c8 3a3f 1e1f ae3e a1a1 213f 0b7e 223f
00000170: 5c39 e83e cc11 a13e 26c5 873e ff14 1c3f
00000180: 7cba 023f 0065 ad3e 1a67 253f 9a62 4e3f
00000190: eea7 933e 6c39 153f fed7 f83e 6d30 1d3f
000001a0: be68 193f 76a4 3f3f f630 ce3e 1251 613f
000001b0: 58dc dc3e 2a6f 4d3f 7acc b43e ecf9 083f
000001c0: 6877 1d3e 1e69 203f 3c84 793e 66dc 4f3f
000001d0: 305d ec3d ee30 183f 5007 e63d 462e 523f
000001e0: f09c a03e e3bb 553f 1c80 603e c09a 503f
000001f0: 06c7 2d3f 5005 bd3e 883d 353f 3035 da3d
00000200: 2035 333f 3004 ef3d e21d 033f 36f9 483f
00000210: b4c5 ba3e c798 353f db9e 873e 7c04 cf3e
00000220: 6c21 ae3e 5eb2 813e 3d76 373f e640 f13e
00000230: 8a46 e83e 4657 403f 988b 763e 0298 413f
00000240: 17e6 2b3f a96d c73e 5645 2d3f fb1a 1a3f
00000250: 19c6 433f 6c96 973e d749 303f 4ab9 0c3f
00000260: c428 f63e ac1d 1d3f 5729 163f ae9b 6a3f
00000270: 90e5 bb3e 8844 323f cbc1 1a3f 3820 033f
00000280: cccd df3e 48c7 643e 60f7 6a3e 1a77 6e3f
00000290: 7a30 6b3f f66b 1a3f 6b4d 373f 48ac 2b3e
000002a0: 0cb3 c63e a869 8a3e 1618 b63e b42d 7d3e
000002b0: fc85 1b3e dc7a cd3e 7047 743d 0064 663a
000002c0: 6074 e43e 98b0 943e 0220 803e 148c 233f
000002d0: d131 363f ceea 4e3f 3db7 2c3f 5806 173f
000002e0: 0b37 433f 281c 453e 818c 543f 64d1 493e
000002f0: 3ab7 823e 50a2 033f 9f59 073f 448f 293f
00000300: 3886 373f d4c5 b53e ab2f fc3e a192 5e3f
00000310: 6833 d63e a810 9b3e 186a 8f3e 1ef0 483f

l6.bias f4 [10]
0.78848296 0.87955594 0.34179312 0.71371263 0.060314894 0.25483435 0.60259444 0.34304804
0.8810965 0.63044333
00000000: 05da 493f 942a 613f 82ff ae3e dfb5 363f
00000010: c00c 773d a679 823e a143 1a3f fea3 af3e
00000020: 8a8f 613f bc64 213f

l6.weight f4 [10, 20]
0.7551975 0.37543982 0.7101705 0.35401332 0.056515038 0.47439843 0.48045528 0.49332786
0.4015234 0.4814754 0.27669987 0.7854978 0.7898069 0.58365625 0.4883783 0.35324156
0.60819846 0.4893328 0.64427465 0.26687926 0.28025663 0.087304175 0.1379236 0.69837767
0.56474614 0.21658093 0.03490144 0.42062086 0.7229018 0.21695232 0.3973708 0.65069234
0.18491966 0.2731859 0.8007935 0.7148181 0.679306 0.20776933 0.25573444 0.7512721
0.5080955 0.4363498 0.16722357 0.7228242 0.54891723 0.99213725 0.39280534 0.51545566
0.6796165 0.028605998 0.6256779 0.8719279 0.6254345 0.48377585 0.75488687 0.7881435
0.40724966 0.016241014 0.5187565 0.42912292 0.12489498 0.3824911 0.5161736 0.08882123
0.65383595 0.74182373 0.5336934 0.5142706 0.45193142 0.579954 0.7660355 0.16450256
0.81188375 0.57816976 0.6927777 0.23188728 0.54207194 0.7680963 0.47656706 0.42685652
0.5017296 0.5141442 0.91464317 0.5558608 0.3721975 0.32787496 0.9054553 0.27298936
0.46122795 0.77590865 0.3632363 0.27018356 0.27842015 0.20913231 0.5805742 0.24197668
0.17442715 0.23280925 0.5656003 0.74704456 0.26933497 0.5514396 0.22326791 0.6970855
0.8385007 0.35352898 0.5530453 0.40180653 0.24013919 0.33696362 0.81758744 0.2884319
0.8145898 0.63431114 0.59027004 0.21029729 0.6071336 0.052368045 0.04104185 0.7393441
0.8335733 0.4122066 0.5893565 0.45150986 0.27660865 0.6571879 0.17756265 0.38319826
0.32618088 0.09003955 0.9380518 0.38912505 0.06569582 0.7767404 0.20914638 0.4369226
0.19891071 0.52042645 0.5507343 0.30709076 0.66659856 0.6353346 0.5641973 0.3726551
0.18118662 0.1943546 0.8781023 0.46746835 0.47993422 0.21582633 0.29104376 0.8377015
0.08032173 0.5656741 0.41897124 0.71355414 0.4539491 0.7407492 0.980428 0.37905902
0.69788134 0.51725775 0.7568612 0.36754805 0.8727884 0.9862295 0.0807361 0.09131336
0.38752702 0.5676587 0.59798586 0.19314826 0.27568758 0.25482017 0.49996626 0.02444017
0.8585106 0.49749672 0.6067133 0.33266377 0.63786656 0.68465906 0.8458269 0.8144752
0.65615565 0.007865548 0.49613613 0.58516514 0.5570487 0.81683445 0.30412465 0.22639644
0.68991345 0.40050465 0.61383367 0.10082716 0.23993725 0.22594416 0.4877206 0.46906435
00000000: a054 413f a639 c03e bccd 353f 3c41 b53e
00000010: 507c 673d 5ae4 f23e 3cfe f53e 7895 fc3e
00000020: 7a94 cd3e f283 f63e 9bab 8d3e 6216 493f
00000030: c930 4a3f 7f6a 153f b80c fa3e 14dc b43e
00000040: e5b2 1b3f d489 fa3e 2fef 243f 66a4 883e
00000050: cc7d 8f3e 88cc b23d d83b 0d3e e1c8 323f
00000060: 3493 103f 64c7 5d3e d0f4 0e3d 9e5b d73e
00000070: 1810 393f c028 5e3e 2f74 cb3e c693 263f
00000080: 945b 3d3e 06df 8b3e ce00 4d3f 52fe 363f
00000090: ffe6 2d3f 7cc1 543e a0ef 823e 5e53 403f
000000a0: 8c12 023f 3e69 df3e a83c 2b3e 020b 393f
000000b0: d785 0c3f b5fc 7d3f c81d c93e e7f4 033f
000000c0: 59fb 2d3f 2057 ea3c 6d2c 203f ab36 5f3f
000000d0: 7a1c 203f 78b1 f73e 4440 413f c6c3 493f
000000e0: 0783 d03e e00b 853c 3acd 043f 00b6 db3e
000000f0: f0c8 ff3d e0d5 c33e f423 043f e8e7 b53d
00000100: cb61 273f 29e8 3d3f 21a0 083f 3da7 033f
00000110: 8e63 e73e de77 143f e71a 443f 5c73 283e
00000120: 9dd7 4f3f ef02 143f e159 313f dc73 6d3e
00000130: 3ac5 0a3f f6a1 443f 9900 f43e f08c da3e
00000140: 5a71 003f f49e 033f 0e26 6a3f e54c 0e3f
00000150: ac90 be3e 3adf a73e ebcb 673f 43c5 8b3e
00000160: 1226 ec3e f3a1 463f 1cfa b93e 8055 8a3e
00000170: 168d 8e3e c826 563e 83a0 143f bcc8 773e
00000180: 089d 323e 8c65 6e3e 2ecb 103f 503e 3f3f
00000190: 46e6 893e 252b 0d3f 58a0 643e 3274 323f
000001a0: fba7 563f c001 b53e 6094 0d3f 96b9 cd3e
000001b0: 0ce7 753e 7f86 ac3e 694d 513f 59ad 933e
000001c0: f588 503f 3762 223f f01b 173f 2c58 573e
000001d0: 1c6d 1b3f e07f 563d 801b 283d a845 3d3f
000001e0: 0f65 553f be0c d33e 11e0 163f 4d2c e73e
000001f0: a69f 8d3e 773d 283f fcd2 353e 9032 c43e
00000200: 2e01 a73e a866 b83d 2a24 703f 663b c73e
00000210: 888b 863d 75d8 463f 782a 563e 52b4 df3e
00000220: 40af 4b3e ab3a 053f ecfc 0c3f 003b 9d3e
00000230: 34a6 2a3f 4aa5 223f 3c6f 103f a6cc be3e
00000240: fc88 393e e404 473e 50cb 603f 0358 ef3e
00000250: f0b9 f53e 9401 5d3e b003 953e 9b73 563f
00000260: b87f a43d 05d0 103f 6683 d63e 7cab 363f
00000270: 046c e83e bda1 3d3f 54fd 7a3f 0614 c23e
00000280: 5aa8 323f 016b 043f a8c1 413f 422f bc3e
00000290: 106f 5f3f 8979 7c3f f858 a53d 8002 bb3d
000002a0: f169 c63e 1552 113f 9a15 193f a8c8 453e
000002b0: ec26 8d3e ca77 823e 94fb ff3e c036 c83c
000002c0: 5ac7 5b3f e4b7 fe3e 9051 1b3f e852 aa3e
000002d0: 394b 233f d145 2f3f 1d88 583f 7281 503f
000002e0: d1f9 273f 80de 003c 8e05 fe3e 62cd 153f
000002f0: be9a 0e3f 101c 513f 3ab6 9b3e 78d4 673e
00000300: 2b9e 303f f20e cd3e 3424 1d3f 787e ce3d
00000310: 1cb2 753e e85d 673e 84b6 f93e 3429 f03e

l5.bias f4 [20]
0.46045458 0.28107816 0.39665043 0.43153465 0.66286117 0.8927212 0.2916096 0.8077839
0.2282052 0.14534259 0.9295526 0.6540864 0.8903211 0.202658 0.7548408 0.584653
0.2955371 0.6213839 0.25214243 0.77254385
00000000: b4c0 eb3e 7ae9 8f3e c415 cb3e 1cf2 dc3e
00000010: 45b1 293f 6089 643f da4d 953e edca 4e3f
00000020: a0ae 693e b0d4 143e 29f7 6d3f 3572 273f
00000030: 15ec 633f 9485 4f3e 3f3d 413f d2ab 153f
00000040: a450 973e 0413 1f3f d018 813e 6fc5 453f

l5.weight f4 [20, 10]
0.7104663 0.6883546 0.85740983 0.7762746 0.9819423 0.6883231 0.4495547 0.12002832
0.27830285 0.10312337 0.35194024 0.23817223 0.2599237 0.056390464 0.8275137 0.62771106
0.9569047 0.64453167 0.33314598 0.664762 0.5052803 0.4738853 0.47617534 0.25639367
0.48872274 0.49440038 0.20744652 0.03688836 0.41638154 0.16357154 0.24835664 0.553248
0.392285 0.14152145 0.8842769 0.62827146 0.45192364 0.5656141 0.5921669 0.24552447
0.5529416 0.43737936 0.77297616 0.575407 0.4232085 0.94846845 0.9016161 0.26851964
0.5141474 0.7969215 0.33772072 0.254109 0.30338413 0.30200857 0.3228125 0.3404755
0.54698944 0.0739578 0.9874479 0.40846825 0.577745 0.7316608 0.8020522 0.7988811
0.20498109 0.55884296 0.48040292 0.8621284 0.87845194 0.72207123 0.7979983 0.67027533
0.44067216 0.032575786 0.7763766 0.9107579 0.63252354 0.5882686 0.33873934 0.5641193
0.7405744 0.5125566 0.36792946 0.794856 0.5656039 0.32941055 0.7181743 0.9029249
0.33963877 0.21750116 0.79411364 0.73300207 0.74629134 0.42460218 0.47838283 0.690355
0.60714847 0.19770634 0.7120927 0.35500357 0.099767625 0.0023763776 0.541952 0.63191694
0.9983085 0.4525764 0.38782585 0.9394875 0.8679033 0.27454683 0.3834607 0.4125223
0.052119195 0.9498692 0.4127033 0.6761926 0.28504562 0.17637539 0.63502717 0.48302007
0.4889689 0.73224413 0.9924254 0.05688262 0.26972538 0.60063237 0.65277624 0.4904997
0.5902216 0.20329785 0.016450346 0.45197672 0.67630583 0.2805757 0.13390535 0.41646284
0.61108065 0.08960855 0.5120323 0.62214476 0.81589895 0.4818985 0.3322736 0.34336472
0.61748624 0.55400413 0.336066 0.43466222 0.33836532 0.62859124 0.36795777 0.5518658
0.37940583 0.6458811 0.40084052 0.34958458 0.33779502 0.39551783 0.5012954 0.52751344
0.25782925 0.5100104 0.6671467 0.7101322 0.5666514 0.7985531 0.6228413 0.29780585
0.16633755 0.6603223 0.47367018 0.68888986 0.744057 0.104372084 0.35743612 0.6757449
0.5969912 0.76791394 0.26371825 0.7447461 0.71215826 0.94695705 0.8586601 0.5466878
0.510722 0.067666054 0.43513852 0.023623168 0.014358699 0.35112166 0.2450319 0.440512
0.15871394 0.043389022 0.52302957 0.19181812 0.804112 0.773148 0.48257804 0.62794334
00000000: 1fe1 353f 0238 303f 367f 5b3f efb9 463f
00000010: 9260 7b3f f135 303f 092c e63e 68d1 f53d
00000020: b67d 8e3e 5832 d33d 8331 b43e 6ce3 733e
00000030: b814 853e b0f9 663d f0d7 533f acb1 203f
00000040: b5f7 743f 0700 253f 1c92 aa3e d82d 2a3f
00000050: 0d5a 013f 18a1 f23e 41cd f33e 0846 833e
00000060: de39 fa3e 0c22 fd3e dc6c 543e 4018 173d
00000070: f62f d53e 4c7f 273e 3451 7e3e a9a1 0d3f
00000080: 94d9 c83e 00eb 103e f95f 623f 66d6 203f
00000090: 8962 e73e 16cc 103f 4098 173f c46a 7b3e
000000a0: 958d 0d3f 30f0 df3e c4e1 453f e04d 133f
000000b0: c9ae d83e d4ce 723f 50d0 663f 687b 893e
000000c0: 2a9f 033f 0c03 4c3f bbe9 ac3e 931a 823e
000000d0: 2a55 9b3e dea0 9a3e ae47 a53e ce52 ae3e
000000e0: 8007 0c3f 3077 973d 63c9 7c3f c022 d13e
000000f0: 19e7 133f 1f4e 3b3f 4b53 4d3f 7983 4c3f
00000100: 90e6 513e 5510 0f3f 5ff7 f53e 72b4 5c3f
00000110: 3ae2 603f a9d9 383f 9e49 4c3f 2a97 2b3f
00000120: c89f e13e 306e 053d 9ec0 463f 6e27 693f
00000130: 10ed 213f c598 163f 3e6f ad3e 1f6a 103f
00000140: 4996 3d3f e936 033f 4061 bc3e af7b 4b3f
00000150: 6bcb 103f 80a8 a83e 45da 373f 1626 673f
00000160: 22e5 ad3e a0b8 5e3e 084b 4b3f 06a6 3b3f
00000170: f30c 3f3f 7565 d93e 98ee f43e 1bbb 303f
00000180: 156e 1b3f 8873 4a3e b54b 363f 07c3 b53e
00000190: f852 cc3d 00bd 1b3b 5ebd 0a3f 4fc5 213f
000001a0: 2591 7f3f 18b8 e73e 1c91 c63e 4182 703f
000001b0: e92e 5e3f 6791 8c3e f654 c43e 1f36 d33e
000001c0: f07a 553d a12a 733f d94d d33e f51a 2d3f
000001d0: 80f1 913e c09b 343e 2491 223f 684e f73e
000001e0: 225a fa3e 5a74 3b3f 970f 7e3f c0fd 683d
000001f0: 7219 8a3e 0bc3 193f 581c 273f c722 fb3e
00000200: c318 173f 502d 503e e0c2 863c 7e69 e73e
00000210: 6122 2d3f 9ea7 8f3e 7c1e 093e 9e3a d53e
00000220: c86f 1c3f b084 b73d 8c14 033f e144 1f3f
00000230: c1de 503f 66bb f63e c41f aa3e 80cd af3e
00000240: 9413 1e3f 37d3 0d3f d810 ac3e 0c8c de3e
00000250: 383e ad3e 5beb 203f f664 bc3e 1447 0d3f
00000260: 7b41 c23e 7758 253f f83a cd3e c0fc b23e
00000270: 78f3 ac3e 5081 ca3e e554 003f 1f0b 073f
00000280: 3202 843e 0b90 023f 20ca 2a3f 39cb 353f
00000290: 1110 113f fa6d 4c3f 8772 1f3f 027a 983e
000002a0: 6454 2a3e e20a 293f e684 f23e 165b 303f
000002b0: 857a 3e3f 08c1 d53d de01 b73e 9efd 2c3f
000002c0: 6ad4 183f 0296 443f 1406 873e aea7 3e3f
000002d0: 0150 363f c76b 723f 26d1 5b3f bbf3 0b3f
000002e0: adbe 023f 8094 8a3d 7aca de3e 6085 c13c
000002f0: c040 6b3c 38c6 b33e a4e9 7a3e ca8a e13e
00000300: e885 223e b0b8 313d 44e5 053f f86b 443e
00000310: 49da 4d3f 07ed 453f 7814 f73e e5c0 203f

l4.bias f4 [10]
0.50564855 0.2704295 0.58651483 0.49950916 0.15147007 0.49428606 0.8574874 0.009057462
0.27357334 0.38074666
00000000: 2f72 013f bc75 8a3e d625 163f aabf ff3e
00000010: f81a 1b3e 1013 fd3e 4b84 5b3f c065 143c
00000020: ce11 8c3e 3af1 c23e

l4.weight f4 [10, 20]
0.31737012 0.35269982 0.24313897 0.7318408 0.73184353 0.793242 0.64763266 0.753291
0.71422076 0.5555066 0.55618966 0.6656119 0.89569056 0.48570263 0.7980943 0.95826066
0.46861666 0.21506912 0.017588854 0.40112042 0.1921789 0.18943489 0.43685743 0.23603183
0.5555864 0.37975398 0.7555575 0.5328269 0.5366796 0.29506874 0.619349 0.49697733
0.0747115 0.6431652 0.45262933 0.4790792 0.71355313 0.44062173 0.021378398 0.96591944
0.78689045 0.38675785 0.015235186 0.50427556 0.6277348 0.14804828 0.000823915 0.8915213
0.7600008 0.14087838 0.20197201 0.57887316 0.5445491 0.54775196 0.3667286 0.6531649
0.35762435 0.29345906 0.5773025 0.7058945 0.5530248 0.65224534 0.2972154 0.84073174
0.20562047 0.23183656 0.6355302 0.9261577 0.28881222 0.5391271 0.42301643 0.7761458
0.81670934 0.20145375 -0.040827096 0.47643402 0.53774136 0.58243835 0.58479965 0.54868275
0.59167725 0.56059265 0.6879252 0.0023123026 0.8063583 0.52554613 0.76133615 0.51616126
0.45096892 0.4325843 0.60363877 0.7358344 0.54196423 0.12701076 0.5549744 0.067135274
0.609893 0.5920148 0.37800992 0.41569272 0.7274643 0.34714442 0.13304108 0.36065495
0.4336219 0.43957955 0.88485736 0.7254586 0.29746717 0.6040485 0.6724817 0.1647951
0.1983298 0.16474873 0.07671893 0.9909329 0.3270986 0.58023024 0.96893924 0.90296423
0.3707536 0.007953882 0.5137334 0.5807947 0.33056435 0.26700377 0.14541036 0.23635036
0.54951054 0.65255827 0.5750481 0.56186306 0.7001496 0.24780571 0.9477872 0.47937173
0.12484747 0.40999922 0.48653734 0.3539132 0.48658663 0.41921112 0.6967368 1.0766494
0.4845069 0.049654305 0.9333913 0.7162124 0.38737822 0.5329041 0.53968906 0.3657808
0.7027023 0.54800546 0.4122252 0.5856177 0.8821006 0.17617404 0.66790867 0.5341392
0.03463149 0.30764067 0.61565727 0.5838481 0.37034994 0.07310486 0.5196734 0.21748656
0.025600553 0.8309247 0.039230227 0.49394506 0.13344562 0.5509935 0.49651706 0.28706926
0.5680918 0.48951703 0.3848424 0.8148109 0.4622057 0.9259918 0.52118915 0.2280246
0.068305194 0.9755447 0.33228174 0.50749797 0.7078767 0.46041495 0.22447008 0.327169
0.44925654 0.3262391 0.29032236 0.23652917 0.8935309 0.41335464 0.53952813 0.69205356
00000000: 567e a23e 1295 b43e 6cf9 783e eb59 3b3f
00000010: 195a 3b3f e811 4b3f 41cb 253f aed7 403f
00000020: 2cd7 363f ae35 0e3f 7262 0e3f 8b65 2a3f
00000030: fa4b 653f 04ae f83e e84f 4c3f 9250 753f
00000040: 86ee ef3e 143b 5c3e 8016 903c a85f cd3e
00000050: 8cca 443e 38fb 413e c7ab df3e 54b2 713e
00000060: e93a 0e3f 1d6f c23e 376c 413f 5867 083f
00000070: d663 093f 4013 973e a88d 1e3f d073 fe3e
00000080: 5802 993d 79a6 243f 08bf e73e de49 f53e
00000090: 6bab 363f 2c99 e13e c021 af3c 7f46 773f
000000a0: a771 493f 2005 c63e 009d 793c 3418 013f
000000b0: 3ab3 203f f899 173e 00fc 573a bd3a 643f
000000c0: 6a8f 423f 6c42 103e c0d1 4e3e 0831 143f
000000d0: 9267 0b3f 7939 0c3f dac3 bb3e d135 273f
000000e0: 8a1a b73e 4440 963e 19ca 133f 80b5 343f
000000f0: 0993 0d3f 8df9 263f 9e2c 983e 323a 573f
00000100: 2c8e 523e 9066 6d3e 1bb2 223f ac18 6d3f
00000110: 32df 933e 3c04 0a3f 9c95 d83e 7eb1 463f
00000120: dd13 513f e449 4e3e 503a 27bd 29ef f33e
00000130: 6ba9 093f ae1a 153f 6eb5 153f 7976 0c3f
00000140: 2978 173f 0083 0f3f de1b 303f 008a 173b
00000150: 7f6d 4e3f 318a 063f ede6 423f 2523 043f
00000160: 66e5 e63e b07b dd3e 1288 1a3f a55f 3c3f
00000170: 2bbe 0a3f 1c0f 023e cd12 0e3f 387e 893d
00000180: f321 1c3f 488e 173f 848a c13e add5 d43e
00000190: 1a3b 3a3f eabc b13e ec3b 083e c4a7 b83e
000001a0: b103 de3e 9210 e13e 0386 623f a8b7 393f
000001b0: 9e4d 983e eca2 1a3f c327 2c3f 0cc0 283e
000001c0: f816 4b3e e4b3 283e d01e 9d3d c7ad 7d3f
000001d0: 7879 a73e f889 143f 670c 783f aa28 673f
000001e0: 6ad3 bd3e 0051 023c 0884 033f f6ae 143f
000001f0: bb3f a93e b8b4 883e 74e6 143e d405 723e
00000200: b9ac 0c3f 0f0e 273f 5a36 133f 42d6 0f3f
00000210: 013d 333f c8c0 7d3e 2fa2 723f 3670 f53e
00000220: 08b0 ff3d 6beb d13e 6c1b f93e 1c34 b53e
00000230: e221 f93e d7a2 d63e 585d 323f a6cf 893f
00000240: 4a11 f83e 5062 4b3d bbf2 6e3f b259 373f
00000250: 7056 c63e 676c 083f 1029 0a3f 9f47 bb3e
00000260: 4ce4 333f 164a 0c3f 2e0f d33e 0beb 153f
00000270: 58d1 613f f866 343e 10fc 2a3f 59bd 083f
00000280: c0d9 0d3d 1483 9d3e b79b 1d3f 1277 153f
00000290: 829e bd3e 00b8 953d 5109 053f ccb4 5e3e
000002a0: 40b8 d13c 7bb7 543f e0af 203d 5ee6 fc3e
000002b0: f8a5 083e e90d 0d3f 7c37 fe3e befa 923e
000002c0: 776e 113f faa1 fa3e 100a c53e 7297 503f
000002d0: 3aa6 ec3e cc0d 6d3f a76c 053f 487f 693e
000002e0: 98e3 8b3d 4cbd 793f d520 aa3e 63eb 013f
000002f0: 6837 353f 82bb eb3e 7cdb 653e b282 a73e
00000300: f404 e63e d008 a73e 22a5 943e b434 723e
00000310: 71be 643f 38a3 d33e 841e 0a3f 6c2a 313f

l3.bias f4 [20]
0.35974103 0.43652204 0.36539257 0.88123995 0.47018617 0.0646044 0.0972262 0.38221288
0.67438877 0.19515812 0.91666794 0.48459673 0.9039798 0.57216334 0.67940503 0.3787357
0.5705852 0.24544716 0.052782714 0.89597124
00000000: fa2f b83e d17f df3e bc14 bb3e f198 613f
00000010: 3ebc f03e 504f 843d 881e c73d 68b1 c33e
00000020: bea4 2c3f 88d7 473e c0aa 6a3f 101d f83e
00000030: 386b 673f 4c79 123f 7ded 2d3f a5e9 c13e
00000040: df11 123f 8056 7b3e b032 583d 5f5e 653f

l3.weight f4 [20, 10]
0.47663373 0.46495932 0.834075 0.96059555 0.3813432 0.4948181 0.15029222 0.067614734
0.68760353 0.2155273 0.5413174 0.65550184 0.6707813 0.84705263 0.7768629 0.8078073
0.6789702 0.4014247 0.6174582 0.5712272 0.5536872 0.74049354 0.35293752 0.9604185
0.13126266 0.78832036 0.9096862 0.4913859 0.77131325 0.8926995 0.19223714 0.53373724
0.36449134 0.1903584 0.13906348 0.33007163 0.08293682 0.92429286 0.29706442 0.35322207
0.6898224 0.61077344 0.3973698 0.60282755 0.31042767 0.58403337 0.7059499 0.8519207
0.6221012 0.05341661 0.048935413 0.25469095 0.75854635 0.725488 0.8045961 0.828861
0.5834681 0.6985717 0.2889011 0.06740439 0.041233063 0.13622278 0.82440567 0.6055608
0.52533835 0.8314887 0.56475246 0.7615422 0.15856284 0.98969406 0.87378365 0.18338436
0.8327695 0.88237643 0.59513503 0.8187135 0.7907178 0.69140315 0.09062499 0.032900155
0.8762349 0.2820531 0.99960417 0.45910847 0.247563 0.08203852 0.17025197 0.83908725
0.3673548 0.4478354 0.75060487 0.31042594 0.59472 0.9840487 0.037450314 0.6015806
0.4469381 0.5571218 0.40847695 0.10306764 0.56263936 0.7002409 0.42853037 0.48217475
0.7841676 0.64952046 0.44765812 0.27853674 0.88051856 0.48878726 0.6661967 0.94393176
0.35610974 0.69730985 0.13419735 0.88151646 0.32162738 0.39827383 0.5072382 0.7971142
0.34031668 0.66430616 0.20713174 0.057771325 0.892319 0.7650971 0.256203 0.58812106
0.79049075 0.36071652 0.72959447 0.6185882 0.019949436 0.3987795 0.37547928 0.096568465
0.24356234 0.42531484 0.7803647 0.0062056184 0.1208356 0.3602118 0.60768604 0.6590268
0.7533771 0.47959197 0.42194083 0.62389934 0.6780451 0.22587365 0.58954775 0.48391992
0.7925912 0.43861312 0.50852656 0.07427853 0.7157446 0.38576177 0.63378906 0.74017406
0.21461463 0.9597004 0.4476837 0.35519493 0.5535665 0.9642013 0.18462706 0.50136274
0.15001965 0.32035786 0.04425949 0.95074767 0.480339 0.009175181 0.4171719 0.18343443
0.3078373 0.21711165 0.6852571 0.3783658 0.66874504 0.6558044 0.9082762 0.38348496
0.5970347 0.6096912 0.9433701 0.20094472 0.56269586 0.3740279 0.42905828 0.39962316
0.42626923 0.51674294 0.13007176 0.99356866 0.47986573 0.042307198 0.96473086 0.49847043
00000000: 5609 f43e 260f ee3e f085 553f 97e9 753f
00000010: 6a3f c33e cc58 fd3e 34e6 193e 9879 8a3d
00000020: c906 303f 30b3 5c3e c793 0a3f f8ce 273f
00000030: 53b8 2b3f 71d8 583f 7de0 463f 76cc 4e3f
00000040: fed0 2d3f 8a87 cd3e be11 1e3f f23b 123f
00000050: 72be 0d3f fc90 3d3f 3ab4 b43e fddd 753f
00000060: b869 063e 5dcf 493f 32e1 683f ef96 fb3e
00000070: c974 453f f487 643f d0d9 443e 01a3 083f
00000080: 9c9e ba3e 50ed 423e a866 0e3e 26ff a83e
00000090: c8da a93d 759e 6c3f d418 983e 86d9 b43e
000000a0: 3398 303f a65b 1c3f 0e74 cb3e e852 1a3f
000000b0: 60f0 9e3e 3683 153f 22b9 343f 7a17 5a3f
000000c0: 0642 1f3f 60cb 5a3d 8070 483d da66 823e
000000d0: 1830 423f 95b9 393f 03fa 4d3f 3c30 543f
000000e0: 2a5e 153f 98d5 323f d8ea 933e 500b 8a3d
000000f0: 00e4 283d fc7d 0b3e 400c 533f 0806 1b3f
00000100: 937c 063f 72dc 543f 9e93 103f 6ef4 423f
00000110: 4c5e 223e 975c 7d3f 49b0 5f3f 1cc9 3b3e
00000120: 6230 553f 6ce3 613f c55a 183f 3597 513f
00000130: 7b6c 4a3f ccff 303f 9899 b93d 50c2 063d
00000140: ee50 603f 4469 903e 0fe6 7f3f 4410 eb3e
00000150: 2881 7d3e d003 a83d 8856 2e3e 6cce 563f
00000160: ee15 bc3e ae4a e53e a427 403f 26f0 9e3e
00000170: 923f 183f 9eea 7b3f 8065 193d 3001 1a3f
00000180: 12d5 e43e 899f 0e3f e423 d13e 2015 d33d
00000190: 2209 103f fd42 333f 5568 db3e 9cdf f63e
000001a0: 35bf 483f f946 263f 7233 e53e 5e9c 8e3e
000001b0: aa69 613f 5342 fa3e de8b 2a3f 83a5 713f
000001c0: 0454 b63e e682 323f 086b 093e 10ab 613f
000001d0: 58ac a43e 8cea cb3e 5dda 013f ad0f 4c3f
000001e0: fd3d ae3e f80f 2a3f 581a 543e a0a1 6c3d
000001f0: 056f 643f 67dd 433f 0a2d 833e 1a8f 163f
00000200: 9a5d 4a3f d6af b83e b4c6 3a3f cc5b 1e3f
00000210: 006d a33c d42c cc3e d23e c03e b0c5 c53d
00000220: 6868 793e dec2 d93e fbc5 473f 8058 cb3b
00000230: a878 f73d ae6d b83e 5091 1b3f fbb5 283f
00000240: 52dd 403f 148d f53e a108 d83e deb7 1f3f
00000250: 5d94 2d3f 6c4b 673e 9aec 163f 5ac4 f73e
00000260: 42e7 4a3f e691 e03e cc2e 023f 581f 983d
00000270: 0a3b 373f 9182 c53e 0040 223f 0c7c 3d3f
00000280: f0c3 5b3e edae 753f cc36 e53e 1cdc b53e
00000290: 89b6 0d3f e5d5 763f e00e 3d3e 4f59 003f
000002a0: c09e 193e f205 a43e 7049 353d 3364 733f
000002b0: feee f53e 8053 163c 8e97 d53e 3cd6 3b3e
000002c0: da9c 9d3e 8452 5e3e 026d 2f3f 2ab9 c13e
000002d0: e032 2b3f cce2 273f ca84 683f 2458 c43e
000002e0: 44d7 183f b914 1c3f b480 713f 74c4 4d3e
000002f0: d60c 103f 9680 bf3e 87ad db3e 689b cc3e
00000300: f63f da3e 4449 043f 8831 053e 845a 7e3f
00000310: f6b0 f53e 504a 2d3d 9af8 763f 8437 ff3e

l2.bias f4 [10]
0.08967233 0.29640424 0.910539 0.2954855 0.16577756 0.9785658 0.9365465 0.41812527
0.45264316 0.6737444
00000000: 20a6 b73d 4cc2 973e 1519 693f e049 973e
00000010: 98c1 293e 4a83 7a3f 83c1 6f3f 8414 d63e
00000020: d8c0 e73e 837a 2c3f

l2.weight f4 [10, 20]
0.12709242 0.7750554 0.23360395 0.21178651 0.39312944 0.5727383 0.30919647 0.39083886
0.17395401 0.6126741 0.13689828 0.747484 0.7020206 0.34569687 0.14296639 0.587184
0.6493246 0.44709265 0.8485409 0.22787482 0.90470076 0.328143 0.25619513 0.10382283
0.35687858 0.7443059 0.8846379 0.6226586 0.3778006 0.89175874 0.58935297 0.14122957
0.89723885 0.16219848 0.56452465 0.6004102 0.29196733 0.5608731 0.514194 0.40688688
0.7659765 0.76546645 0.59110856 0.33340067 0.10803187 -0.09614763 0.779465 0.65600246
0.25055128 0.41565526 0.5256288 0.6303582 0.07015264 0.13942182 0.42399895 0.21131575
0.85559416 0.3725099 0.6980714 0.11281353 0.8336087 0.48774666 0.28408772 0.5634925
0.2415204 0.44648728 0.427855 0.37691885 0.603936 0.78246856 0.5984279 0.12475628
0.733395 0.30380547 0.39553398 0.52785414 0.54892343 0.46296942 0.64440364 0.35704094
0.34896445 0.34461284 0.37859342 0.53239715 0.46313375 0.8285175 0.21424013 0.13604206
0.77565414 0.402111 0.33902562 0.085989475 0.7785906 0.4627724 0.53323627 0.6642222
0.34075633 0.8383849 0.63659 0.5199705 0.41544774 0.3756482 0.33359766 0.39448082
0.48904052 0.6649587 0.21305507 0.6572518 0.52085495 0.45908168 0.9153995 0.60160977
0.38202596 0.46774584 0.55667424 0.43920463 0.8015577 0.6417092 0.5396206 0.19123584
0.42003614 0.368999 0.2476092 0.34612936 0.6063255 0.15237725 0.4298054 0.6165944
0.813482 0.652286 0.74889946 0.82299006 0.7463249 0.29715776 0.15360671 0.20848083
0.3577636 0.24912131 0.48640364 0.08770257 0.61301696 0.8901808 0.9091689 0.8947038
0.36197573 0.5808102 0.8435308 0.9093848 0.29735428 0.59252936 0.4930526 0.38892442
0.4378231 0.73045486 0.33048195 0.49520582 0.89248216 0.42671227 0.9799546 0.73388344
0.696018 0.16515028 0.15747839 0.2999866 0.58392227 0.67930293 0.6807788 0.83155984
0.40869862 0.3100617 0.4452634 0.43540004 0.45963985 0.97266173 0.54784906 0.24201566
0.76359886 0.30826527 0.42918354 0.20411038 0.58961177 0.34203687 0.006496489 0.8692205
0.5947289 0.22034538 0.7671064 0.75788885 0.16655594 0.74072045 0.69930935 0.4489302
0.38835964 0.44228452 0.5133462 0.123078525 0.61424553 0.9253162 0.46154147 0.13124388
00000000: 8424 023e 086a 463f e035 6f3e 90de 583e
00000010: 4348 c93e fa9e 123f 004f 9e3e 081c c83e
00000020: 0021 323e 36d8 1c3f 102f 0c3e 1d5b 3f3f
00000030: 9fb7 333f 2eff b03e c865 123e b151 163f
00000040: 233a 263f 54e9 e43e fa39 593f 0458 693e
00000050: 789a 673f 5c02 a83e 022c 833e 10a1 d43d
00000060: cab8 b63e d58a 3e3f a177 623f 8e66 1f3f
00000070: 156f c13e 4d4a 643f d6df 163f 7c9e 103e
00000080: 72b1 653f 5c17 263e b084 103f 7cb4 193f
00000090: be7c 953e 6195 0f3f 38a2 033f 7a53 d03e
000000a0: 0917 443f 9cf5 433f e452 173f 7eb3 aa3e
000000b0: d03f dd3d 0ce9 c4bd 058b 473f c7ef 273f
000000c0: 4248 803e c4d0 d43e 9c8f 063f 285f 213f
000000d0: 30ac 8f3d 98c4 0e3e 6416 d93e 2863 583e
000000e0: 3808 5b3f 9eb9 be3e cfb4 323f c80a e73d
000000f0: 6167 553f eeb9 f93e f273 913e 0b41 103f
00000100: 2051 773e fb99 e43e d00f db3e 82fb c03e
00000110: 8d9b 1a3f dc4f 483f 9232 193f 3880 ff3d
00000120: c6bf 3b3f 648c 9b3e 6e83 ca3e 7321 073f
00000130: 3f86 0c3f 540a ed3e a3f7 243f 12ce b63e
00000140: 78ab b23e 1871 b03e ffd6 c13e 2e4b 083f
00000150: de1f ed3e b919 543f c461 5b3e 9c4e 0b3e
00000160: 4591 463f 7ee1 cd3e c494 ad3e 401b b03d
00000170: b751 473f 81f0 ec3e 2c82 083f 770a 2a3f
00000180: 9d77 ae3e 65a0 563f 90f7 223f c91c 053f
00000190: 91b5 d43e f654 c03e 50cd aa3e 64f9 c93e
000001a0: 8563 fa3e bc3a 2a3f 1c2b 5a3e a741 283f
000001b0: c056 053f c10c eb3e 9f57 6a3f 1903 1a3f
000001c0: e898 c33e 627c ef3e 3482 0e3f 6edf e03e
000001d0: e332 4d3f 0e47 243f 9324 0a3f 54d3 433e
000001e0: fa0e d73e 70ed bc3e 448d 7d3e de37 b13e
000001f0: 2638 1b3f c808 1c3e 740f dc3e 21d9 1d3f
00000200: 5b40 503f 37fc 263f e0b7 3f3f 7aaf 523f
00000210: 260f 3f3f 1025 983e 144b 1d3e 007c 553e
00000220: ca2c b73e a819 7f3e e609 f93e 689d b33d
00000230: aeee 1c3f e4e2 633f 4bbf 683f 4f0b 653f
00000240: e254 b93e faaf 143f a2f1 573f 71cd 683f
00000250: d23e 983e 01b0 173f 6471 fc3e 1a21 c73e
00000260: 592a e03e 17ff 3a3f ee34 a93e 9e8b fd3e
00000270: b679 643f 087a da3e 4ede 7a3f c9df 3b3f
00000280: 3c2e 323f 281d 293e 0442 213e d897 993e
00000290: ee7b 153f cce6 2d3f 8547 2e3f 1be1 543f
000002a0: f240 d13e 68c0 9e3e 90f9 e33e c1ec de3e
000002b0: ea55 eb3e 5c00 793f d63f 0c3f f4d2 773e
000002c0: 377b 433f f2d4 9d3e f2bd db3e 5002 513e
000002d0: ccf0 163f 751f af3e 80e0 d43b 3c85 5e3f
000002e0: 2740 183f 38a2 613e 1661 443f 0105 423f
000002f0: a48d 2a3e db9f 3d3f f005 333f 2eda e53e
00000300: 13d7 c63e 1e73 e23e a86a 033f 9810 fc3d
00000310: 323f 1d3f 86e1 6c3f 2a4f ec3e cc64 063e

l1.bias f4 [20]
0.43663377 0.5811611 0.4777713 0.98519915 0.53820986 0.43312216 0.7770156 0.06689137
0.53685904 0.65103143 0.7493998 0.3924253 0.75235486 0.3619585 0.66296726 0.25706196
0.024098873 0.60850537 0.21878916 0.71452886
00000000: 768e df3e f9c6 143f 719e f43e 0336 7c3f
00000010: 1fc8 093f 30c2 dd3e 7fea 463f 58fe 883d
00000020: 986f 093f ffa9 263f aad8 3f3f f8eb c83e
00000030: 549a 403f a052 b93e 39b8 293f a09d 833e
00000040: 006b c53c 02c7 1b3f 440a 603e 5deb 363f

l1.weight f4 [20, 10]
0.5315656 0.54408085 0.4244343 0.41055506 0.4469452 0.35755062 0.751389 0.21116811
0.18686503 0.7044361 0.7585296 0.47038195 0.06108159 0.4822836 0.33336374 0.8836749
0.75463337 0.109974325 0.40245196 0.9623683 0.44422865 0.56107944 0.47743893 0.58021873
0.53669244 0.26334733 0.452318 0.47974718 0.7094588 0.58777654 0.6986049 0.7240201
0.41933912 0.7501813 0.80723995 0.62124026 0.42471075 0.9775597 0.5587346 0.6287315
0.50860226 0.71246266 0.7678016 0.612962 0.7621371 0.5958268 0.47705165 0.6717068
0.7697836 0.55550617 0.72350216 0.6760237 0.63405263 0.33818847 0.5228953 0.60924125
0.9190526 0.40760064 0.54409224 0.19765651 0.5028239 0.8387907 0.5287658 0.5388168
0.58933735 0.39939362 0.4958536 0.23053867 0.6839713 0.43038064 0.5713355 0.8922653
0.24323279 0.77385247 0.22866026 0.5635186 0.6399931 0.96370757 0.59399384 0.6323625
0.25922638 0.541414 0.8001709 0.427994 0.6508987 0.16871059 0.5182168 0.23364627
0.3980314 0.7049526 0.5546156 0.49491084 0.89774424 0.23538435 0.41428077 0.42933184
0.9586209 0.64314115 0.8689555 0.76004785 0.4976703 0.005806744 0.5184509 0.75963414
0.72573525 0.22672468 0.24405408 0.75716406 0.25434297 0.7585185 0.76786256 0.5688475
0.31725454 0.29922414 0.36694908 0.28134614 0.32598305 0.2672161 0.3720376 0.8659991
0.46604544 0.077837646 0.3968928 0.48180252 0.51562506 0.44294977 0.36221808 0.70089364
0.16613346 0.5659512 0.5434877 0.4728288 0.1859724 0.28538328 0.8312973 0.07126033
0.38265896 0.2565452 0.6071812 0.8447552 0.6535914 0.7229833 0.64318365 0.45446962
0.3264516 0.26988006 0.977542 0.15938908 0.10366595 0.5738352 0.69078684 0.8662966
0.7307435 0.2952931 0.36309206 0.12980741 0.37277597 0.6234001 0.09554738 0.09443861
0.6931455 0.5561049 0.41547316 0.1659382 0.52782404 0.539985 0.59680307 0.5542693
0.52155226 0.14636612 0.1629759 0.98041666 0.55508393 0.9893235 0.23607677 0.849665
0.4900229 0.77871263 0.6074842 0.31220317 0.67251015 0.87870055 0.3920841 0.530917
0.6138971 0.48524824 0.7884058 0.58767444 0.9304277 0.7644166 0.042876244 0.50340986
0.629411 0.14520246 0.6457122 0.52812696 0.6077822 0.25915968 0.72597283 0.12833065
00000000: af14 083f e248 0b3f 744f d93e 4634 d23e
00000010: 00d6 e43e e010 b73e 085b 403f 743c 583e
00000020: 8c59 3f3e ed55 343f ff2e 423f e7d5 f03e
00000030: b030 7a3d e0ed f63e a7ae aa3e 8538 623f
00000040: a72f 413f 383a e13d 2f0e ce3e c55d 763f
00000050: f071 e33e e7a2 0f3f e072 f43e 3789 143f
00000060: ad64 093f 76d5 863e 3a96 e73e 6ca1 f53e
00000070: 189f 353f 8678 163f c5d7 323f 6259 393f
00000080: 9eb3 d63e e20b 403f 47a7 4e3f 9a09 1f3f
00000090: b073 d93e 5a41 7a3f 3b09 0f3f 8cf4 203f
000000a0: c233 023f f463 363f a58e 443f 14eb 1c3f
000000b0: 6b1b 433f 1b88 183f 1d40 f43e faf4 2b3f
000000c0: 8a10 453f a735 0e3f 7037 393f e40f 2d3f
000000d0: 4651 223f 0a27 ad3e 77dc 053f 3cf7 1b3f
000000e0: 0847 6b3f 08b1 d03e a149 0b3f 7866 4a3e
000000f0: 11b9 003f fdba 563f 325d 073f e6ef 093f
00000100: d0de 163f 527d cc3e 86e0 fd3e 5412 6c3e
00000110: be18 2f3f da5a dc3e 0b43 123f 806b 643f
00000120: 0412 793e 321b 463f ea25 6a3e c142 103f
00000130: 96d6 233f 8ab5 763f fb0f 183f 82e2 213f
00000140: 52b9 843e 1c9a 0a3f 00d8 4c3f 0822 db3e
00000150: 4ca1 263f 78c2 2c3e dba9 043f f840 6f3e
00000160: c6ca cb3e c677 343f 4afb 0d3f f464 fd3e
00000170: 91d2 653f 9808 713e 9c1c d43e 62d1 db3e
00000180: 2e68 753f e6a4 243f de73 5e3f 7f92 423f
00000190: a4ce fe3e 8046 be3b 33b9 043f 6277 423f
000001a0: c9c9 393f 842a 683e 50e9 793e 81d5 413f
000001b0: 3e39 823e 452e 423f a492 443f fd9f 113f
000001c0: 306f a23e e833 993e c0e0 bb3e 9a0c 903e
000001d0: 40e7 a63e 8cd0 883e b67b be3e 1eb2 5d3f
000001e0: 829d ee3e 5869 9f3d 8835 cb3e d2ae f63e
000001f0: 0100 043f 50ca e23e a674 b93e c46d 333f
00000200: e41e 2a3e 2ee2 103f 0322 0b3f 9e16 f23e
00000210: 8c6f 3e3e c21d 923e e6cf 543f f0f0 913d
00000220: e0eb c33e e459 833e 3a70 1b3f e041 583f
00000230: c451 273f 6f15 393f afa7 243f 3eb0 e83e
00000240: aa24 a73e b82d 8a3e 3140 7a3f e436 233e
00000250: d04e d43d dde6 123f 68d7 303f 9dc5 5d3f
00000260: 0212 3b3f a830 973e 34e7 b93e 3cec 043e
00000270: 7edc be3e 2697 1f3f 58ae c33d 0869 c13d
00000280: fc71 313f e45c 0e3f e6b8 d43e b4eb 293e
00000290: 7a1f 073f 753c 0a3f 16c8 183f 98e4 0d3f
000002a0: 7384 053f 00e1 153e 28e3 263e 96fc 7a3f
000002b0: fb19 0e3f 4e44 7d3f 1cbe 713e a583 593f
000002c0: 48e4 fa3e b659 473f 1684 1b3f 18d9 9f3e
000002d0: a029 2c3f 85f2 603f 3fbf c83e 2dea 073f
000002e0: 5c28 1d3f 7572 f83e f6d4 493f d571 163f
000002f0: 8230 6e3f ceb0 433f 009f 2f3d 78df 003f
00000300: 1421 213f f4af 143e 654d 253f 5433 073f
00000310: 9d97 1b3f 94b0 843e 5bd9 393f 1c69 033e
