tests/data_pth/abs_diff_ties0.pth (torch, 10282 bytes, 14 tensors)

l7.bias f4 [20]
00000000: 28c1 313f 38ba 983e 9017 1b3d 5198 2f3f
00000010: c846 d93d 0488 1e3f c1af 393f df6b 313f
00000020: d66a 153f d891 c53d 2c31 703f ad8e 733f
00000030: 7625 b43e c3f3 1f3f 0e81 f93e 34be 243f
00000040: 1a16 b23e ac05 0a3f 508e 033f 7d12 203f
0.6943536 0.29829574 0.037864268 0.6859179 0.106092036 0.61926293 0.72533804 0.69305223
0.58366144 0.09646958 0.9382503 0.9513958 0.3518483 0.62481326 0.48731273 0.64352727
0.34782487 0.53914905 0.51389027 0.6252821

l7.weight f4 [20, 10]
00000000: 2e8e 083f 78bf f93e d0af f23e 84bc f93e
00000010: b4ad 393e 84eb c83e 06fc be3e a697 c63e
00000020: 004c 913c 7456 3c3f 4e00 023f 6f3e 403f
00000030: fc0b 793f c077 7b3d 14d4 4a3f e780 4e3f
00000040: 088e ef3d 28b8 ea3e e89b c03e 2acb 093f
00000050: eaed 533f f0d8 af3d 56dc d53e 6ac8 753f
00000060: d0ec a03d c037 183e 10c2 bd3e a3b7 323f
00000070: 703d 8b3d 8015 c03d 02c7 173f eb30 543f
00000080: 65fa 483f 00cc 6f3f ed70 083f a072 fe3d
00000090: 0c8b ee3e 6fa0 7e3f 370f 0d3f 2e3e ca3e
000000a0: c679 163f 243d ee3e d65d 693f e9a7 783f
000000b0: 7aaf c73e 147f 2c3f 0862 8e3e 469c 823e
000000c0: 0222 663f efe8 2f3f f0c5 473f e241 1e3f
000000d0: 75ef 673f 24b2 013e c3f6 613f 44eb 713f
000000e0: ae30 253f a0d5 333d 8ac3 203f da54 643f
000000f0: 84e5 683f 6466 f53e 4eb0 263f c545 653f
00000100: fadc 703f f1f7 2c3f 781d 733e 75c3 313f
00000110: d6a8 493f 5135 123f 64a8 453f 792f 5e3f
00000120: a414 6a3e ec4c ea3e e85e c83e 1494 203e
00000130: 30d6 643f 9e60 133f c7bc 343f 742e 253e
00000140: 606b aa3d 30e3 a83e 9436 5f3e b899 743f
00000150: 2693 403f a9ad 063f 5e34 a33e 3fe8 743f
00000160: 3472 233f 9b53 793f 2ec2 2f3f aca4 063e
00000170: b3a9 4e3f d05c e43d da78 c03e 2d15 5e3f
00000180: ece1 943e 3df8 653f 607a 983d 9c38 f83e
00000190: 5805 bd3e 2eb9 733f 2ef9 f23e 24a6 183f
000001a0: 863d 253f 03cf 283f 2858 c43d 502a 7c3d
000001b0: 3205 723f 8222 723f 483e e93d aaf5 bc3e
000001c0: 945a 023f 4e9c 913e 2fff 343f 60f8 1f3d
000001d0: 9037 1e3e b2e9 223f 8a1b 8b3e 3402 213e
000001e0: 0b71 3d3f 28d0 ca3d 1c28 0e3e b8f5 9c3d
000001f0: 0353 783f 0ea6 e83e 30ec 973e 909d 363e
00000200: b219 ea3e 5096 4f3e bcda bc3e 8790 553f
00000210: fc5d af3e 901b 693d 00ce 923a 862b ec3e
00000220: 60ef b73d 78d3 353f 686e c73d 6e20 903e
00000230: c037 b13e cf67 343f 833d 753f c04d de3c
00000240: 80dc 863b d9c0 0e3f fdfe 073f 5dee 0d3f
00000250: 7287 e83e fa40 103f fc2c b73e 1422 5a3e
00000260: c83e 7a3e b095 773f a25d 723f be4c f43e
00000270: ee3d ee3e 4728 443f 11d4 053f da81 1c3f
00000280: d0f9 d53d 20f3 333d 740a 253e 98f0 793f
00000290: 0493 063f 159c 1c3f c87c 173e e8c1 bb3e
000002a0: f7ee 483f 6f28 7e3f 1229 cb3e 653f 463f
000002b0: 02f9 cc3e f056 513f 1cf4 263e df8e 443f
000002c0: 804e ae3c b590 1d3f eafe 543f 7aa0 a73e
000002d0: bdef 3e3f a05d dc3c 500b 7b3e 6406 763f
000002e0: 99cb 573f 7ead 113f 67d5 313f 909c 873e
000002f0: 9bd2 4c3f ad52 663f d693 463f a086 ac3c
00000300: aac6 3d3f f48c 243e 389a 9e3d 9147 473f
00000310: fdc1 043f 46f0 3c3f 6699 763f b982 063f
0.5334195 0.48778892 0.4739976 0.48776639 0.18132669 0.39242184 0.37301654 0.38787574
0.017736435 0.73569417 0.50781715 0.75095266 0.9728391 0.0613935 0.79229856 0.8066544
0.11697012 0.45843625 0.37618947 0.5382563 0.82784903 0.085862994 0.41769665 0.9600893
0.078576684 0.14865017 0.3706212 0.6981146 0.06798828 0.09379101 0.59288037 0.8288714
0.7850707 0.93670654 0.5329731 0.12424207 0.4659046 0.9946355 0.5510134 0.39500564
0.5877956 0.46531022 0.9115881 0.9713121 0.39001065 0.67381406 0.27809167 0.25509852
0.8989564 0.68714803 0.78036404 0.6181928 0.9059976 0.12665612 0.88267154 0.9449961
0.64527404 0.0439049 0.6279837 0.89191973 0.90975213 0.4792968 0.6511277 0.89559585
0.94087183 0.6756583 0.2374171 0.6943887 0.7877325 0.57112604 0.7721007 0.8679119
0.22859436 0.45761812 0.39134908 0.15681487 0.89389324 0.575693 0.7060055 0.16131002
0.083212614 0.3298583 0.21798164 0.95547056 0.7522453 0.52608734 0.3187589 0.9566688
0.63846135 0.97393197 0.6865567 0.13148755 0.8072769 0.11150515 0.37592202 0.8675106
0.29078615 0.89831907 0.07445216 0.4848069 0.3691814 0.95204437 0.47455734 0.5962851
0.64547 0.65940875 0.09587127 0.06156379 0.9453918 0.94583905 0.11388832 0.36906177
0.5091946 0.28439564 0.7070188 0.03905523 0.15450883 0.6363784 0.27169448 0.15723497
0.74000615 0.09902984 0.13882488 0.07664055 0.97001666 0.4543919 0.29672384 0.17833543
0.4572273 0.20272183 0.3688563 0.83423656 0.34251392 0.05691105 0.0011200309 0.46126956
0.08981204 0.710258 0.09737855 0.28149742 0.34612846 0.704709 0.95796984 0.027136683
0.004115641 0.5576301 0.53123456 0.5544184 0.45415837 0.56349146 0.35776508 0.21302062
0.24438012 0.9671278 0.9467412 0.477148 0.46531624 0.7662396 0.5227671 0.6113564
0.104480386 0.043933034 0.16117269 0.9763274 0.5256808 0.6117566 0.14793694 0.36671376
0.7848963 0.99280447 0.39679772 0.7744048 0.40033728 0.8177328 0.16304058 0.76780504
0.021277666 0.6154893 0.8320147 0.3273962 0.7458456 0.026900113 0.24516034 0.961035
0.8429504 0.56905353 0.6946625 0.26486635 0.8000886 0.89969903 0.7756933 0.021060288
0.7413126 0.16069394 0.07744259 0.77843577 0.518585 0.7380413 0.9632782 0.52543217

l6.bias f4 [10]
00000000: 003d 993d e495 0e3e eecd 303f f20e 843e
00000010: c2c6 143f 387f bf3e d8af 7e3f cf6c 1c3f
00000020: a0b2 753e 5c50 0d3f
0.07482338 0.13924366 0.69064224 0.25792652 0.5811578 0.37401748 0.99487066 0.6110353
0.23993921 0.55200744

l6.weight f4 [10, 20]
00000000: 8127 7f3f 6ae5 033f 242b 4d3e 7b43 2d3f
00000010: 22bc a03e 3a64 943e 9e2c c73e 2ada ad3e
00000020: 74fb 6f3e 2fb7 443f 8a96 4d3f 24c7 133e
00000030: b467 203e 36a2 b93e b367 7e3f b490 383f
00000040: 80b2 473d f4c1 543e da31 213f 813f 513f
00000050: a5e7 0c3f f621 b33e f780 443f bc69 c33e
00000060: c052 0c3e 5e9d 753f b86e 6f3e 409e 423f
00000070: 5749 263f 4e37 2e3f fc67 cf3e c462 453f
00000080: 68af 393f b205 983e 105c 773f 8dec 213f
00000090: 32db 583f a746 063f 4893 bc3e 684f 6b3e
000000a0: a7a6 493f bb19 093f 604c 853c 9cc2 623e
000000b0: 94cd 7c3f a2a2 2b3f ebc3 5b3f ca14 ee3e
000000c0: cb14 403f ae20 2a3f 7a17 063f 4f3e 153f
000000d0: 0ab6 1e3f 9cd6 0a3f 9c08 563e f639 2a3f
000000e0: 0052 173b 5ab8 253f 7f59 2e3f 98f4 353e
000000f0: 081c 4f3f 3a40 ee3e 3d4d 503f d5b3 473f
00000100: 008b 433b 3ada 043f 8c25 003f a86d 973e
00000110: 0751 2c3f 9ab7 233f 204f 483f 24a4 0d3f
00000120: e085 ad3c f818 103f 08c8 8d3d 963d ab3e
00000130: 0f88 503f 604a dd3e fe57 033f 64a8 273f
00000140: 29fc 7c3f 7491 093f 7037 133f 33eb 223f
00000150: 88a9 1b3f 2426 323f 1f20 283f d0d6 883e
00000160: c0a8 cb3d 8ffd 483f f841 713e 14bc df3e
00000170: a0af 683d 70bc 9f3d 8e4e a63e 1b60 0a3f
00000180: b637 d33e 4bbb 2b3f 0804 883d 70f5 3a3d
00000190: 313a 0a3f 9e02 553f 52b3 d53e 3ad1 603f
000001a0: 7c7f 623f 0c5d 133e 6c06 ea3e db5a 623f
000001b0: 2447 173e eab9 8e3e 14b6 7c3e 60fa 1a3d
000001c0: 6706 753f bc80 523e 16b2 513f 1e53 aa3e
000001d0: 8e18 c53e 7f4b 063f 2080 bd3d 9149 2a3f
000001e0: c002 103d 2c82 4c3e 90e5 8f3e c8b4 f53d
000001f0: 9753 1f3f 19f5 233f b9e9 113f dd63 623f
00000200: 34fe 063e 8488 733f fa11 553f fbdf 183f
00000210: 0dee 2f3f ceda 913e ac02 433e 491f 0b3f
00000220: f479 923e 402b 7e3c 82f7 d43e a7b0 323f
00000230: eb38 0e3f f47c 613e 0862 753f 28ce 973d
00000240: 14b7 a33e a8e6 3b3e ec38 ca3e 9c1f a43e
00000250: 38b3 3a3f 061c 3b3f 5725 6d3f 0ef6 a33e
00000260: fa6f 283f 5cfb 823e 1092 263d 5cf3 cf3e
00000270: 20d0 463d 90a8 1d3d 69c0 3a3f 4da1 1d3f
00000280: 60da a23d 020b 093f ab63 033f f0de c43e
00000290: d860 333f 307f fc3e 8628 1b3f a8ee 1a3f
000002a0: 29dd 7a3f e0f6 d13d 6939 373f 4ecd d03e
000002b0: d0aa 6c3f c418 563f 03ab 0b3f 94ac d93e
000002c0: 5885 d53d 7b45 5c3f f3cb 3c3f 7425 803e
000002d0: 2a8d 7c3f c6ee bf3e 33ca 073f 6b22 123f
000002e0: b83c fd3d 516f 503f 8555 563f 70de 543d
000002f0: cd1c 733f 2c00 9d3e a857 dc3e b50d 133f
00000300: 608c a13e 2d32 1c3f 2f2e 393f 740d 573f
00000310: b8af f03e b2d7 d93e af62 503f 8032 763e
0.99669653 0.51521933 0.20035988 0.6768109 0.31393534 0.28982717 0.38901228 0.33955508
0.23435766 0.76842016 0.8030783 0.14431435 0.1566456 0.3625657 0.9937698 0.720958
0.048754215 0.20777112 0.6296669 0.81737524 0.5504096 0.34986848 0.76759285 0.38166606
0.13703442 0.9594325 0.2338208 0.7602272 0.6495566 0.6805314 0.4050902 0.7710383
0.72533274 0.29691845 0.9662485 0.6325157 0.84709466 0.52451557 0.36831117 0.2297951
0.78769916 0.53554887 0.01627177 0.2214455 0.9875119 0.6704503 0.8584582 0.46500236
0.7503173 0.66456115 0.5237957 0.582982 0.6199652 0.5423372 0.20901722 0.6649469
0.0023089647 0.64734423 0.6810531 0.17769086 0.8090215 0.46533376 0.81367856 0.78008777
0.002983749 0.5189549 0.5005729 0.2957585 0.6731114 0.6395203 0.78245735 0.55328584
0.021182 0.562881 0.069229186 0.33445424 0.8145761 0.43220806 0.5130614 0.6549132
0.98822266 0.5373757 0.57506466 0.63640136 0.6080556 0.6958945 0.6567401 0.2672639
0.09944296 0.785119 0.23560321 0.4369818 0.056808114 0.077996135 0.32481807 0.54052895
0.41253442 0.6708266 0.06641394 0.045644224 0.53995043 0.8320712 0.41738373 0.87819254
0.88475776 0.14390963 0.45708025 0.88419884 0.14773232 0.27876216 0.24678832 0.037836432
0.95712894 0.20556921 0.8191236 0.33266538 0.38495296 0.5245895 0.092529535 0.66518503
0.035158873 0.19971532 0.2810483 0.11997372 0.6223692 0.64045864 0.5699726 0.8843363
0.13182908 0.9513018 0.83230555 0.5971677 0.6872261 0.28487247 0.19043988 0.5434461
0.28608668 0.015513241 0.41595083 0.698008 0.555556 0.22020322 0.9585271 0.07412368
0.31975615 0.18349707 0.39496553 0.32055366 0.72929716 0.73089635 0.926351 0.32023662
0.6579586 0.25582397 0.04066664 0.40615356 0.048538327 0.03849083 0.72949845 0.6157425
0.07951808 0.5353242 0.51323956 0.38451338 0.70069647 0.49315786 0.6060871 0.6052041
0.97993714 0.10252166 0.71571976 0.40781635 0.9244814 0.8363154 0.5455782 0.4251448
0.10425824 0.8604352 0.737487 0.25028574 0.986529 0.37486857 0.53042907 0.5708377
0.12365097 0.81419855 0.8372424 0.051969945 0.9496582 0.30664194 0.43035626 0.5744279
0.3155241 0.6101406 0.72336096 0.840049 0.47009063 0.42547375 0.8140058 0.24042702

l5.bias f4 [20]
00000000: 915a 7c3f a78c 673f 4404 113e 92e5 823e
00000010: 0846 753f 9596 5a3f 7e01 da3e aef4 a53e
00000020: a0b5 193e 8952 073f fc2c 483e 81fe 4b3f
00000030: 540a 603f 7f17 5c3f 2e78 9d3e 79d6 373f
00000040: 9000 963e ba59 153f a466 513f 2bb6 133f
0.98575693 0.90448993 0.14161783 0.25565773 0.95809984 0.8538602 0.42579263 0.32413238
0.1501069 0.52860314 0.1954841 0.7968522 0.8751576 0.8597335 0.30755752 0.71811634
0.29297304 0.58340037 0.8179724 0.5769984

l5.weight f4 [20, 10]
00000000: 09a7 3a3f d83a a93d 9062 0d3d d0ef 0d3d
00000010: 90fe 3e3d 2641 fe3e 2802 3b3f 3831 393f
00000020: 58da 933e d234 393f 32db fc3e 7a15 ca3e
00000030: 1f32 693f b1a3 103f fc36 a33e 3409 fd3e
00000040: 4a78 b93e fc01 cb3e 015e 013f 90f2 843e
00000050: 2601 293f d44c 493f eb27 1f3f db36 4d3f
00000060: 1cce d03e 6ace 203f 5e56 473f 40fb 1f3d
00000070: 1e05 0d3f be36 0e3f b1c3 763f b0d7 123e
00000080: 28f7 6e3e 8ea9 aa3e edfe 033f 92f3 a53e
00000090: fe0b 2f3f 72a6 4e3f 3624 513f 490f 283f
000000a0: f91b 773f 12ab 9b3e 6eb2 363f d48e 7e3e
000000b0: c4af 653e 4a4c e23e 1242 9a3e 815f 173f
000000c0: 3ad6 083f dd02 5a3f c609 b23e aace 5e3f
000000d0: 8a51 1c3f 40f8 183e 50e7 8e3d 30aa b63e
000000e0: f027 593d 1a0f cb3e 105a 863e 0cc7 f93e
000000f0: b44f 633e d088 9b3e 1257 ba3e 478c 463f
00000100: e604 993e 7936 5b3f adb2 7a3f 849d 9c3e
00000110: 7e15 aa3e bf15 793f 9090 6f3e 0864 693f
00000120: 3cc8 eb3e 54f9 013e 7e70 fb3e e39b 6e3f
00000130: 5f4e 523f c02c 0a3c fe07 a33e 97cb 363f
00000140: 7c3c 093e 8a8d 983e dff6 483f a84a ab3e
00000150: f0e9 423f fe77 983e 00ee 683f 6428 433f
00000160: 2c55 943e 4895 5d3f 9cab 603f f48e 783e
00000170: 0a85 f63e 2ca5 723f 7c93 163e 0cbb 2d3f
00000180: a668 f23e 4aa5 153f e136 4a3f 47d6 373f
00000190: 8f29 3e3f 80cc c63b 3c5d c13e 907d 423e
000001a0: 40e8 4d3f 8049 143f 7a03 d03e 6baf 2b3f
000001b0: 94e7 063f d596 343f 9e78 253f c098 783e
000001c0: 9034 053e 09f3 123f ebb1 243f f049 0b3e
000001d0: bb0c 443f 5e5e f23e ceff 3d3f 2679 073f
000001e0: 434b 713f 18ca ba3d 7023 d63e 04e2 523e
000001f0: 7911 183f 6479 153e 2454 ab3e 2a3b 8a3e
00000200: 380d 503f 551d 543f b878 f03e a221 a13e
00000210: 6819 c33d 7e25 243f 88a0 e93d 1ef2 ec3e
00000220: a4af 543e 8c82 7e3e 8742 373f 0979 773f
00000230: 0116 143f d04c 073e 6672 913e 5cce 533f
00000240: 06aa bc3e 6421 1a3e 0070 683e 2254 a83e
00000250: e04c 4f3d 672a 783f 180f 3c3e 122e cd3e
00000260: a089 123e fbb9 593f fe07 a73e ce10 6d3f
00000270: ae1b 2e3f baf4 3f3f 00bd 4e3e d07d b03e
00000280: a42b 1f3f acc2 183f 40b8 b83e 1a47 f83e
00000290: 9e4f 5d3f 5b85 453f 2564 513f 3661 973e
000002a0: 33a3 3c3f 90cd 243d 2b1a 363f 840a 613e
000002b0: 3006 0d3d 152f 433f ebda 0b3f 5bf8 1d3f
000002c0: de5a 263f 2c65 073e d0b0 583d 02a9 bb3e
000002d0: bd08 0d3f 37cc 1d3f 2e48 d03e f661 223f
000002e0: 1e1e 3f3f 0cfc a83e 20a1 f83e 64bc 1e3f
000002f0: 9703 1b3f 0deb 7e3f f00e 6e3d b461 263e
00000300: a03e f63c d41b 293f 2488 853e 1133 733f
00000310: 748a d23e c06a 2e3c 0ff3 4f3f 89d7 4a3f
0.72911125 0.08263177 0.034517825 0.03465253 0.04662949 0.4965908 0.73050165 0.72340727
0.2887752 0.7234622 0.49385983 0.3946951 0.91092104 0.56499773 0.31877887 0.49421084
0.36224586 0.3964995 0.50534064 0.2596631 0.6601738 0.78632855 0.62170285 0.8016183
0.4078225 0.6281496 0.7786616 0.03905797 0.55085933 0.5555228 0.9639235 0.14340091
0.2333647 0.33332485 0.5156086 0.32412392 0.68377674 0.80722725 0.8169588 0.65648323
0.9652706 0.30403954 0.7136601 0.24859172 0.2243033 0.4419883 0.30128533 0.591301
0.53451884 0.8516062 0.34773082 0.87034094 0.6106192 0.1493845 0.06977713 0.35676718
0.053016603 0.3965996 0.26240587 0.48784673 0.22198373 0.30377817 0.36394554 0.77557796
0.2988655 0.85629994 0.9792889 0.30588925 0.33219522 0.97298807 0.2339499 0.9116826
0.46051204 0.12692767 0.49109262 0.93206614 0.82150835 0.008433521 0.31842035 0.71404403
0.13401979 0.29795486 0.78501695 0.33455396 0.7613821 0.29779047 0.9098816 0.76233506
0.2897123 0.8655591 0.87761855 0.24273282 0.48148376 0.9478328 0.14704698 0.67863536
0.47345465 0.58455336 0.7898999 0.71811336 0.74282163 0.006066859 0.37766445 0.18993211
0.8043251 0.5792465 0.40627652 0.6706454 0.5269711 0.7054265 0.6463717 0.2427702
0.13008332 0.5740209 0.6433398 0.13602424 0.76581925 0.4733762 0.7421845 0.5291923
0.94255465 0.091205776 0.41823912 0.2059403 0.5940166 0.14597088 0.33462632 0.26998264
0.8127017 0.8285726 0.469671 0.31470972 0.0952633 0.6411971 0.11407572 0.4627847
0.20770127 0.24854487 0.7158589 0.9666906 0.57846075 0.13212895 0.28407592 0.82736754
0.36848468 0.150518 0.22698975 0.32876688 0.050610423 0.969397 0.18365133 0.4007421
0.14310312 0.8504941 0.32623285 0.92603767 0.68010986 0.749828 0.20189285 0.34470987
0.62175965 0.59672046 0.36078072 0.48491746 0.8644961 0.7715661 0.81793433 0.29566354
0.7368652 0.040235102 0.7113368 0.21976668 0.03442973 0.76243716 0.5463092 0.61707085
0.649824 0.13222188 0.052902997 0.3665238 0.5509146 0.6163973 0.4068007 0.63430727
0.7465533 0.33004797 0.4856043 0.6200621 0.6055235 0.9957741 0.058119714 0.16248208
0.030059159 0.6605809 0.2608043 0.94999796 0.41121256 0.010645568 0.81230253 0.7923513

l4.bias f4 [10]
00000000: 4e17 ac3e 647b 6e3e f3cf 6d3f 1257 473f
00000010: 70ef 953d b007 253d 9c52 303e 43b7 703f
00000020: cc5c f53e 569f 833e
0.3361153 0.23289257 0.9289543 0.77867234 0.0732106 0.040290534 0.17219013 0.94029635
0.4792236 0.257075

l4.weight f4 [10, 20]
00000000: 78ca 803d 2c22 6a3f 53d8 483f 8cf0 7e3f
00000010: 4848 ef3d 9036 473d c5f9 4a3f 9805 7d3f
00000020: 48b8 773f 6adb 1e3f f9a9 2a3f 7344 633f
00000030: d8b1 823e 971d 733f 7d06 463f a0c1 ef3d
00000040: beb7 443f 9834 043f ea30 c33e 9241 633f
00000050: 81e3 4f3f 6a9e 4e3f 68e3 933e 9062 3b3d
00000060: b09c 743e 5097 763d 93a8 3d3f c0e9 593d
00000070: 9b3a 333f 5aa4 5b3f 6b9f 4a3f 0cfe 343f
00000080: e516 7c3f e2e5 443f c808 c33e 0cbb cc3e
00000090: 1805 793e c019 823c e015 d03c 097b 183f
000000a0: a619 983e c055 6e3e 8802 ac3d f73d 543f
000000b0: c21a ff3e 6f4e 223f a85d bb3d 029b b83e
000000c0: a06c d33c 0299 d03e 5e48 e13e 92ba 303f
000000d0: 1cc1 f43e 9042 a43e 4c48 063f ecda 173e
000000e0: 3081 313d baeb b73e 9643 293f 041d 433e
000000f0: 8838 533e 06cd 323f 20a2 e93c fc65 443e
00000100: 6cb5 f23e ac1f 0b3f bee7 dc3e a673 bc3e
00000110: aa84 6a3f 8424 813e aca3 e33e 81a3 243f
00000120: 7a20 313f c8be 3d3f 66a8 3e3f d8ae 3d3f
00000130: 60b6 433f 046f 653f 3d41 4e3f 0053 533c
00000140: 604a 0d3f 8eda 063f a2e1 923e c4fe 393f
00000150: 36c3 fb3e b6f4 a13e 07c6 123f 7c21 113e
00000160: 8e06 e13e 18ab c53d 46fa 8e3e f071 b43e
00000170: 968f 063f 61e7 233f 244e 223e 08cc d03d
00000180: d036 333d 770c 7e3f 926d b93e 8a59 303f
00000190: f15f 423f b004 4a3e a270 cb3e 6e7b 3f3f
000001a0: 8172 4a3f 0007 803d 0eac 8c3e c637 573f
000001b0: 00f4 5b3e d03b e73d 67d3 2a3f d216 a63e
000001c0: 9adf b33e 64ff 103f 8fa9 633f 10ff 783f
000001d0: 2ba9 4d3f 1a94 fe3e 84db 3d3e 8020 343c
000001e0: 8ee0 033f c03f f23c 8364 353f f263 bb3e
000001f0: 486c cc3e dba0 153f b28f 3c3f 1826 663e
00000200: f8d1 643e 7080 f83d 8f2c 513f 7825 2e3e
00000210: 2243 013f ca24 a83e 3492 d53e c848 5f3f
00000220: 60cf c83c ee4c 093f b6ec a13e 74b7 7e3f
00000230: ac6e 1a3e 44d5 2d3f 9bc9 3d3f aa30 143f
00000240: 8aae e43e 9a91 fc3e 1a3d d03e 806c f93d
00000250: 1c1e 3b3f d881 ed3e 7685 3b3f a020 1e3e
00000260: 9b34 5a3f 66fd be3e df4e 273f 79f4 483f
00000270: 82f4 203f 3821 4f3e 9650 073f 78bb 503f
00000280: 9cff 2f3f 60c1 ea3d 7ac6 873e f289 6c3f
00000290: bc1f 463e 465b 8a3e 039b 043f 8825 263e
000002a0: 3202 aa3e 415e 7e3f b01d 693f 74c4 e33e
000002b0: 41ea 1d3f 7bac 283f 48c1 ea3d 866c bc3e
000002c0: fb13 2f3f 8817 3d3e 48d8 e13d 8861 663e
000002d0: fe07 313f c819 4c3e 7836 c73d 1d03 6b3f
000002e0: 348f b13e 481b a43d aeeb 383f b2fa 703f
000002f0: dfd0 093f ec6d 493f 1404 7b3e 0461 493e
00000300: 9c82 e83e 1c2a 0f3f 59ce 393f c8bb 553e
00000310: 9452 e03e 4e78 2f3f 06a6 103f 7038 943e
0.06288618 0.9145839 0.78455085 0.99585795 0.116837084 0.04863602 0.7928737 0.9883666
0.96765566 0.6205355 0.6666561 0.8877632 0.2552631 0.94967026 0.7735365 0.11706853
0.7684287 0.5164275 0.38123256 0.8877193 0.8120652 0.8071047 0.28884435 0.045748293
0.23887897 0.060202897 0.7408535 0.053201437 0.700113 0.85797656 0.791495 0.70700145
0.98472434 0.76913273 0.38092637 0.39986455 0.2431835 0.01588142 0.025401056 0.59562737
0.29707068 0.23274899 0.0839892 0.8290705 0.49825102 0.6340093 0.09148723 0.36055762
0.025808632 0.40741736 0.44000524 0.69034684 0.4780358 0.32082033 0.52454066 0.14829606
0.043336093 0.35922033 0.6611875 0.19054037 0.20627034 0.6984409 0.02851969 0.19179529
0.4740404 0.543452 0.43145555 0.36806983 0.9160868 0.25223172 0.4446081 0.6431199
0.6919018 0.74119234 0.74475706 0.74094915 0.7645016 0.8962252 0.80568296 0.012898207
0.5519161 0.5267724 0.2868777 0.72654366 0.49172372 0.31632012 0.57333416 0.1417293
0.43950313 0.09651774 0.27925318 0.35243177 0.52562845 0.6402493 0.15850121 0.10195166
0.043753445 0.9923777 0.36216408 0.68886626 0.75927645 0.1972835 0.3973437 0.74797714
0.7908097 0.06251335 0.27475017 0.8406948 0.21479797 0.11290705 0.66728824 0.32439286
0.35131532 0.56639695 0.889306 0.97264194 0.80336255 0.49722368 0.1854077 0.010994077
0.5151452 0.029571414 0.70856494 0.3659969 0.39926362 0.5844857 0.7365676 0.22475469
0.22345722 0.121338725 0.81708616 0.1700648 0.5049306 0.32840568 0.41713107 0.8722043
0.024512947 0.5363301 0.3162591 0.9949868 0.1508128 0.6790354 0.7413575 0.57886755
0.44664413 0.49329835 0.40671617 0.12178898 0.7309282 0.46388125 0.7325052 0.15442133
0.8523652 0.37302703 0.6535472 0.78498036 0.6287309 0.20227516 0.5285734 0.81536055
0.68749404 0.114626646 0.26518613 0.9239799 0.19348043 0.2702276 0.5179903 0.16225255
0.332048 0.9936257 0.91060925 0.4448582 0.6168557 0.65888184 0.11462647 0.36801547
0.6838986 0.18466008 0.110275805 0.22498143 0.6915282 0.1993171 0.09727186 0.91801625
0.34679568 0.08013016 0.7223462 0.9413253 0.53834337 0.7868335 0.24513274 0.19665915
0.45412147 0.5592363 0.72580487 0.20872414 0.43813002 0.68542945 0.5650333 0.28949308

l3.bias f4 [20]
00000000: 24d5 593f 2062 3d3e 8067 d83e 1be5 143f
00000010: b80a d23e d4c1 f03e 7e11 6c3f 1c7f 3c3f
00000020: 5409 803e a8d6 193f a8d7 823d fcb1 373e
00000030: 7c0a 173e 38e3 8b3e cdfc 2d3f 2047 353e
00000040: 0a28 a33e 287f c43d b651 d03e 146d 6f3f
0.8509085 0.18494463 0.42266464 0.5816209 0.41023803 0.4702288 0.9221419 0.73631454
0.25007117 0.60093164 0.063887894 0.1793899 0.14750093 0.27321792 0.6796387 0.17702913
0.31866485 0.09594566 0.4068734 0.93525815

l3.weight f4 [20, 10]
00000000: a358 313f e0d9 123f ae16 6b3f 68e8 f73d
00000010: acd9 333e 0891 913e 417c 163f a8e4 ab3e
00000020: 5013 1f3f facc aa3e 8ade 283f 5e6b 213f
00000030: 8348 7c3f c80c 8d3e bccc 733f 409b 003e
00000040: 1639 4b3f b6b7 713f 3191 603f e269 b13e
00000050: d0dc 1a3e f0cf 003f 55f1 2b3f 7af7 ed3e
00000060: fb7c 493f b19f 343f ba67 9d3e 949c 383f
00000070: b8d0 e43e 0164 293f a007 203d ecd7 7c3e
00000080: c821 a23d 9670 913e 0055 7a3e 3059 8c3e
00000090: 1e08 1f3f f398 783f 30d5 1c3e 6536 073f
000000a0: fdc3 253f 8148 543f 7cf5 563f c113 383f
000000b0: cc82 cf3e d0bb 1f3d 284d 823d dc02 d23e
000000c0: c0be 8a3d 12fd e33e 00be 693f dcfb 1d3e
000000d0: 600b 633e 780f f13e 7233 993e a8dd 143e
000000e0: 2070 193d a1d9 7b3f ecd7 3a3f 6866 b53d
000000f0: 44d1 143e 1c39 643f 9b51 623f 9d19 763f
00000100: f362 1b3f c47b 233f f072 c43e a07f 3f3f
00000110: 72c3 8a3e e087 ec3c ca85 ee3e 16aa fd3e
00000120: b891 d03e f064 b43e 185f 4f3f 201d 053d
00000130: f99f 5b3f eebb 333f c865 3f3e 97cc 7b3f
00000140: f284 6f3f 0488 f63e 280a ea3e 008b 183d
00000150: c8c0 c13d 740a 753e 00c0 313c 20b4 103f
00000160: 3447 273f e710 203f da82 283f 9cbc 433f
00000170: f28a 1a3f 8ef8 5a3f a984 413f e6f2 ea3e
00000180: 36c8 8d3e b45f 933e a023 773f 3b67 2f3f
00000190: 7e19 4c3f 4b08 0b3f cfae 523f 5d26 6e3f
000001a0: 6fed 7d3f 1025 7c3e 00f4 773e 1412 ee3e
000001b0: 5f67 4e3f e952 473f ccae 313f a00a 013d
000001c0: 3670 eb3e a20c e83e 2d91 423f e9b7 663f
000001d0: 162b 173f 0066 873a 3053 153d 9556 323f
000001e0: d679 cb3e 4054 543e 58ef b03e df24 453f
000001f0: e146 653f cc87 6f3e e345 7b3f 80d1 793c
00000200: 404b db3e 8053 193d 6de2 4d3f 8e39 8b3e
00000210: d1b0 463f 78c6 223f 7256 1d3f 9776 143f
00000220: bca8 d23e 3c03 243e 0fd4 4d3f d2a1 b03e
00000230: 362e 3e3f a056 553f 18a8 933e 400e f73d
00000240: bc4f 3e3f cea5 da3e d226 ae3e fb5b 753f
00000250: a0f3 2b3f a543 353f 58f3 413f fe60 3b3f
00000260: 14da 1b3f f019 1e3e 08f0 3f3f 90c6 e03d
00000270: 086f 383f 1016 8c3d a028 ff3c c2a6 703f
00000280: f669 f93e 30d3 373e 752c 233f ae20 353f
00000290: efa9 0e3f 4c51 083f 3a12 263f 8ce5 763e
000002a0: a069 1f3d 3e88 403f 1e1e b93e 961f 4a3f
000002b0: 79ca 3d3f 7082 503d 9c0b 143e 3135 5b3f
000002c0: a26f 083f 3415 9a3e ad53 093f 7d7b 3a3f
000002d0: 9191 463f ab3d 593f d3f9 183f 5d28 303f
000002e0: 0c73 7f3e d052 6b3d a4bc b73e 129b 993e
000002f0: a378 183f 1dd0 023f 2070 d03e 71de 493f
00000300: 6cca 563e 9467 3c3e 0049 6f3b 1e4a 5b3f
00000310: 86e0 c03e d8bc 503f 74fc 9d3e ee8e 363f
0.69275874 0.573637 0.9183148 0.12104875 0.17563504 0.28430963 0.58783346 0.33572888
0.62138844 0.3335951 0.6596457 0.63054454 0.98548144 0.27548814 0.95234275 0.12559223
0.7938398 0.94420946 0.87721545 0.34651095 0.15123296 0.5031729 0.6716512 0.46477872
0.7870633 0.7055617 0.307432 0.7211392 0.4469049 0.6616822 0.03906977 0.24691743
0.079165995 0.2840621 0.24446487 0.27411795 0.6212176 0.9710838 0.153157 0.52817374
0.6475218 0.8292313 0.8396833 0.7190514 0.40529478 0.03899747 0.06362373 0.41017807
0.06774664 0.44529015 0.9130554 0.15428108 0.22172308 0.47082114 0.29922062 0.1453768
0.037460446 0.9837895 0.7298572 0.08857423 0.14532954 0.8914964 0.8840577 0.9613283
0.6069786 0.63860726 0.3836894 0.74804115 0.27102238 0.028873384 0.46586448 0.49543828
0.40736175 0.3523326 0.81004477 0.03249848 0.85790974 0.7020863 0.1869117 0.98359054
0.93562233 0.48150647 0.45710874 0.037241936 0.09460598 0.23929769 0.010848999 0.5652485
0.6534302 0.6252579 0.65824664 0.7645967 0.60368264 0.85535514 0.7559305 0.45888442
0.2769181 0.28783953 0.96538734 0.6851689 0.797264 0.5430953 0.82297987 0.9302729
0.9919042 0.24623513 0.24214172 0.46498168 0.8062648 0.77860886 0.69407344 0.031504273
0.45984048 0.45322138 0.7600277 0.90124375 0.5905012 0.0010330081 0.036456287 0.69663364
0.3974139 0.20735264 0.34557605 0.77009386 0.8956128 0.23391646 0.98153514 0.015247703
0.4283085 0.037433147 0.80423623 0.27192348 0.7761355 0.6358409 0.6146003 0.57993454
0.4114436 0.16016859 0.804017 0.3449846 0.7428926 0.83335304 0.28839183 0.12063265
0.74340415 0.42704624 0.34013993 0.95843476 0.6716862 0.7080634 0.7576194 0.73194873
0.60879636 0.15439582 0.74975634 0.10975373 0.7204442 0.068401456 0.031147301 0.9400445
0.48713654 0.17951655 0.6373971 0.7075299 0.5572805 0.5324905 0.6487156 0.24111003
0.03891909 0.7520789 0.3615579 0.78954446 0.74137074 0.050905645 0.14457554 0.8562804
0.5329534 0.30094302 0.53643304 0.7284468 0.77565867 0.8485972 0.597562 0.6881159
0.2494623 0.057452023 0.3588611 0.30001122 0.5955908 0.51098806 0.40710545 0.78855044
0.20975655 0.18398887 0.0036512017 0.8565997 0.37671298 0.8153815 0.3085667 0.71311843

l2.bias f4 [10]
00000000: d8f2 aa3e e27d 843e 945f 283f 8ed9 343f
00000010: 700f 403f 846c 643f 541c 763f 686c e63e
00000020: aac1 613f 25b4 173f
0.333884 0.2587729 0.6577084 0.7064446 0.75023556 0.8922808 0.96136975 0.45004582
0.8818613 0.59259254

l2.weight f4 [10, 20]
00000000: fce9 0e3e f84e 923d 035b 133f 82ef b73e
00000010: d018 a53d b865 213f 7049 833d f23e 9a3e
00000020: 5e72 993e be3b f33e dbab 613f 80cf 853b
00000030: 589d f43e 1809 333e 1cee 643e 540c 463f
00000040: 2942 683f b4ce 5e3e ace0 1c3e d05f 353d
00000050: b821 023e 40f8 863e 4582 6f3f 207d 0e3f
00000060: 0a00 ce3e e098 a53c ea71 303f 3e84 d53e
00000070: 2dcd 233f c08a cb3d 3197 623f 80d4 943e
00000080: a114 6e3f 9999 0b3f 2e32 e03e 5839 133f
00000090: 76b5 dc3e d0b8 763f b9d0 253f 20d9 e93e
000000a0: 828c 753f 959e 483f dabf 1f3f 94bf ec3e
000000b0: 80ac d23b 8e64 0a3f b258 dc3e 8499 f43e
000000c0: 1a31 fb3e d88e 253e b08a 0b3d 9c82 183f
000000d0: 83f0 453f 95e7 613f d8d9 c63e 02fd 513f
000000e0: b4fd 343f d06a 9f3d c03a 933e cf39 173f
000000f0: bee9 053f 68cd 6e3f 26e4 6a3f f01e 753d
00000100: c02e 773c c726 503f c436 9e3e a019 7a3f
00000110: e591 1a3f c5f7 063f 78a7 e03e 2441 1b3f
00000120: bbcd 6b3f 90e7 d13d c74f 703f 5826 123e
00000130: 9851 bd3e 1038 103d b3b5 603f 944b 553f
00000140: 5879 093e 125a 303f 3dcc 663f f495 5a3f
00000150: 3c03 283f 5011 913e 8ab1 223f 5900 553f
00000160: 4663 e93e 604c 913c e9e5 0d3f 2fb2 663f
00000170: aef6 1b3f ec1c 073f d46e 473e b82e 253f
00000180: 2cd6 2a3f 223e c43e 574f 673f e0b2 563f
00000190: f3af 633f 70f6 ca3d 866f 323f 2019 0b3d
000001a0: 0c77 083f b18b 213f 74bd 523f 3a69 d93e
000001b0: f635 f93e 368c 843e faf5 213f 6622 0c3f
000001c0: 64c6 3f3e 3d99 333f 600b 2e3f 70ef b03d
000001d0: 145b c23e b283 563f 4ea6 e03e b0cf 083f
000001e0: 2003 5a3f ae58 e63e fe75 803e 60be 173f
000001f0: 080f fa3d 5cf7 c63e 7012 3e3f 16ff 643f
00000200: 5b70 463f 61ce 583f 00a2 a93d b099 f13e
00000210: 10e4 8a3d 7956 003f f05a c43e 04aa 933e
00000220: 2239 3c3f 98a2 163f 68b7 d73d b841 503f
00000230: e28b b93e bd49 123f f62c 903e cfc2 6c3f
00000240: 31ba 443f f089 473e 87fb 413f 16f3 e03e
00000250: 9bbf 333f 1829 563e 2ec3 0a3f c0e6 6d3c
00000260: 2065 c83d b66b bb3e 26a4 bc3e 532d 653f
00000270: b0dd 363e 0006 d33d 628f 4c3f c419 e83e
00000280: 9450 6a3e fe18 a93e 3490 df3e a0e1 383f
00000290: 6ad4 c73e f0b8 ca3e 4226 b03e 0ba4 0d3f
000002a0: 05e3 5f3f d630 2d3f 9f5c 0a3f 7924 143f
000002b0: 02bc 123f 1401 323e c4ba 5e3e 689a 3e3f
000002c0: e0ee 513f 583f 7b3e 8c74 643f 988b a63e
000002d0: bdef 5c3f d0c6 563d 8006 453f f809 2c3f
000002e0: dd18 373f 54d8 3a3f c6d6 eb3e c032 f03c
000002f0: 0704 563f f24a 1e3f 080b da3e 2616 ba3e
00000300: 7d1f 2f3f e836 4d3e 117a 2b3f fbc2 453f
00000310: 6898 8b3e 9812 163e 50a3 5e3f c36f 743f
0.13956445 0.07143968 0.5756075 0.35924917 0.08061373 0.63045835 0.064104915 0.30126148
0.29970068 0.47506517 0.88152856 0.004083574 0.47776294 0.17483938 0.22356457 0.7736256
0.9072595 0.21758538 0.1532008 0.044280827 0.12708175 0.26361275 0.9355815 0.55659676
0.40234405 0.020214498 0.6892382 0.41702455 0.6398495 0.09938574 0.8851195 0.29068375
0.9300023 0.54531246 0.43788284 0.57509375 0.43107194 0.9637575 0.6477161 0.45673466
0.9591752 0.78366977 0.6240212 0.46239913 0.006429255 0.54059684 0.4303642 0.47773373
0.490609 0.16167772 0.03406781 0.59574294 0.77320117 0.8824399 0.38838077 0.82026684
0.7069962 0.07784045 0.2875576 0.59072584 0.5230979 0.93282175 0.91754377 0.059843957
0.01508683 0.8130917 0.30901158 0.9769535 0.6037887 0.52721816 0.4387777 0.6064627
0.92110795 0.10249245 0.9387173 0.1427244 0.36976314 0.035209715 0.8777725 0.8331845
0.13425195 0.68887436 0.9015539 0.8538506 0.65629935 0.2833352 0.63552153 0.83203655
0.45583552 0.017736614 0.5542894 0.90115637 0.6092328 0.52778506 0.19475871 0.6452441
0.6673305 0.38328654 0.9035544 0.8386669 0.8894035 0.099102855 0.6970142 0.033959508
0.5330665 0.6310378 0.8232033 0.42463094 0.4867398 0.25888222 0.63265955 0.5473999
0.18728024 0.701557 0.67986107 0.08639419 0.37960112 0.837947 0.4387688 0.53441906
0.8516102 0.44989532 0.2509002 0.59274864 0.12209898 0.38860595 0.74246883 0.8945173
0.7751519 0.8468991 0.08282852 0.47187567 0.06781781 0.50131947 0.3835063 0.2884065
0.7352468 0.5884185 0.10533029 0.8135028 0.36239535 0.57143766 0.28159302 0.92484754
0.76846606 0.19486213 0.75774425 0.4393546 0.7021424 0.20914114 0.5420407 0.014520347
0.09784913 0.36605614 0.36843985 0.89522284 0.17858005 0.10303879 0.79906285 0.45332158
0.228823 0.3302688 0.43664706 0.72219276 0.39029247 0.3959422 0.34404188 0.55328435
0.8745578 0.6765264 0.5404758 0.5786815 0.5731813 0.17383224 0.21750933 0.74454355
0.8200512 0.24535882 0.89240336 0.32528377 0.8630331 0.052435696 0.76963043 0.6720271
0.71522313 0.7298634 0.46062297 0.029321074 0.83599895 0.6183311 0.4258654 0.36345023
0.6840742 0.20040476 0.66983134 0.7725064 0.27264714 0.1465553 0.86967945 0.95483035

l1.bias f4 [20]
00000000: 3ccd 3d3e f2e1 103f 6881 473f 1198 313f
00000010: ac0c 1e3e f16a 163f d227 e53e ee02 dc3e
00000020: 8158 4f3f fb38 1d3f a49a e03e 863c d13e
00000030: 7c82 3a3e ca78 883e 1aa1 853e f1f9 453f
00000040: ea09 3e3f c71b 433f f00b 4f3f cfbb 1e3f
0.18535322 0.56594765 0.77931833 0.6937266 0.15434521 0.5875693 0.44756943 0.42970985
0.8099442 0.6141507 0.4386798 0.40866488 0.18213838 0.26654655 0.26099473 0.77334505
0.7423388 0.7621426 0.8087759 0.62005323

l1.weight f4 [20, 10]
00000000: ecda 883e 045e 5f3f faaa ab3e 1858 ce3e
00000010: ad80 493f 264b ea3e 9053 933d eeb1 783f
00000020: cbf3 363f 32db da3e b028 ad3d 7a1a fb3e
00000030: 1c3c 2a3e e87c 1d3e b842 ba3e 4fb5 033f
00000040: 8e51 363f 37f4 603f 2ad3 573f c6e6 7c3f
00000050: e03b 0f3f b633 df3e 4caf 023e 38b9 8d3e
00000060: 046e 413f ba3d e93e 28d3 d23d 32ef 463f
00000070: 4247 753f 8334 223f ecbb 7e3e bb98 5b3f
00000080: 4910 633f c0be 433d 2c5f 0e3e 2081 d43d
00000090: d44c cf3e f877 e73e 7c24 043e 9411 f23e
000000a0: 1efd 803e ad5b 5b3f 7efe 163f abc6 113f
000000b0: 9731 113f 5812 d63e 5095 e63d 7f82 443f
000000c0: 80b0 973b e8a6 d53e c049 313d 1c58 e23e
000000d0: cc12 573e de50 c03e aadf 893e e279 313f
000000e0: 4d47 653f b48a 5c3e 3569 133f 9e0f 813e
000000f0: 98f1 6f3e 5851 0d3e 5632 223f 187c c13d
00000100: 467f f23e 995e 7e3f 1ddd 6e3f 4068 3a3c
00000110: 145c 5a3f cf2d 1c3f df19 6b3f 70db 753d
00000120: a67e b93e 783c a03e f8e6 713f d903 613f
00000130: 8198 583f e8e0 f43e 2b0d 6d3f 986d 9a3e
00000140: 468e 3f3f 442b 843e 504e 1f3e 0644 cd3e
00000150: 1250 403f 26e0 bc3e fcea d23e f054 803d
00000160: 7e7f 7c3f 8875 8d3d 4a80 803e 4f13 073f
00000170: 869d d63e b6b1 393f 4bb3 4e3f 5d44 5d3f
00000180: 9a0e 653f 2af7 323f 17f5 333f 60b3 6e3d
00000190: 7298 3a3f 307f aa3e 0e8f 083f 1845 003e
000001a0: 72ea 643f 8513 083f 309c 3c3e 68d7 013f
000001b0: 58a5 513e 89eb 733f be05 a13e b301 7e3f
000001c0: ca52 1c3f 2311 5c3f d471 353e 3282 753f
000001d0: 000a 7d3b a8b8 d03d 54a7 133f 7202 633f
000001e0: 3e1d fa3e 449c 453e d238 e83e a222 853e
000001f0: bc2d 483e 1c97 2b3f 8fba 603f ece9 b43e
00000200: 1057 283d b252 303f e28e 1a3f 0d17 6d3f
00000210: de14 ed3e ed44 043f c965 1b3f a0bc 7a3d
00000220: 3301 7e3f 2581 043f 3fa1 153f 1268 4d3f
00000230: 7722 243f 35fb 1e3f 60a4 333d 20a0 a03c
00000240: f04d 233e 281f 7b3f 90a5 593d 2615 093f
00000250: 88c0 df3d e2d6 f43e c860 fb3e e43e 663f
00000260: 30e8 a03e b43a 933e 8017 523f 67f9 743f
00000270: f866 d93e 89d5 083f 78f3 013f fe42 913e
00000280: b0b6 823e 583a 1f3e 77b5 323f 7d3b 3c3f
00000290: e011 603e 208b 883d 2699 b23e b85f 293e
000002a0: 6033 3e3d 3269 aa3e 9e31 c83e c704 7a3f
000002b0: 4856 653e 8e18 b03e e055 4f3d 2600 693f
000002c0: f793 243f 54f6 6c3f 13f1 163f 20bb 503d
000002d0: 9856 6b3f d955 643f f9fc 213f f048 1e3f
000002e0: 738d 1a3f 24b3 2a3f d346 3c3f 33db 113f
000002f0: 84bc d23e 7c84 e13e ada0 003f 92c9 8e3e
00000300: 5e90 803e 010f 643f 0ca1 073e 9804 df3e
00000310: b8bc d03e 6022 953c 2830 4c3e a0aa 9b3d
0.26729524 0.8725283 0.33528882 0.40301585 0.7871197 0.4576046 0.07193673 0.971465
0.7146575 0.42745358 0.08455026 0.49043638 0.16624492 0.15379679 0.36379027 0.5144853
0.7121819 0.8787264 0.84306586 0.9878963 0.55950737 0.4359414 0.12762183 0.27680373
0.75558496 0.45554906 0.10294181 0.77708733 0.95811856 0.63361377 0.24876374 0.85779923
0.88696724 0.047789335 0.13903493 0.10376191 0.40488303 0.45208716 0.12904543 0.47279036
0.25193113 0.8568676 0.58982074 0.5694377 0.56716293 0.4181087 0.11258948 0.7676162
0.0046291947 0.41728902 0.043283224 0.44207847 0.21003264 0.37561697 0.26928455 0.69326603
0.8956192 0.21537286 0.5758241 0.25207227 0.23432004 0.13800561 0.63358057 0.09447497
0.47362727 0.99363095 0.9330614 0.011377394 0.8529675 0.610074 0.9183635 0.060023725
0.36229438 0.31296134 0.94493055 0.87896496 0.846077 0.4782784 0.9259822 0.30161738
0.7482647 0.2581426 0.15557218 0.4009096 0.7512218 0.36889762 0.41194904 0.062662005
0.9863204 0.06907183 0.25097877 0.5276384 0.41917056 0.7253679 0.8074233 0.8643244
0.89475405 0.6990839 0.7029585 0.058276534 0.72888863 0.3330016 0.53343284 0.12526357
0.89420235 0.53154784 0.18418956 0.5071931 0.2047323 0.95281273 0.31449693 0.9922134
0.61063826 0.8596365 0.17719203 0.9590179 0.0038610697 0.101914704 0.576772 0.88675606
0.48850435 0.19297892 0.4535585 0.26002985 0.19548696 0.6702745 0.87784666 0.35334718
0.041098654 0.68876183 0.6037427 0.926133 0.46304983 0.5166767 0.60702187 0.061215043
0.9922058 0.5175956 0.58449167 0.80236924 0.6411509 0.6210206 0.043857932 0.019607604
0.159477 0.98094416 0.05313641 0.53547895 0.10925394 0.47820193 0.49097276 0.89939713
0.31427145 0.28755724 0.8206711 0.9569306 0.4246137 0.5345083 0.5076213 0.28371423
0.25530005 0.155496 0.69808143 0.7352827 0.21881819 0.06667161 0.34882468 0.1654042
0.046435714 0.33283383 0.39100355 0.9766354 0.22396195 0.34393734 0.050619006 0.9101585
0.64288276 0.92563367 0.589616 0.050959706 0.91929007 0.89193493 0.6327663 0.61830044
0.60372084 0.66679597 0.7354557 0.56975096 0.4115945 0.4404639 0.5024517 0.2788816
0.25110143 0.89085394 0.13245028 0.43558192 0.4076898 0.018204868 0.19940245 0.076009035
