tests/data_pth/abs_diff_ties1.pth (torch, 10282 bytes, 14 tensors)

l7.bias f4 [20]
00000000: d85e b63e 9e8f 8a3e cc6e e23e a3fb 133f
00000010: 48da 683e 060d 773f 74e9 003f f866 403f
00000020: ba57 d53e 8d68 193f 00b6 523f 505a 2e3f
00000030: c9cc 1a3f 98ec f43e 07ae 453f 7c59 643f
00000040: 523d 733f 304c 4d3f df6c 293f 004c 1a3c
0.35619235 0.27062696 0.44225156 0.5780584 0.22739518 0.9650425 0.5035622 0.7515712
0.41668493 0.59925157 0.8230896 0.68106556 0.6046873 0.47836757 0.7721867 0.8919904
0.9501544 0.8019438 0.6618175 0.009417534

l7.weight f4 [20, 10]
00000000: b68f 2f3f 08f1 9b3e 0ad6 b33e d0f1 983e
00000010: 336d 733f d0e5 133d 9154 303f 567c 813e
00000020: 5ee9 033f 8c2a 343e ca89 5c3f 2e95 163f
00000030: bc3c 303e 40df c33e 9507 2b3f 1c3b 663e
00000040: ce65 f63e 712e 413f 4823 d23d e2dc e73e
00000050: bdcc 0d3f b4f1 243e ba5f 063f 1c02 093f
00000060: 28c3 513f 6132 2f3f 297d 413f 831d 193f
00000070: 4afd 813e f232 ec3e da4d 8e3e 7440 2d3e
00000080: 5c47 923e 3695 473f 3c01 503e ede7 d63e
00000090: e475 443f 9c97 b13e f484 623e 1875 d73d
000000a0: 0ab4 273f 40ff 593d 737a 0c3f e637 bc3e
000000b0: bbfa f93e 7229 9e3e 1007 6f3e 7e3d 443f
000000c0: 1eaf a53e 7c68 653e a805 773e 4c76 9a3e
000000d0: 7ef9 8f3e f840 b73d c565 043f c85d 5a3f
000000e0: 2579 bd3e b299 8e3e b00e af3d 6324 ea3e
000000f0: a276 643f 4048 793c 12a4 4b3f 0cc4 033e
00000100: 6ae9 833e 6cc7 6a3f 98a9 093e f8c1 113f
00000110: 1046 013f 731e 2c3f 9093 1a3f e25b ab3e
00000120: 6abe b53e 02b3 323f 862d 773f 005b 543f
00000130: 88ce 503e 4078 c53c 8703 683f 4c24 1b3f
00000140: fc0d 663e 462f 2a3f f020 753e b651 9c3e
00000150: f285 fb3e 8697 2e3f c3df 0a3f be01 183f
00000160: 80c8 533c 2957 313f 6aa0 4f3f 02dc 403f
00000170: f279 e83e d44d ff3e 0a68 8a3f 2995 143f
00000180: 710e 0b3f e50c ed3e 3f27 653f 4877 8a3e
00000190: 7c24 ac3e b4c5 713f 7a19 5c3f d433 323f
000001a0: 4c31 5a3f 0e4c 9f3e d6fb e03e 706e 223e
000001b0: b460 8b3e 082f 063f 0c61 3b3e 8020 d53c
000001c0: 14a4 763e 1c9f 553e 526e a23e ee30 393f
000001d0: 502a a83e 3f11 4f3f a656 543f c77d e73e
000001e0: c819 1f3f 29b7 343f ac1b 3e3f c6dd 453f
000001f0: 3849 1b3e be1c fa3e f8eb 643f d4e6 b33e
00000200: 451e 3a3f fc97 b33e 185f 973e f076 133e
00000210: 20d4 7e3f 1595 453f 94ca c13e 4309 b13e
00000220: 074a 143f 2090 7a3d 86a9 343f 3814 c73e
00000230: ac31 533f 4ec4 003f 60a7 053e d089 543f
00000240: 005b 0e3f 27cc c73e 4c89 e03e 1084 4bbd
00000250: 02f9 083f a86b 2c3f d133 263f 343c 093f
00000260: 0084 553a 82ee a83e 0444 143f b022 083f
00000270: 74ee e43e c840 9a3e 8046 6d3e 476b 303f
00000280: 5aee 393f 8817 7f3f 9c73 673f 76b7 fa3e
00000290: ba95 113f be00 553f 3a10 523f 54ba 623e
000002a0: ba12 8c3e f4f4 0b3f ac33 e73e d232 f43e
000002b0: 4ca0 f23e aea2 253f 60c7 463e 70c2 243e
000002c0: 1099 173d e4db 7b3f 1422 393f afa0 6f3f
000002d0: a1fb 173f 7403 083f e225 a03e baf1 d03e
000002e0: a842 503f fccd 273e 603b 373e b069 fe3e
000002f0: de40 e23e 9c48 4c3e c7db d83e d8bf 623f
00000300: b37c 343f 720a 013f ae73 ef3e 4726 d93e
00000310: 20bc 153e 2e0b 513f 6ee7 563f 554f 753f
0.6857866 0.3045733 0.35124236 0.29871988 0.950885 0.03610784 0.6887904 0.25290173
0.51527965 0.17594355 0.8614775 0.5882138 0.17210668 0.38256264 0.66808444 0.22483486
0.48124546 0.7546149 0.102606356 0.45285708 0.5539053 0.16107827 0.5248982 0.53518844
0.8193841 0.6843625 0.75581604 0.59810656 0.25388557 0.46132618 0.2779377 0.16919118
0.28570068 0.7796205 0.20312971 0.4197382 0.76742387 0.3468598 0.2212103 0.10520381
0.6550909 0.05322194 0.5487434 0.36761397 0.48824105 0.30890995 0.23342538 0.7665633
0.32360166 0.22403139 0.24123251 0.30168378 0.28120035 0.08947939 0.5171779 0.8529935
0.37006488 0.27851635 0.08547723 0.45730886 0.8924352 0.01521498 0.79547226 0.12867755
0.25764018 0.91710544 0.13443601 0.569366 0.5049753 0.6723396 0.6038141 0.3346854
0.35496837 0.69804394 0.9655384 0.82951355 0.20391285 0.024105191 0.9063038 0.6060226
0.22466272 0.66478384 0.23938346 0.3053109 0.4912563 0.68199956 0.54247683 0.5937766
0.012926221 0.6927362 0.8110415 0.75335705 0.45405537 0.49864066 1.0813 0.580401
0.5431891 0.462989 0.8951301 0.2704413 0.33621585 0.94442296 0.85976374 0.69610333
0.8523147 0.31112713 0.43942136 0.15862441 0.27222216 0.52415514 0.18298739 0.026016474
0.24086028 0.20861477 0.31724793 0.72340286 0.32844782 0.8088569 0.82944715 0.45213148
0.62148714 0.7059198 0.74260974 0.77291524 0.1516465 0.48850054 0.8942256 0.35137045
0.7270244 0.35076892 0.29564738 0.1440084 0.9954243 0.77180606 0.37849867 0.3457738
0.57925457 0.061172605 0.7057117 0.38882613 0.8249767 0.5029954 0.1305213 0.83022785
0.55607605 0.39022943 0.4385475 -0.04968649 0.53504956 0.6735177 0.64922816 0.5360749
0.00081449747 0.32994467 0.57916284 0.5317793 0.44713175 0.3012755 0.23171425 0.6891369
0.7262932 0.9964528 0.9041078 0.48968095 0.5686909 0.8320426 0.8205601 0.22141391
0.27358037 0.54670644 0.4515661 0.47695023 0.47387922 0.64701355 0.19411993 0.16089797
0.037011206 0.983824 0.72317624 0.9360456 0.5936833 0.5313027 0.31278902 0.40809423
0.8135171 0.1638717 0.17893744 0.49690008 0.44190115 0.19949573 0.42355177 0.8857398
0.70502776 0.50406563 0.46767944 0.42412016 0.14622545 0.81657684 0.83946884 0.95824176

l6.bias f4 [10]
00000000: 769a 713f 60ce 9e3d 4984 353f 465e fd3e
00000010: 203e 493e bca1 d83e baa1 833e 005d e93e
00000020: 00d9 4f3f 907c e93d
0.94376314 0.07754207 0.70904976 0.49485987 0.19652605 0.42310894 0.25709325 0.45578766
0.8119049 0.114007115

l6.weight f4 [10, 20]
00000000: ca54 553e 81e4 0b3f 186c 3a3f 7400 623e
00000010: 0cee 093f a272 d53e 5a9a 133f 44fa 0d3f
00000020: e65d 863e 910f 493f 1e39 183f de57 1f3f
00000030: ea9c 483f 6296 273f 74dc bf3e 56d4 163f
00000040: 74ae 863e 58b5 853d 3a11 8b3e a021 753d
00000050: 02ee 3e3f 40a2 063f 6056 3a3f 4f40 383f
00000060: 2d82 3e3f 3fc4 233f 1017 613f 1f37 793f
00000070: edee 343f 1684 883e fe1e 313f 287d 7e3e
00000080: 80fb 013e c73a 693f 4e21 553f 28cd f33e
00000090: f237 ac3e 9de9 183f 9e79 153f b255 c33e
000000a0: 62d6 be3e 181f bb3e 10d9 2e3e fc3b cf3e
000000b0: 64a6 0b3f 70eb 983d a30e 293f e3c8 dc3e
000000c0: baef 0c3f c865 113f b2d9 ea3e c4db 903e
000000d0: 46a8 033f e0df 813d 1ca3 7d3e 4f71 553f
000000e0: 8682 563f 17b0 363f 7265 433f 2394 193f
000000f0: 58ed f83d 284a dc3e 9060 883e 0fa8 f63e
00000100: 0260 3e3f 22ae 083f 7c3e 423e 1ac6 ff3e
00000110: 6cf1 7d3e 6e3a 883e 827d 033f e2db 2b3f
00000120: f9eb 3e3f 7037 573f 05b7 283f 2897 7a3e
00000130: 8afa 8e3e d283 c13e fe51 d83e d2a5 cf3e
00000140: ed30 033f a44f 373f ce8a 163f d490 0c3f
00000150: e017 e33e e89c 6d3e e691 ec3e 1779 2f3f
00000160: 5b96 063f 8375 463f 2b59 f23e a4bc 043f
00000170: d892 263e f8fd 533e 8b7a 0b3f 8848 503f
00000180: 3e81 0d3f acbe d03e d6af 203f bd29 3d3f
00000190: 4c22 f53e f051 633d 4d8d 163f 01eb 2d3f
000001a0: 7d73 763f 525d c83e c7c8 313f 9c3c 903e
000001b0: 738e 303f 6078 273f ec6b d33e 726e e13e
000001c0: 8c04 863e d481 1a3e 98b1 393e fa30 cb3e
000001d0: 7ecb 003f b256 633f 20f7 113f 3699 1c3f
000001e0: 3c83 ba3e 4f74 d23e 3d3f 0b3f 74a5 db3e
000001f0: 1c03 c33e 000a 9d3e e01a df3e fc92 583e
00000200: e536 2a3f c204 cd3e e8c0 ad3e ed03 413f
00000210: 3a01 293f 1b7d 123f e41b 193e c4e9 383e
00000220: 2efd d93e ee82 d63e 0c40 313f 499f 483f
00000230: 3c31 6b3e eead 3e3f 78d0 033f 4444 493f
00000240: b8b0 ef3e d6aa 033f 5bd7 143f a03b d23e
00000250: 9885 d33d 1c64 bc3e ae4f b73e 3445 573e
00000260: b837 da3d 4a5e ca3e 56f2 b83e e4bf b83e
00000270: b419 2c3e 7005 043f 96e5 f73e 6e61 9b3e
00000280: b63e f13e 745b 2f3f 0429 ed3e 0bd1 1e3f
00000290: 2eb7 363f 80aa c73b 204d bc3d 90d9 0e3e
000002a0: 0e31 453f a49c 563f d36b af3e c2cc 823e
000002b0: 9854 003f 2da3 eb3e 65a8 4c3f 0032 b93e
000002c0: 94ea b13e 7fda 163f 7885 1e3f cfc6 483f
000002d0: 708d 9c3e a0d0 853e 152c c33e dc1a c13e
000002e0: a7db 593f c57e 063f 3779 213f dc6f 0d3e
000002f0: 7e0c 8b3e 48d5 713f d89f aa3e cf83 4f3f
00000300: e2cc 9f3e 0816 333f 5291 c73e c02b 2e3c
00000310: 2249 613f 0fd1 ab3e 368c e53e 8fa9 2a3f
0.20833126 0.54645544 0.7282119 0.22070485 0.53878856 0.4168902 0.57657397 0.5546
0.26243514 0.7853938 0.59462154 0.6224345 0.7836443 0.6546384 0.3747288 0.5891775
0.26304972 0.06528729 0.2716158 0.05984652 0.7458192 0.52591324 0.7278805 0.7197313
0.7441738 0.6397132 0.87925816 0.97349733 0.7067707 0.26663274 0.69187915 0.24852431
0.12693596 0.9110531 0.83253944 0.4761746 0.33636433 0.59731466 0.583887 0.38151318
0.37272936 0.3654716 0.1707499 0.40475452 0.54550767 0.07466781 0.6603796 0.43122014
0.55053294 0.5679593 0.45869213 0.28292668 0.5142864 0.06341529 0.24769253 0.8337602
0.8379291 0.7136244 0.7632667 0.59991664 0.12154645 0.43025327 0.2663617 0.48175094
0.74365246 0.53390706 0.18969148 0.49955827 0.24799126 0.26607078 0.51363385 0.6713239
0.74578816 0.84068966 0.65904266 0.24471724 0.2792552 0.37795883 0.42250055 0.40556198
0.5124653 0.71605897 0.5880555 0.5490849 0.44354153 0.23204386 0.46205062 0.68544143
0.52573174 0.7752306 0.47333655 0.5185034 0.16266954 0.2070235 0.5448386 0.81360674
0.5527533 0.4077047 0.62768304 0.7389181 0.4787773 0.055498064 0.5880936 0.6793671
0.9626997 0.39133698 0.69446987 0.2817124 0.6896736 0.6541805 0.41293275 0.44029576
0.26175344 0.15088588 0.18134153 0.39685804 0.50310504 0.8880416 0.5701771 0.6117128
0.3642825 0.4110436 0.5439337 0.42899668 0.3808831 0.30671692 0.43575191 0.2114982
0.6649001 0.40042692 0.33936238 0.75396615 0.66017497 0.57222146 0.14952046 0.18057925
0.42575973 0.41896766 0.6923835 0.7836805 0.22968 0.74484146 0.51489973 0.7861979
0.46814513 0.5143255 0.58141106 0.41061115 0.10328215 0.36795127 0.35802978 0.21022493
0.10655159 0.39525062 0.36122388 0.360839 0.1680668 0.51570797 0.48417348 0.3034777
0.47118157 0.6849892 0.46320355 0.62037724 0.7137326 0.006093323 0.09194398 0.13950181
0.77027977 0.83832765 0.3426195 0.25546843 0.5012908 0.4602293 0.7994445 0.3617096
0.3474928 0.5892715 0.6192241 0.7842836 0.30576658 0.2613573 0.3811957 0.37715805
0.8510079 0.52537185 0.63075584 0.13812202 0.27157968 0.94466066 0.33325076 0.810605
0.31211 0.6995549 0.38978058 0.010630548 0.88002217 0.33557937 0.44833535 0.66664976

l5.bias f4 [20]
00000000: cef5 043f 24be 6e3e 1044 8f3d 00d1 6e3e
00000010: 9ebb f73e 951a 273f 40e0 7e3c 5453 fd3e
00000020: 1620 ff3e 3cd1 a73e 62c4 493f 7003 713e
00000030: 7209 2b3f 5e93 273f 1985 1b3f 2b3d 1f3f
00000040: 824b 183f fd12 463f 0708 2b3f 27d6 2d3f
0.5193757 0.2331472 0.06995404 0.23321915 0.48385328 0.65274936 0.015556395 0.49477637
0.49829167 0.3277682 0.7881528 0.23536468 0.6681129 0.6545924 0.60749966 0.6220271
0.59490216 0.77372724 0.66809124 0.67904896

l5.weight f4 [20, 10]
00000000: b7c1 223f b38f 033f 256e f23e 2dfc c53e
00000010: 4c82 3e3f 126b 123f fc9e a13e 94dc 963e
00000020: 2201 e13e 4b18 313f 78ae 0b3f 7666 443f
00000030: de28 553f 0eab a23e cef7 b33e 96f5 043f
00000040: 96ba ca3e e821 023e d0d3 b23e 6cac 363f
00000050: 8ac6 b83e 9c2a 403f 40c2 e43c 86f3 e33e
00000060: 26eb 553f 8b2a 163f 95ee 3c3f 18ed a03e
00000070: 4646 003f a4dc ef3e 802c 053e fe0d c73e
00000080: f18f 0f3f 12b2 233f 824c 413f 58a4 8f3d
00000090: 1095 313d 6084 8a3e 6883 293e 754b 273f
000000a0: d8fd 713f 16e4 e53e ce90 9d3e 83ac 7f3f
000000b0: 644b d03e 80ce 893d 64b1 a73e 20ca 303d
000000c0: c335 423f 8c83 e03e ff87 6f3f b046 763e
000000d0: f0e4 a13d f8bf 4d3f 765a 093f 33a3 e63e
000000e0: 382c 263f f82e 463f 548e 033e 74a0 153f
000000f0: aeaf e43e 8c78 043f c014 b83e 8069 083d
00000100: 0812 ab3e d668 5a3f 8f1c 703f 0a26 113f
00000110: 0164 b23e 42db 373f ba6e 873e 4c99 703e
00000120: eff8 253f 800b ce3e 05ef 6c3f 6f5e 083f
00000130: 798c 433f 45e3 1d3f b0f0 363f 6193 1e3f
00000140: e036 853c 4cfd 403e e430 253e 348c be3e
00000150: 41d0 103f 4898 643e 88bd 063f c89a cf3e
00000160: 5b12 c43e 506b 7e3f daa9 063f 64f1 ec3e
00000170: d2c0 283f 4a0e 8e3e 9bab 463f 90bb 533f
00000180: 31c1 083f dcbb c33e c0d6 203f 8024 923e
00000190: cca9 473e c413 a83e 14db 473e 64dc 243f
000001a0: fedf 003f 68fa b73d 9b69 283f cafc 893e
000001b0: 0d0b 433f 48ab 153f dfe7 ee3e a06a 863f
000001c0: d6ca 163f a7d6 443f 20e6 fe3e bc80 433f
000001d0: b5ae c93e c3b8 5f3f c1bf 443f 4572 0c3f
000001e0: feb5 e63e 707b 553f b46e d53e bf17 193f
000001f0: 1abc e93e aa7d cb3e 0cf5 7e3e 687e ea3e
00000200: fe14 023f 0857 943d bcf7 603e bee0 203f
00000210: b605 a93e defe 0a3f 88e0 7a3e ef0e 743f
00000220: dca0 f83e 8089 9e3d f7e2 063f 9a07 973e
00000230: 3077 933e 54fa 503f 48ea e73d be6a e23e
00000240: ca99 873e b050 ff3e 6555 ca3e 8510 0c3f
00000250: 6310 2d3f bcf5 083f 32e9 373f 38b3 d73d
00000260: e2ec 323f 6091 ac3d d855 0c3f be73 483f
00000270: c0d3 193e 6f4d 393f d50f 3c3f 9492 fe3e
00000280: f7c1 4b3f 765d 1c3f 3b65 293f e8aa 833e
00000290: 8003 053f 4358 1a3f 93f4 4c3f fe54 123f
000002a0: f64a cf3e 8f55 c53e 9033 7b3f 2c51 ad3e
000002b0: be90 1b3f a6e8 0d3f 6c30 e73e ecf3 083f
000002c0: cc01 093f 1cc9 e93e 1023 b13e 14cb fc3e
000002d0: d0d7 f63e 561d 813e dbef f93e 6d6c 703f
000002e0: e08d 583f ee61 3c3f 216c 0d3f 3c02 2d3f
000002f0: f425 ee3e 4091 343e 90a4 b83e 7244 693f
00000300: be5d 533f 4044 683c 9476 c03e 88ad 683f
00000310: 359e 5e3f d83c aa3e 506b 623e e2a7 163f
0.63576835 0.5139114 0.4734966 0.38668957 0.7441757 0.57194626 0.31566608 0.29465163
0.43946177 0.69177693 0.54563093 0.76718843 0.83265483 0.3177113 0.35149997 0.51937234
0.3959548 0.12708247 0.34927225 0.71356845 0.36088973 0.75065017 0.027924657 0.4452173
0.83561933 0.58658665 0.7380155 0.31430888 0.5010723 0.46848023 0.13005257 0.38877863
0.5607901 0.6394359 0.75507367 0.07013768 0.043355048 0.2705412 0.16554034 0.65349513
0.9452796 0.44900578 0.3077454 0.99872607 0.40682518 0.0672884 0.32752526 0.04316151
0.75863284 0.43850362 0.9356689 0.24050403 0.079049945 0.80371046 0.5365366 0.45046386
0.6491122 0.7741542 0.12847263 0.5844796 0.44665283 0.5174644 0.3595333 0.033303738
0.33412194 0.85316217 0.93793577 0.5669867 0.34841922 0.71818936 0.26451665 0.23495978
0.6483297 0.4024315 0.92552215 0.53269094 0.7638622 0.6167491 0.7146101 0.6194363
0.016261518 0.18846625 0.16131932 0.37216341 0.5656777 0.22323716 0.5263295 0.40547776
0.38295254 0.99382496 0.5260292 0.46277916 0.6591922 0.27745277 0.776056 0.8270807
0.53419787 0.38229263 0.6282768 0.28543472 0.19498366 0.3282758 0.19517165 0.6439879
0.50341785 0.08983308 0.6578614 0.26950675 0.7618874 0.5846448 0.4666128 1.0501289
0.58903253 0.76890033 0.49784946 0.7636831 0.39391103 0.873913 0.76855093 0.5486186
0.45060724 0.83391476 0.41686022 0.5980186 0.45651323 0.39744312 0.24898165 0.45799565
0.5081328 0.072431624 0.21969503 0.6284293 0.3301217 0.54295146 0.24499714 0.95335287
0.48560226 0.0774107 0.5269007 0.29497987 0.2880187 0.8163197 0.113239825 0.44222063
0.2648452 0.49866247 0.39518276 0.54712707 0.6760313 0.5349996 0.718402 0.1053223
0.69892704 0.084261656 0.5481849 0.7830161 0.15022182 0.7238378 0.7346166 0.49721205
0.7959284 0.6108011 0.6617009 0.2571633 0.51958466 0.60290927 0.8006069 0.5716094
0.40486878 0.3854184 0.98125553 0.33850992 0.60767734 0.5543312 0.4515413 0.53497195
0.53518367 0.45661247 0.34597063 0.49373686 0.48211527 0.25217694 0.48815808 0.93915445
0.84591484 0.7358693 0.55243117 0.67581534 0.4651333 0.17633533 0.3606305 0.91120064
0.82564914 0.014176428 0.37590468 0.9088979 0.86960155 0.33249545 0.22111249 0.5884992

l4.bias f4 [10]
00000000: e7a7 2d3f 59d0 673f 34e4 073f 9ec1 c73e
00000010: 01d5 063f b851 cd3e cb9e 343f 4c90 7e3f
00000020: 003e 793f 9897 fb3e
0.67834324 0.9055229 0.53082585 0.39014906 0.5266877 0.4010141 0.705548 0.9943893
0.9736023 0.49139094

l4.weight f4 [10, 20]
00000000: 244a 693f 7d0f f63e 6d04 953e ee6e 7b3f
00000010: e8ab 093f 8645 c53e f93d 0a3f 4a32 9d3e
00000020: b8f0 ca3e 0bbb 1c3f 8096 2b3f 5e3c a53e
00000030: dc7f 403f fd15 3c3f ca31 ac3e 0ebf 1c3f
00000040: c066 1f3f 0427 0e3f bc9d 943e 36a7 133f
00000050: d570 013f 4274 ab3e ae89 223f 89fc 523f
00000060: 2eab 9f3e 7fe6 173f 9885 2f3f 3036 fe3e
00000070: 4fe2 4b3f 44d2 c33e 8b57 4f3f 4811 c33e
00000080: 2e47 2a3f 2e8b fa3e b1de 7f3f 3c4f 583f
00000090: e413 763e 6826 263f e085 013f fbf9 e53e
000000a0: ef59 2b3f c030 513c 96ff 0a3f 46ff b53e
000000b0: b858 523e bd73 173f 8788 323f 5caf 043f
000000c0: 6056 a73e c688 a43e 3025 843e b036 853e
000000d0: 005e fb3d 5ce0 953e 90f8 713e 7c78 d43e
000000e0: 615d 5b3f 6010 1a3d f10b d83e 48f4 783e
000000f0: 2fe4 113f 73b5 453f 5040 693d f07b 713e
00000100: 12e2 003f 7495 af3e 74ac da3e cc38 753f
00000110: 1e49 953e 1868 003f 5c1e 803e f088 a03e
00000120: 54eb 273f e7af ca3e 7c93 153f b044 8bbd
00000130: c11c 1a3f d4d0 9f3e f7ad 623f 3066 213e
00000140: aaff 833e 0083 613e a811 1c3f 34ab 123e
00000150: 841f 9b3e a417 123f d0d3 153e 1018 443e
00000160: 0065 293e 20dd a73d dc56 503e be92 ef3e
00000170: c0fc 383f 2b6d 363f a66f f73e 6907 e93e
00000180: 70da f93e 74de 093f 04d5 963e 856f 093f
00000190: d5a9 403f fc57 b13e ee8c b13e b718 2c3f
000001a0: a267 583f 6c05 6d3e 1fc4 ea3e 5cfa ba3e
000001b0: 8375 2f3f 28b5 253e 66db 113f b041 043f
000001c0: 2887 b53e ff28 283f 59e4 0d3f 9a85 943e
000001d0: de83 093f e0c3 d53e be21 173f c69a 8d3e
000001e0: 669e 113f 187f 9f3e b9a5 e63e 17ab 163f
000001f0: d484 4d3f 586d 3d3f 148f 563e 017a 5a3f
00000200: 8835 e63e 50a6 bd3e 5868 bb3e f4ca 543e
00000210: e013 aa3c 1aa4 903e fc07 b73e 4468 783e
00000220: 7028 0e3f 0038 ff3d 393e 413f cbf9 8b3e
00000230: ddb4 f83e 5c58 643f d4e3 a23e a870 b93e
00000240: 00f4 973c 3f55 0b3f 0d17 0c3f 6093 6e3e
00000250: 4635 923e 9d7e 283f ee04 873e 4e71 b63e
00000260: 64d6 483f 6de4 b63e 15b5 b63e d339 363f
00000270: 835e 183f 78c9 e43e 5f47 3a3f 289d 9a3e
00000280: 8cc1 d83e 4097 343d f45c 4d3e fcc5 2c3f
00000290: 4e06 443f 9e79 5c3f 4062 dd3c 4847 763e
000002a0: e0dd c63d 44e8 c73e 28f1 033e 6c18 bc3e
000002b0: 2314 223f 30b4 473f 4be1 1d3f 3858 843e
000002c0: 400e 843e 8ef9 803e 4a30 503f fa78 d63e
000002d0: d1c6 ef3e c896 053f 1095 303f 5c39 923e
000002e0: 87ba 483f 04cf 223e c6e4 6e3f 9089 383f
000002f0: b04f 573e 4afc 423f 18d3 ff3e b127 6f3f
00000300: f171 103f 4095 d93d 8cb9 7c3e f203 db3e
00000310: 96db 003f 81b1 133f e491 a03e 11fb 473f
0.91128755 0.48058692 0.2910494 0.9821614 0.53777933 0.38529605 0.5400081 0.3070243
0.3963678 0.61222905 0.6702652 0.3227262 0.751951 0.7347105 0.33631736 0.61229026
0.6226616 0.55528283 0.29026592 0.5767702 0.50562793 0.33487135 0.6349133 0.8241659
0.31185287 0.59336084 0.6856322 0.49650717 0.79642195 0.38246357 0.80992955 0.38099122
0.6651486 0.4893431 0.99949175 0.844959 0.24031025 0.64902353 0.505949 0.44917282
0.669341 0.012767971 0.54296243 0.3554632 0.20541656 0.5916098 0.69739574 0.5183008
0.32683086 0.321356 0.25809622 0.26018286 0.122737885 0.29272735 0.23629975 0.41498172
0.8568936 0.037613273 0.4219661 0.24311936 0.56988806 0.77229995 0.0569461 0.23582435
0.50344956 0.3429371 0.42709696 0.9578979 0.29157346 0.50158834 0.25023162 0.31354475
0.6559346 0.39587328 0.5842817 -0.068002105 0.60200125 0.3121401 0.885467 0.15761638
0.25780994 0.22022629 0.6096444 0.14323121 0.30297482 0.5706732 0.14631581 0.19149804
0.16542435 0.08196473 0.20345634 0.46791643 0.72260666 0.7126033 0.48327368 0.45513466
0.48799467 0.5385506 0.29459393 0.5368579 0.75259143 0.3463744 0.34677833 0.6722521
0.8453313 0.231466 0.45852754 0.36519134 0.68538684 0.16182387 0.569754 0.5166273
0.3545468 0.65687555 0.55426556 0.2900818 0.5371684 0.41751003 0.5903586 0.27657145
0.5688232 0.31151652 0.4504831 0.5885481 0.80280805 0.7399497 0.20953017 0.85342413
0.44962716 0.3704095 0.36603045 0.20780545 0.02076143 0.282502 0.3574828 0.24258524
0.5553045 0.12461853 0.7548557 0.27339014 0.48575488 0.89197326 0.31814444 0.36218762
0.018548965 0.5442695 0.5472267 0.23298407 0.2855627 0.65818197 0.2637095 0.3563332
0.78452134 0.3572115 0.3568503 0.7118198 0.59519213 0.44684958 0.72765154 0.30198026
0.42335165 0.044089556 0.2005499 0.674896 0.7657212 0.86123073 0.027024388 0.24050629
0.09710288 0.39044392 0.12884963 0.36737382 0.63311976 0.7800932 0.61671895 0.25848556
0.25792122 0.25190395 0.81323683 0.41889173 0.46831372 0.521832 0.6897745 0.28559387
0.7840962 0.15899283 0.9331783 0.72084904 0.21026492 0.7616621 0.4996574 0.9341994
0.5642386 0.1062417 0.24680156 0.42776448 0.5033506 0.57692724 0.31361306 0.7811747

l3.bias f4 [20]
00000000: c3bc 8a3e 3460 853e 5af9 ab3e 5c46 233e
00000010: c9ed 1e3f d223 2c3f 702c 943d b892 613e
00000020: 6880 3f3f 56e3 fd3e 707b d93e 73c5 5d3f
00000030: c06d e23e 8e79 c23e 0ab2 b93e f063 e93d
00000040: 944c a43e fb46 613f 92bd e83e 8083 dc3b
0.2709714 0.2604996 0.33588678 0.15944809 0.6208158 0.6724216 0.07235038 0.22028625
0.7480531 0.49587506 0.42476988 0.8662941 0.44224358 0.37983364 0.36268646 0.11396015
0.32089674 0.8799893 0.4545713 0.006729543

l3.weight f4 [20, 10]
00000000: b1f5 003f 17aa 073f d840 f23e a05d 4f3d
00000010: d410 313e 8569 083f 0e5e 7a3f a8e9 383e
00000020: 4e44 873e 1875 673e a4d8 733e 212f 2a3f
00000030: b0d6 273d 1fcf 6b3f b822 883e 5860 1a3f
00000040: d0af 503d f86b 913e 3e4a 143f 7e10 063f
00000050: 7954 b63e 41c7 653f d9fc 1f3f 540d 713e
00000060: 61d7 033f 28d9 7e3f 3091 fa3d 91c9 4c3f
00000070: 041a b63e 5a06 3c3f 46eb d73e e652 d53e
00000080: c33e 273f e410 6e3f faef b93e 8ba1 d13e
00000090: 52c2 fa3e 4822 8a3e 52b0 183f 38dc 993e
000000a0: aab6 b53e cf9e 1a3f cb0f 303f a5ec c93e
000000b0: a8e1 ff3e a660 b53e c4d9 ab3e 1c69 013f
000000c0: 0a8c 2e3f f2d3 c53e 608f b83e 992d 2b3f
000000d0: 1a41 f33e 1d3c 8f3f 856d 0c3f a1c3 1e3f
000000e0: 6445 283e 138a 063f 4664 e33e ca8f 9d3e
000000f0: fe62 a43e b137 ec3e 16ad 303f 1c59 2c3f
00000100: 8073 953d ee88 e53e 8ace 653f 4d37 513f
00000110: 23e9 453f b61b 543f c04c dd3e 7b14 183f
00000120: ab09 ed3e 890c 0c3f 3ad0 253f 689e f13d
00000130: 118b bc3e 9906 6a3f 56b8 233f e08b a73e
00000140: 8e91 493f 66e5 173f cc7d 133f a27b 453f
00000150: ca7b 5c3f 2825 ba3e d0c3 a23e c053 493c
00000160: 085d 573f 740f 623f a0b6 003f e4f6 343f
00000170: fc8a bf3e 8250 1b3f 0ef4 1b3f c025 153f
00000180: 4255 8f3e 30af 713d 303f 0e3d fe8c 1f3f
00000190: ec58 d83e 9cbc 443f 9997 373f 4b31 3c3f
000001a0: 11d0 6d3f f263 d73e d54e 623f 804b d53c
000001b0: d8a7 163f 340f bf3e fc67 8f3e 3cf1 063f
000001c0: 8d74 9e3e 369b 193f f1a0 5f3f 2ad1 bb3e
000001d0: 2214 4d3f a06b aa3c 438d 6e3f b0de c23e
000001e0: 56ec fd3e 903f 273d f2f2 963e 4dc8 383f
000001f0: e896 d63e ebca 033f 84fc 1f3f 6af3 043f
00000200: ac4c 003f fe41 d13e 7867 eb3e 64bb fb3e
00000210: acb9 0a3e 5080 d33e a621 a23e b0dd 053f
00000220: 202c 183d b89d fc3e 5777 493f 99a9 153f
00000230: b870 ad3e e0d2 243e 209f b23d c241 fd3e
00000240: 4c86 103e 9055 fa3e 5e58 5b3f f006 2a3d
00000250: 643e e93e d9bc 303f 6753 7f3f fd8d 293f
00000260: f711 423f a8ac 1e3f e8a7 b43e 3c46 1f3e
00000270: da88 e93e b349 df3e 2e90 533f ed4c 4c3f
00000280: 5603 fc3e 528b 493f 3957 0b3f a8c2 243e
00000290: 669d 7a3f 084b a83e f041 fa3d 9e91 4c3f
000002a0: 240f 3b3f 5da6 393f 6c9c 0c3f dabe 0f3f
000002b0: 2d93 7d3f 7ac3 2d3f bb60 263f d8b1 023f
000002c0: cce4 403f f607 003f e0d9 d83e 0ac2 1f3f
000002d0: 6a96 d73e 1783 0e3f eabe 093f ee6e b93e
000002e0: 3ad2 413f d129 1a3f b1b7 103f 2ef7 e23e
000002f0: af86 483f 4455 b03e c6c6 353f 1800 e93d
00000300: 143e 183e 450f 353f 0500 8b3e 4896 dc3d
00000310: e60a 1b3f 68a9 923e 5a1c 423f 70b1 fd3d
0.50374895 0.5299391 0.47315097 0.050626397 0.17291576 0.5328601 0.97799766 0.18057883
0.264193 0.22603261 0.2381311 0.66478163 0.040976226 0.92112917 0.26588988 0.6030326
0.050948918 0.28402686 0.57925785 0.52368915 0.35611323 0.8975716 0.6249519 0.2354024
0.5150052 0.99550104 0.122347236 0.79995066 0.35566723 0.7344719 0.42171687 0.4166481
0.6533014 0.92994523 0.363159 0.4094356 0.4897638 0.2697928 0.59644043 0.30050826
0.35490924 0.6039857 0.687741 0.39438358 0.4997685 0.354253 0.3356458 0.5055101
0.6818243 0.38638264 0.36046886 0.6686645 0.47510606 1.119022 0.54854614 0.62017256
0.1643272 0.52554435 0.4441244 0.30773765 0.32106775 0.4613624 0.6901411 0.6732347
0.072974205 0.44831032 0.8976828 0.8172501 0.77308863 0.82854784 0.43222618 0.5940625
0.4629644 0.5470663 0.64770854 0.11797792 0.3682485 0.9141632 0.6395315 0.32723904
0.78737724 0.5933441 0.57613826 0.77141774 0.8612639 0.36356473 0.31790018 0.012288034
0.8412633 0.8830483 0.50278664 0.70689225 0.37410724 0.6066972 0.6091927 0.58260727
0.27994734 0.059004962 0.03472823 0.6232451 0.42255342 0.76850295 0.71715695 0.73512715
0.9289561 0.4206844 0.8840154 0.026036978 0.5884986 0.37316287 0.2800902 0.52711844
0.30948296 0.6000246 0.8735495 0.36683017 0.80108845 0.020803273 0.931843 0.38060522
0.49594373 0.040832102 0.29482228 0.72180635 0.41912007 0.51481503 0.62494683 0.5193392
0.5011699 0.4087066 0.45977378 0.49166405 0.1354739 0.41308832 0.31666297 0.52291393
0.037151456 0.4933908 0.78697723 0.5846191 0.3387506 0.16096067 0.08721757 0.49464232
0.1411373 0.48893404 0.8568171 0.041510522 0.45555413 0.6903816 0.99736637 0.6623228
0.7580866 0.619822 0.35284352 0.15554136 0.45612222 0.43610916 0.82641876 0.7980488
0.49221295 0.7872821 0.54429966 0.1608988 0.9789642 0.32869744 0.12219608 0.79909694
0.7306998 0.72519475 0.5492618 0.5615059 0.990527 0.678764 0.6499135 0.5105262
0.75349116 0.5001215 0.42353725 0.62405455 0.42106944 0.5566878 0.53806937 0.36217445
0.75711405 0.60220057 0.5653029 0.44329208 0.7833051 0.34440053 0.7100643 0.11376971
0.14867431 0.70726424 0.27148452 0.107708514 0.60563505 0.28644872 0.7582451 0.12387359

l2.bias f4 [10]
00000000: 1811 d83e e8c5 373f e283 a83e 868f f13e
00000010: 803c 2f3f 3acd 133f 3072 633d ccfa 0a3f
00000020: eb01 0d3f 6387 733f
0.42200541 0.71786356 0.3291312 0.47179812 0.6845169 0.57735026 0.05552882 0.54288936
0.5508105 0.9512846

l2.weight f4 [10, 20]
00000000: 6c4e 9d3e b59a a93e 3002 113f be7f df3e
00000010: 761d 1d3f 679c 083f a2f2 d03e aa19 eb3e
00000020: 700d 5d3e f038 193e 0d5b 403f 90b6 b53e
00000030: f134 d03e 7c37 0c3f d7bb 433f d661 343f
00000040: 38b7 3e3f 2744 413f ac83 b93e 78ae 683e
00000050: 8aa8 ac3e 20ea 1b3f 46b3 983e 5bd1 513f
00000060: f2fa ed3e 22fb 8a3e 5053 6d3d f3ce e43e
00000070: d801 ac3e 0c55 223f 74cd 3e3f 5343 143f
00000080: f931 343f 1694 3a3f 7bcd 0f3f a01c ef3d
00000090: cece dc3e f03f 1b3f e49f aa3e b69a c03e
000000a0: c8fc 3e3f 92ee 8a3e c5a3 6b3f d766 253f
000000b0: a005 ac3c 52a9 6e3f e8a8 873e e042 403e
000000c0: c876 6b3e f4ca f73e 8af9 453f d2a2 2d3f
000000d0: 3563 1e3f 88f3 a43e 8e78 073f 2b92 0b3f
000000e0: 530b 0b3f f47a d23e 8654 1e3f a38c 7c3f
000000f0: 9adf 9d3e 6ac1 503f 167b 4c3e 4c66 f03e
00000100: 5418 103f b270 fb3e 1ac4 1e3f a02b 7e3d
00000110: 0a4c f83e dbb2 2b3f 0696 3f3f 1588 1a3f
00000120: 0a32 013f 1cf5 b63e a2db a23e 2ce8 623f
00000130: 3369 183f ccf0 fb3e 088e 033e 789a 1a3f
00000140: 0248 043f 9719 0b3f 2a3e 403f 6cc4 c83e
00000150: c210 883e 443f ad3e 78f2 763e 0006 a43c
00000160: 4295 e33e a377 193f 0ef7 1c3f 891c 703f
00000170: 1363 d43e d143 273f b2ba c73e 405f f03e
00000180: b651 123f f1a0 ea3e 897e 2f3f 70d1 933d
00000190: 28c3 483e d4d1 603e 303a ba3d 9562 5d3f
000001a0: 1c68 d43e 702e 043f cb7f 103f 0b4c 123f
000001b0: e787 553f 384f 0a3f 5646 0f3f e009 5d3e
000001c0: e147 5c3f 80fc 193f a046 a23c 48ea 9f3d
000001d0: 44e4 c43e a02c fe3c 48d2 8e3d 4c3d 233f
000001e0: b00f 5c3e 46fb 8f3e 790c 3c3f 204e 5a3d
000001f0: 0413 613e c6be 673f 5484 293e 72a0 423f
00000200: 502f 373f d0d1 e93d 9e96 743f ee6f e03e
00000210: ce0e f33e e3b9 173f dc44 fb3e 6812 073f
00000220: b7b8 2c3f 4c65 c13e 12a9 f83e cd9e 543f
00000230: 9f77 443f 2e1d b03e f878 913d 56bd eb3e
00000240: 8eec 863e a600 ad3e 3c01 8c3e 927f 233f
00000250: 22bc 213f 0502 193f 68a6 313f fb91 193f
00000260: 90e2 d43e 8a00 813e 98fe 643f 3fd8 793f
00000270: e900 133f bda8 3d3f 06a9 ff3e c931 6b3f
00000280: f258 2a3f 77be 023f e6f9 0b3f 8252 2e3f
00000290: d4a4 6e3e 5ce9 f03e 319a 0c3f 70e8 713e
000002a0: 64ad 3a3e eeb2 b33e 4fdc 013f ccc9 2d3e
000002b0: 6bb6 023f 3e81 593f 6c5c a93e c797 2d3f
000002c0: 3244 e33e b697 b03e b46c 463e 76d3 133f
000002d0: fd84 253f defc cd3e 08f1 063f 80e3 6f3e
000002e0: 4fb4 183f c68e b03e 7fc4 1a3f 9992 b53e
000002f0: b9d0 603f ee01 113f 135f 3a3f 9000 c93d
00000300: 1076 3b3f 14da c83e 6748 6e3f 104d 8f3e
00000310: 326d d73e 205a fe3d ff28 4c3f 00d9 113f
0.30723894 0.33125845 0.5664396 0.43652147 0.6137308 0.5336365 0.40810114 0.45918018
0.21587157 0.14963126 0.7513893 0.35490847 0.4066539 0.5477216 0.76458496 0.70461786
0.7449832 0.7549462 0.3623327 0.22722805 0.33722335 0.6090412 0.29824275 0.81960076
0.4648052 0.27144724 0.05794078 0.4468914 0.33595157 0.6341102 0.74532247 0.5791523
0.7038875 0.7288221 0.56172913 0.11675382 0.4312653 0.60644436 0.33325112 0.37618035
0.74604464 0.2713514 0.9204677 0.64610046 0.020998776 0.9322711 0.26496053 0.18775511
0.2299453 0.48397028 0.7733389 0.6782657 0.6187013 0.3221705 0.52918327 0.5451991
0.54314154 0.4110943 0.6184772 0.98652095 0.30834657 0.81545126 0.19968829 0.46953046
0.5628712 0.49109417 0.6201798 0.062053323 0.48495513 0.67069787 0.7483829 0.60363895
0.5046698 0.3573388 0.31808192 0.88635516 0.5953552 0.4920715 0.1284715 0.6039195
0.51672375 0.5433592 0.75094855 0.39212358 0.26575285 0.3383733 0.24115932 0.020022392
0.44449812 0.59948176 0.61314476 0.9379354 0.41481838 0.65337855 0.39009625 0.4694767
0.5715593 0.45825914 0.6855245 0.072176814 0.19605696 0.21955043 0.0909313 0.8647855
0.4148568 0.5163336 0.56444997 0.5714728 0.83410496 0.5402713 0.559667 0.21585798
0.8604718 0.6015091 0.019809067 0.078083575 0.38455403 0.031027138 0.06973702 0.63765407
0.2149036 0.28121394 0.7345653 0.053297162 0.2197991 0.9052547 0.16554385 0.7602607
0.7155657 0.11416972 0.95542324 0.43835396 0.47472233 0.59268016 0.49075973 0.5276246
0.6746935 0.37772596 0.4856649 0.8305481 0.7674503 0.34397262 0.07103151 0.4604289
0.26352352 0.33789557 0.27344692 0.6386653 0.6317769 0.59768707 0.6939454 0.59988374
0.41579103 0.25195724 0.8945098 0.9759559 0.57423264 0.740856 0.49933642 0.9187284
0.6654197 0.51071876 0.5467819 0.68094647 0.23305064 0.4705304 0.5492278 0.23623824
0.18230206 0.3509745 0.5072679 0.1697151 0.510596 0.8496283 0.33078325 0.6780972
0.44387966 0.34490746 0.19377404 0.5774454 0.6465605 0.40231985 0.52711535 0.23426628
0.5965013 0.34483927 0.6045608 0.35463408 0.87818485 0.5664357 0.7280132 0.098145604
0.73227024 0.3922888 0.9307923 0.27988482 0.42075497 0.12419534 0.79750055 0.5697174

l1.bias f4 [20]
00000000: 0a7d 693f f984 253f e094 303f 9655 093f
00000010: feef e53e bf79 0a3f 4cef f53e 0649 213f
00000020: 2a6d 043f 3a2b 073f 203c 993d 3c20 0f3e
00000030: 8aa8 bd3e cd5b 363f 892a 653f 8e2a 123f
00000040: d168 543f 57e7 443f 4829 ff3d 2847 3b3f
0.9120642 0.64656025 0.68977165 0.5364622 0.44909662 0.5409202 0.48034132 0.6300205
0.5172907 0.52800333 0.07482171 0.1397714 0.37042648 0.71233827 0.8951803 0.57096183
0.8297244 0.76915497 0.12459046 0.7315545

l1.weight f4 [20, 10]
00000000: b1cc 623f e840 9c3d 1c21 943e b4a3 e03e
00000010: 9694 163f c071 c33e 3b88 253f ae58 c53e
00000020: 7d4f 253f f639 373f fa67 033f 5b8b c33e
00000030: 60fc d33c dcec a73e eca9 ff3e eca4 723e
00000040: edbc 613f b4f9 563e b022 653e 7018 ff3d
00000050: 949c 7a3f e6b0 8c3e ee68 ba3e 1f5a 2d3f
00000060: 8b64 cc3e 9562 143f d053 1a3f 6f81 213f
00000070: d8cb a33e b88e 933e da24 f23e 5780 293f
00000080: fa98 d33e 845b c13e aa54 dc3e abc5 033f
00000090: c81d 323e 9726 2f3f 3b9a 0e3f 502d 6f3d
000000a0: 80f4 ef3d 6446 813e 4cf0 403f bf24 c03e
000000b0: 2192 193f b4bd 5b3f f294 0c3f 5cc1 ec3e
000000c0: 3071 e33d 3064 153e fac3 3e3f 800a a13e
000000d0: 408c 243e 1cbc b73e 6a89 0f3f 3dd5 5c3f
000000e0: f605 783f 04c1 ae3e f88c 6d3e 2f40 b53e
000000f0: 8bf9 293f 0667 d53e 40f5 3b3f ea03 353f
00000100: d1fd 073f 7232 4d3f ca3a c93e 0ce5 123f
00000110: 0db4 5c3f 98d9 583e 0e0b 9d3e 08ac 153f
00000120: e885 d63e 4c08 7b3e 935e a83e 5456 6b3e
00000130: 3e50 643f e670 ae3e a8fb 3c3f 747c 3b3e
00000140: 22e3 503f c08f 383f 7a0c 0e3f 70ca ab3e
00000150: d2dc 053f 2ac8 893e 0ce4 583e 7b3d b03e
00000160: a1d6 233f f38b 033f a688 903e 0537 3d3f
00000170: 1de3 3b3f 852b ef3e c0a3 353f 909d 093f
00000180: aab0 8e3e 70ad 433f 9f54 3d3f 54e2 fd3e
00000190: ae7e 093f 6e71 d53e 31be df3e 345c 1d3f
000001a0: 3294 e83e 00ec 993a 7964 2d3f 04ed ea3e
000001b0: b1bf 573f 7b24 403f a52f 2b3f ac56 663e
000001c0: 74e9 3c3e 1cba be3e a4f7 433e 3a6b e03e
000001d0: eaa1 953e 8868 b53e 6c7e d43e 80d6 6d3c
000001e0: 12b3 ec3e 6c89 503e 8de8 343f 34d3 003e
000001f0: d1f1 cf3e 4c15 ae3e 26b2 e03e ccd2 9d3e
00000200: a5ac 503f 2617 3f3f 10e4 f73e 66b5 3e3f
00000210: 40a2 6d3c 92e1 fe3e d36c 213f 759f 343f
00000220: 0487 7e3f f920 1e3f 52a5 5a3f 36eb 563f
00000230: cad0 683f 3eb6 403f 928c f93e 1314 0f3f
00000240: 2d98 ef3e 95cc c83e a12e f43e 567e 8f3e
00000250: ac47 3e3e 9dbe 063f 0471 4d3f c2e9 b73e
00000260: 2f11 0e3f 3cfe 4b3e 34e3 4b3f 6107 573f
00000270: c82a 4c3f a2df bc3e d539 263f 8cf7 133f
00000280: 223a 923e 85c1 e63e e464 6c3e 9764 543f
00000290: d858 af3d 26ae d23e e0bf fb3e b00d ef3e
000002a0: 34ba f13e 6454 203f 6a17 683e 908c a13d
000002b0: d354 083f 9fd2 223f 4c2b c13e 2335 bf3e
000002c0: 9cdc 2b3e 5b7a 263f 8cb1 803e 1ece f83e
000002d0: 2c37 213f 00a3 ec3e e827 ef3e 78b0 eb3e
000002e0: d61d 513f 487a aa3d bb0f 053f dc70 1e3f
000002f0: f873 1e3f 4463 f03e 4b15 ae3e 8059 383e
00000300: cea0 943e 80b5 593d aab8 2c3f b0b7 2d3e
00000310: c11a 3c3f fa23 323f 1314 013f 1c12 263f
0.88593584 0.076295674 0.2893151 0.43874896 0.58820474 0.38172722 0.64660996 0.3854422
0.64574414 0.71572816 0.5133053 0.38192257 0.025877178 0.32797897 0.49934328 0.23695725
0.881789 0.20993692 0.22376513 0.12455833 0.9789517 0.27478713 0.3640818 0.6771564
0.39920458 0.57962924 0.6028414 0.63088125 0.31991458 0.28819823 0.4729374 0.66211456
0.4132765 0.37765133 0.43033344 0.5147349 0.17394173 0.6841826 0.55704087 0.058392823
0.117165565 0.25249016 0.75366664 0.37528035 0.599886 0.8583634 0.5491477 0.46241271
0.11105573 0.14589 0.74517787 0.31453323 0.16069126 0.35885704 0.5606905 0.86262876
0.96884096 0.34131634 0.23198307 0.3540053 0.663964 0.41680163 0.73421097 0.707091
0.5312167 0.801551 0.39302665 0.5738075 0.86212236 0.21176755 0.30672497 0.58465624
0.41899037 0.24514884 0.32884654 0.2298215 0.8918494 0.3407051 0.73821497 0.18309194
0.8159658 0.72094345 0.5548779 0.33552885 0.5229007 0.26910526 0.21180743 0.34421906
0.6399937 0.5138542 0.28229254 0.7391208 0.7339342 0.4671289 0.7095299 0.53756046
0.2786916 0.7643652 0.73957247 0.49586737 0.5370892 0.41688102 0.43699792 0.61468816
0.45425564 0.0011743307 0.67731434 0.45883954 0.8427687 0.75055665 0.66869575 0.22494
0.1844843 0.37251365 0.19137436 0.43831807 0.29225093 0.35431314 0.41502702 0.014516473
0.4623037 0.20364922 0.70667344 0.12580568 0.4061418 0.34000623 0.43885916 0.30824888
0.81513435 0.74644697 0.48416185 0.7449554 0.014504015 0.49781471 0.6305668 0.7055581
0.9942477 0.6176906 0.8540851 0.83952653 0.90943587 0.7527808 0.4874006 0.55890006
0.46795788 0.39218584 0.47691825 0.28026074 0.18582028 0.526346 0.80250573 0.3592053
0.5549497 0.19921201 0.7964356 0.83995634 0.7975278 0.36889368 0.64931995 0.577996
0.28559977 0.4506952 0.23085362 0.8296599 0.085618675 0.4114849 0.49169827 0.4669013
0.47212374 0.6262877 0.22665182 0.07888138 0.5325443 0.6360263 0.37728345 0.37345228
0.16783375 0.6503045 0.25135458 0.48594755 0.6297481 0.4621811 0.46710134 0.46033072
0.8168615 0.083241045 0.5197713 0.6189096 0.61895704 0.46950734 0.3400062 0.18002892
0.29028934 0.053151608 0.67469275 0.16964602 0.73478323 0.69586146 0.50421256 0.6487138
