tests/data_pth/dare_disjoint_ties1_cuda.pth (torch, 10654 bytes, 14 tensors)

l7.bias f4 [20]
000000 d8 5e b6 3e 9e 8f 8a 3e cc 6e e2 3e a3 fb 13 3f
       0.35619235 0.27062696 0.44225156 0.5780584
000010 48 da 68 3e 06 0d 77 3f 74 e9 00 3f f8 66 40 3f
       0.22739518 0.9650425 0.5035622 0.7515712
000020 ba 57 d5 3e 8d 68 19 3f 00 b6 52 3f b0 7f a7 3e
       0.41668493 0.59925157 0.8230896 0.32714605
000030 c9 cc 1a 3f f5 e9 3e 3f 07 ae 45 3f 7c 59 64 3f
       0.6046873 0.7457574 0.7721867 0.8919904
000040 52 3d 73 3f 30 4c 4d 3f df 6c 29 3f 2d 63 1a 3e
       0.9501544 0.8019438 0.6618175 0.15076895

l7.weight f4 [20, 10]
000000 b6 8f 2f 3f 08 f1 9b 3e 40 cd 3f 3c d0 f1 98 3e
       0.6857866 0.3045733 0.01170665 0.29871988
000010 33 6d 73 3f d0 e5 13 3d 91 54 30 3f 56 7c 81 3e
       0.950885 0.03610784 0.6887904 0.25290173
000020 5e e9 03 3f 8c 2a 34 3e ca 89 5c 3f 5b 4f 69 3f
       0.51527965 0.17594355 0.8614775 0.9113671
000030 bc 3c 30 3e 40 df c3 3e 82 74 7c 3f 1c 3b 66 3e
       0.17210668 0.38256264 0.98615277 0.22483486
000040 ce 65 f6 3e 71 2e 41 3f 48 23 d2 3d e2 dc e7 3e
       0.48124546 0.7546149 0.102606356 0.45285708
000050 e3 58 64 3f b4 f1 24 3e b6 7e 4e 3f 1c 02 09 3f
       0.8919813 0.16107827 0.80662096 0.53518844
000060 28 c3 51 3f 61 32 2f 3f 29 7d 41 3f 7b 82 6d 3f
       0.8193841 0.6843625 0.75581604 0.9277722
000070 4a fd 81 3e f2 32 ec 3e da 4d 8e 3e 74 40 2d 3e
       0.25388557 0.46132618 0.2779377 0.16919118
000080 5c 47 92 3e 36 95 47 3f 3c 01 50 3e d0 08 15 3d
       0.28570068 0.7796205 0.20312971 0.036385357
000090 00 f9 eb 3d 9c 97 b1 3e f4 84 62 3e 18 75 d7 3d
       0.11522102 0.3468598 0.2212103 0.10520381
0000a0 0a b4 27 3f 40 ff 59 3d 73 7a 0c 3f e6 37 bc 3e
       0.6550909 0.05322194 0.5487434 0.36761397
0000b0 f2 dc 4b 3f 72 29 9e 3e 10 07 6f 3e 7e 3d 44 3f
       0.7963401 0.30890995 0.23342538 0.7665633
0000c0 1e af a5 3e 7c 68 65 3e 40 c0 fd 3e 4c 76 9a 3e
       0.32360166 0.22403139 0.49560738 0.30168378
0000d0 46 ba 37 3e 38 d5 b3 3e c5 65 04 3f a2 cb 1b 3f
       0.17942151 0.3512361 0.5171779 0.60857594
0000e0 30 c0 72 3d b2 99 8e 3e b0 0e af 3d f8 64 21 3e
       0.059265316 0.27851635 0.08547723 0.15761173
0000f0 a2 76 64 3f 40 48 79 3c 12 a4 4b 3f 0c c4 03 3e
       0.8924352 0.01521498 0.79547226 0.12867755
000100 6a e9 83 3e 6c c7 6a 3f 98 a9 09 3e b5 d3 67 3f
       0.25764018 0.91710544 0.13443601 0.90557414
000110 10 46 01 3f 73 1e 2c 3f 86 b5 cd 3e e2 5b ab 3e
       0.5049753 0.6723396 0.40177554 0.3346854
000120 6a be b5 3e 02 b3 32 3f 86 2d 77 3f 00 5b 54 3f
       0.35496837 0.69804394 0.9655384 0.82951355
000130 88 ce 50 3e 40 78 c5 3c 87 03 68 3f 4c 24 1b 3f
       0.20391285 0.024105191 0.9063038 0.6060226
000140 fc 0d 66 3e 46 2f 2a 3f f0 20 75 3e b6 51 9c 3e
       0.22466272 0.66478384 0.23938346 0.3053109
000150 f2 85 fb 3e 86 97 2e 3f c3 df 0a 3f b8 92 65 3f
       0.4912563 0.68199956 0.54247683 0.89677
000160 80 c8 53 3c 29 57 31 3f 6a a0 4f 3f 02 dc 40 3f
       0.012926221 0.6927362 0.8110415 0.75335705
000170 f2 79 e8 3e d4 4d ff 3e 20 41 36 3d 29 95 14 3f
       0.45405537 0.49864066 0.0444957 0.580401
000180 71 0e 0b 3f c8 0b 30 3e 3f 27 65 3f 48 77 8a 3e
       0.5431891 0.17191994 0.8951301 0.2704413
000190 7c 24 ac 3e b4 c5 71 3f 7a 19 5c 3f d4 33 32 3f
       0.33621585 0.94442296 0.85976374 0.69610333
0001a0 4c 31 5a 3f 0e 4c 9f 3e d6 fb e0 3e 70 6e 22 3e
       0.8523147 0.31112713 0.43942136 0.15862441
0001b0 b4 60 8b 3e f8 68 72 3e 0c 61 3b 3e 80 20 d5 3c
       0.27222216 0.23672855 0.18298739 0.026016474
0001c0 14 a4 76 3e 1c 9f 55 3e 52 6e a2 3e 00 e2 e8 3a
       0.24086028 0.20861477 0.31724793 0.0017767549
0001d0 50 2a a8 3e 3f 11 4f 3f a6 56 54 3f 70 ed d0 3d
       0.32844782 0.8088569 0.82944715 0.102015376
0001e0 99 bb 66 3f 29 b7 34 3f ac 1b 3e 3f c6 dd 45 3f
       0.9013 0.7059198 0.74260974 0.77291524
0001f0 38 49 1b 3e be 1c fa 3e f8 eb 64 3f d4 e6 b3 3e
       0.1516465 0.48850054 0.8942256 0.35137045
000200 45 1e 3a 3f fc 97 b3 3e 18 5f 97 3e f0 76 13 3e
       0.7270244 0.35076892 0.29564738 0.1440084
000210 20 d4 7e 3f 15 95 45 3f 94 ca c1 3e 8c d3 7d 3f
       0.9954243 0.77180606 0.37849867 0.9915092
000220 07 4a 14 3f 20 90 7a 3d 86 a9 34 3f 38 14 c7 3e
       0.57925457 0.061172605 0.7057117 0.38882613
000230 ac 31 53 3f 4e c4 00 3f 60 a7 05 3e d0 89 54 3f
       0.8249767 0.5029954 0.1305213 0.83022785
000240 b0 c1 66 3f 40 99 7c 3d 86 f6 bf 3e aa 00 74 3f
       0.90139294 0.061669588 0.3749277 0.95313513
000250 02 f9 08 3f a8 6b 2c 3f d1 33 26 3f 34 15 64 3f
       0.53504956 0.6735177 0.64922816 0.89094853
000260 00 84 55 3a 82 ee a8 3e 84 25 66 3f 41 f0 01 3f
       0.00081449747 0.32994467 0.89900994 0.50757223
000270 c4 d4 25 3e c8 40 9a 3e 80 46 6d 3e 47 6b 30 3f
       0.16194445 0.3012755 0.23171425 0.6891369
000280 5a ee 39 3f 88 17 7f 3f 9c 73 67 3f 76 b7 fa 3e
       0.7262932 0.9964528 0.9041078 0.48968095
000290 ba 95 11 3f be 00 55 3f 3a 10 52 3f 54 ba 62 3e
       0.5686909 0.8320426 0.8205601 0.22141391
0002a0 ba 12 8c 3e 4a f8 19 3f ac 33 e7 3e 75 3a 43 3f
       0.27358037 0.60144484 0.4515661 0.76261073
0002b0 4c a0 f2 3e 90 9f 78 3f 60 c7 46 3e a0 92 af 3e
       0.47387922 0.97118473 0.19411993 0.34291553
0002c0 10 99 17 3d e4 db 7b 3f 14 22 39 3f af a0 6f 3f
       0.037011206 0.983824 0.72317624 0.9360456
0002d0 a1 fb 17 3f af 3a 58 3f e2 25 a0 3e ba f1 d0 3e
       0.5936833 0.84464544 0.31278902 0.40809423
0002e0 a8 42 50 3f fc cd 27 3e f9 43 c5 3e b0 69 fe 3e
       0.8135171 0.1638717 0.38528422 0.49690008
0002f0 de 40 e2 3e 9c 48 4c 3e 60 c3 3b 3d d8 bf 62 3f
       0.44190115 0.19949573 0.04584062 0.8857398
000300 b3 7c 34 3f 77 be 23 3f ae 73 ef 3e b0 71 a5 3d
       0.70502776 0.639625 0.46767944 0.08078325
000310 20 bc 15 3e 2e 0b 51 3f 6e e7 56 3f 55 4f 75 3f
       0.14622545 0.81657684 0.83946884 0.95824176

l6.bias f4 [10]
000000 76 9a 71 3f 6c 2d a3 3e 49 84 35 3f 46 5e fd 3e
       0.94376314 0.31870592 0.70904976 0.49485987
000010 20 3e 49 3e bc a1 d8 3e 8e 92 04 3f 00 5d e9 3e
       0.19652605 0.42310894 0.51786125 0.45578766
000020 00 d9 4f 3f 90 7c e9 3d
       0.8119049 0.114007115

l6.weight f4 [10, 20]
000000 fb 63 50 3f 81 e4 0b 3f 18 6c 3a 3f a1 d6 37 3e
       0.8140256 0.54645544 0.7282119 0.17952968
000010 b9 36 5c 3f a2 72 d5 3e cb b8 5f 3f 39 12 6b 3f
       0.86021 0.4168902 0.87391347 0.9182468
000020 e6 5d 86 3e 91 0f 49 3f 1e 39 18 3f de 57 1f 3f
       0.26243514 0.7853938 0.59462154 0.6224345
000030 ea 9c 48 3f 62 96 27 3f a0 e1 c8 3c f1 cc 5f 3f
       0.7836443 0.6546384 0.024521649 0.8742209
000040 74 ae 86 3e 58 b5 85 3d 3a 11 8b 3e a0 21 75 3d
       0.26304972 0.06528729 0.2716158 0.05984652
000050 02 ee 3e 3f 40 a2 06 3f 60 56 3a 3f 4f 40 38 3f
       0.7458192 0.52591324 0.7278805 0.7197313
000060 2d 82 3e 3f 3f c4 23 3f 10 17 61 3f 1f 37 79 3f
       0.7441738 0.6397132 0.87925816 0.97349733
000070 ed ee 34 3f 16 84 88 3e 20 f7 94 3c 28 7d 7e 3e
       0.7067707 0.26663274 0.018184245 0.24852431
000080 80 fb 01 3e c7 3a 69 3f 4e 21 55 3f df 25 ec 3e
       0.12693596 0.9110531 0.83253944 0.46122643
000090 f2 37 ac 3e 9d e9 18 3f 9e 79 15 3f 60 d0 93 3c
       0.33636433 0.59731466 0.583887 0.018043697
0000a0 62 d6 be 3e bc 22 0e 3f 10 d9 2e 3e fc 3b cf 3e
       0.37272936 0.5552175 0.1707499 0.40475452
0000b0 64 a6 0b 3f 70 eb 98 3d a3 0e 29 3f 68 5d c8 3d
       0.54550767 0.07466781 0.6603796 0.09783441
0000c0 4e 30 58 3f c8 65 11 3f b2 d9 ea 3e c4 db 90 3e
       0.8444871 0.5679593 0.45869213 0.28292668
0000d0 46 a8 03 3f e0 df 81 3d 1c a3 7d 3e 4f 71 55 3f
       0.5142864 0.06341529 0.24769253 0.8337602
0000e0 86 82 56 3f 17 b0 36 3f 72 65 43 3f 23 94 19 3f
       0.8379291 0.7136244 0.7632667 0.59991664
0000f0 58 ed f8 3d 28 4a dc 3e 90 60 88 3e e0 00 3e 3e
       0.12154645 0.43025327 0.2663617 0.18555021
000100 02 60 3e 3f 22 ae 08 3f 7c 3e 42 3e ee 66 54 3f
       0.74365246 0.53390706 0.18969148 0.8296956
000110 74 e8 af 3e a2 49 e7 3e 82 7d 03 3f e2 db 2b 3f
       0.34357035 0.45173365 0.51363385 0.6713239
000120 f9 eb 3e 3f 70 37 57 3f 05 b7 28 3f f6 1f 6d 3f
       0.74578816 0.84068966 0.65904266 0.92626894
000130 8a fa 8e 3e d2 83 c1 3e fe 51 d8 3e d2 a5 cf 3e
       0.2792552 0.37795883 0.42250055 0.40556198
000140 ed 30 03 3f a4 4f 37 3f ce 8a 16 3f d4 90 0c 3f
       0.5124653 0.71605897 0.5880555 0.5490849
000150 e0 17 e3 3e e8 9c 6d 3e 30 ca 18 3f 17 79 2f 3f
       0.44354153 0.23204386 0.59683514 0.68544143
000160 cb cf 56 3f 83 75 46 3f 54 24 66 3e 25 1c 54 3f
       0.83910817 0.7752306 0.22474796 0.82855445
000170 d8 92 26 3e f8 fd 53 3e 8b 7a 0b 3f 88 48 50 3f
       0.16266954 0.2070235 0.5448386 0.81360674
000180 0e ff 67 3f ac be d0 3e e5 92 6d 3f bd 29 3d 3f
       0.9062356 0.4077047 0.9280227 0.7389181
000190 4c 22 f5 3e f0 51 63 3d 4d 8d 16 3f 01 eb 2d 3f
       0.4787773 0.055498064 0.5880936 0.6793671
0001a0 7d 73 76 3f 52 5d c8 3e c7 c8 31 3f 9c 3c 90 3e
       0.9626997 0.39133698 0.69446987 0.2817124
0001b0 73 8e 30 3f 60 78 27 3f ec 6b d3 3e 72 6e e1 3e
       0.6896736 0.6541805 0.41293275 0.44029576
0001c0 8c 04 86 3e d4 81 1a 3e 98 b1 39 3e fa 30 cb 3e
       0.26175344 0.15088588 0.18134153 0.39685804
0001d0 7e cb 00 3f b2 56 63 3f 2f bb 5c 3f dd 04 69 3f
       0.50310504 0.8880416 0.8622312 0.91023046
0001e0 3c 83 ba 3e e0 43 55 3d 3d 3f 0b 3f 74 a5 db 3e
       0.3642825 0.052066684 0.5439337 0.42899668
0001f0 1c 03 c3 3e 00 0a 9d 3e e0 1a df 3e 0b 93 96 3e
       0.3808831 0.30671692 0.43575191 0.2940906
000200 e5 36 2a 3f c2 04 cd 3e e8 c0 ad 3e ed 03 41 3f
       0.6649001 0.40042692 0.33936238 0.75396615
000210 94 2b 7b 3f 1b 7d 12 3f e4 1b 19 3e c4 e9 38 3e
       0.9811337 0.57222146 0.14952046 0.18057925
000220 c0 44 9d 3d ee 82 d6 3e 50 bd 33 3d 49 9f 48 3f
       0.07679129 0.41896766 0.043881714 0.7836805
000230 3c 31 6b 3e ee ad 3e 3f 50 f3 62 3e 44 44 49 3f
       0.22968 0.74484146 0.22163129 0.7861979
000240 b8 b0 ef 3e d6 aa 03 3f 5b d7 14 3f a0 3b d2 3e
       0.46814513 0.5143255 0.58141106 0.41061115
000250 98 85 d3 3d 1c 64 bc 3e f0 3e 83 3e 34 45 57 3e
       0.10328215 0.36795127 0.25633955 0.21022493
000260 86 f0 57 3e 4a 5e ca 3e 56 f2 b8 3e e4 bf b8 3e
       0.21087846 0.39525062 0.36122388 0.360839
000270 b4 19 2c 3e 70 05 04 3f 96 e5 f7 3e 6e 61 9b 3e
       0.1680668 0.51570797 0.48417348 0.3034777
000280 b6 3e f1 3e 62 83 7a 3f 04 29 ed 3e 0b d1 1e 3f
       0.47118157 0.97856724 0.46320355 0.62037724
000290 2e b7 36 3f 80 aa c7 3b 20 4d bc 3d 90 d9 0e 3e
       0.7137326 0.006093323 0.09194398 0.13950181
0002a0 0e 31 45 3f a4 9c 56 3f 40 13 45 3d c2 cc 82 3e
       0.77027977 0.83832765 0.04811406 0.25546843
0002b0 98 54 00 3f 18 3c e8 3d 4c 07 38 3f 00 32 b9 3e
       0.5012908 0.11339587 0.71886134 0.3617096
0002c0 e0 e9 55 3d 7f da 16 3f 78 85 1e 3f cf c6 48 3f
       0.052224994 0.5892715 0.6192241 0.7842836
0002d0 70 8d 9c 3e a0 d0 85 3e 60 51 08 3d dc 1a c1 3e
       0.30576658 0.2613573 0.03328073 0.37715805
0002e0 a7 db 59 3f b5 7d 55 3f 37 79 21 3f dc 6f 0d 3e
       0.8510079 0.8339494 0.63075584 0.13812202
0002f0 7e 0c 8b 3e 48 d5 71 3f d8 9f aa 3e cf 83 4f 3f
       0.27157968 0.94466066 0.33325076 0.810605
000300 e2 cc 9f 3e 08 16 33 3f 52 91 c7 3e c0 2b 2e 3c
       0.31211 0.6995549 0.38978058 0.010630548
000310 22 49 61 3f e0 cf af 3c 00 13 b0 3d 79 29 7a 3f
       0.88002217 0.021461427 0.08597374 0.9771953

l5.bias f4 [20]
000000 d1 9b 51 3f 24 be 6e 3e 10 44 8f 3d 00 d1 6e 3e
       0.8187838 0.2331472 0.06995404 0.23321915
000010 9e bb f7 3e 95 1a 27 3f 18 f5 8b 3e 54 53 fd 3e
       0.48385328 0.65274936 0.2733543 0.49477637
000020 16 20 ff 3e 3c d1 a7 3e 62 c4 49 3f 70 03 71 3e
       0.49829167 0.3277682 0.7881528 0.23536468
000030 72 09 2b 3f 5e 93 27 3f 19 85 1b 3f 23 af 6a 3f
       0.6681129 0.6545924 0.60749966 0.9167349
000040 82 4b 18 3f fd 12 46 3f d8 70 68 3f 27 d6 2d 3f
       0.59490216 0.77372724 0.90797186 0.67904896

l5.weight f4 [20, 10]
000000 b7 c1 22 3f 14 ff 52 3f 48 82 22 3e 00 d6 8b 3a
       0.63576835 0.8242047 0.15870011 0.0010668635
000010 4c 82 3e 3f 12 6b 12 3f fc 9e a1 3e 94 dc 96 3e
       0.7441757 0.57194626 0.31566608 0.29465163
000020 6c 31 ea 3e 4b 18 31 3f 15 87 5a 3f 2a 40 59 3f
       0.4574083 0.69177693 0.8536237 0.8486353
000030 de 28 55 3f 0e ab a2 3e ce f7 b3 3e 96 f5 04 3f
       0.83265483 0.3177113 0.35149997 0.51937234
000040 96 ba ca 3e e8 21 02 3e a4 5a 15 3f 20 c2 a1 3d
       0.3959548 0.12708247 0.5834143 0.078983545
000050 8a c6 b8 3e 10 24 2c 3d 40 c2 e4 3c 38 c4 cf 3d
       0.36088973 0.04202658 0.027924657 0.10144848
000060 26 eb 55 3f 01 e9 6d 3f 95 ee 3c 3f 18 ed a0 3e
       0.83561933 0.9293366 0.7380155 0.31430888
000070 46 46 00 3f 26 56 47 3f 80 2c 05 3e fe 0d c7 3e
       0.5010723 0.7786583 0.13005257 0.38877863
000080 f1 8f 0f 3f 12 b2 23 3f 82 4c 41 3f 58 a4 8f 3d
       0.5607901 0.6394359 0.75507367 0.07013768
000090 10 95 31 3d 60 84 8a 3e 68 83 29 3e 75 4b 27 3f
       0.043355048 0.2705412 0.16554034 0.65349513
0000a0 d8 fd 71 3f d0 4c f9 3d ce 90 9d 3e 83 ac 7f 3f
       0.9452796 0.12172854 0.3077454 0.99872607
0000b0 64 4b d0 3e 80 ce 89 3d 64 b1 a7 3e 20 ca 30 3d
       0.40682518 0.0672884 0.32752526 0.04316151
0000c0 c3 35 42 3f 8c 83 e0 3e ff 87 6f 3f b0 46 76 3e
       0.75863284 0.43850362 0.9356689 0.24050403
0000d0 f0 e4 a1 3d f8 bf 4d 3f fc 82 6a 3e d0 6a 3e 3f
       0.079049945 0.80371046 0.22901529 0.7438173
0000e0 38 2c 26 3f f8 2e 46 3f 54 8e 03 3e 74 a0 15 3f
       0.6491122 0.7741542 0.12847263 0.5844796
0000f0 ae af e4 3e 33 e1 54 3f c0 14 b8 3e 80 69 08 3d
       0.44665283 0.83156127 0.3595333 0.033303738
000100 00 48 ed 3b d6 68 5a 3f 8f 1c 70 3f a9 2f 66 3f
       0.007241249 0.85316217 0.93793577 0.89916474
000110 e0 6f c2 3c 42 db 37 3f ba 6e 87 3e 4c 99 70 3e
       0.023734987 0.71818936 0.26451665 0.23495978
000120 ef f8 25 3f 00 fa 51 3d 05 ef 6c 3f 6f 5e 08 3f
       0.6483297 0.05126381 0.92552215 0.53269094
000130 79 8c 43 3f 45 e3 1d 3f ac bb 42 3f 61 93 1e 3f
       0.7638622 0.6167491 0.76067615 0.6194363
000140 e0 36 85 3c 4c fd 40 3e e4 30 25 3e 10 9a 76 3d
       0.016261518 0.18846625 0.16131932 0.06020552
000150 41 d0 10 3f 48 98 64 3e 88 bd 06 3f c8 9a cf 3e
       0.5656777 0.22323716 0.5263295 0.40547776
000160 20 9b 90 3d 50 6b 7e 3f da a9 06 3f 64 f1 ec 3e
       0.07060838 0.99382496 0.5260292 0.46277916
000170 43 d1 74 3f 4a 0e 8e 3e 9b ab 46 3f 90 bb 53 3f
       0.9563181 0.27745277 0.776056 0.8270807
000180 2d 90 03 3f dc bb c3 3e c0 d6 20 3f 80 24 92 3e
       0.5139187 0.38229263 0.6282768 0.28543472
000190 cc a9 47 3e c4 13 a8 3e 14 db 47 3e 64 dc 24 3f
       0.19498366 0.3282758 0.19517165 0.6439879
0001a0 fe df 00 3f 68 fa b7 3d 9b 69 28 3f ca fc 89 3e
       0.50341785 0.08983308 0.6578614 0.26950675
0001b0 0d 0b 43 3f 3b b4 6a 3f 18 23 02 3e 40 02 a5 3c
       0.7618874 0.9168126 0.127087 0.020142674
0001c0 d6 ca 16 3f a7 d6 44 3f fb 6d 46 3f bc 80 43 3f
       0.58903253 0.76890033 0.77511567 0.7636831
0001d0 00 e6 8e 3d c3 b8 5f 3f c1 bf 44 3f 45 72 0c 3f
       0.06977463 0.873913 0.76855093 0.5486186
0001e0 fe b5 e6 3e 70 7b 55 3f b4 6e d5 3e bf 17 19 3f
       0.45060724 0.83391476 0.41686022 0.5980186
0001f0 1a bc e9 3e aa 7d cb 3e 0c f5 7e 3e bc 4b cc 3e
       0.45651323 0.39744312 0.24898165 0.3990153
000200 fe 14 02 3f 08 57 94 3d bc f7 60 3e be e0 20 3f
       0.5081328 0.072431624 0.21969503 0.6284293
000210 b6 05 a9 3e 82 c7 57 3f 88 e0 7a 3e ef 0e 74 3f
       0.3301217 0.842888 0.24499714 0.95335287
000220 dc a0 f8 3e 80 89 9e 3d f7 e2 06 3f 88 db 0b 3f
       0.48560226 0.0774107 0.5269007 0.54631853
000230 30 77 93 3e 54 fa 50 3f 48 ea e7 3d be 6a e2 3e
       0.2880187 0.8163197 0.113239825 0.44222063
000240 ca 99 87 3e 7c 85 eb 3e 90 54 3d 3d 85 10 0c 3f
       0.2648452 0.46000278 0.046223223 0.54712707
000250 63 10 2d 3f bc f5 08 3f 32 e9 37 3f 38 b3 d7 3d
       0.6760313 0.5349996 0.718402 0.1053223
000260 e2 ec 32 3f 60 91 ac 3d d8 55 0c 3f be 73 48 3f
       0.69892704 0.084261656 0.5481849 0.7830161
000270 c0 d3 19 3e 6f 4d 39 3f d5 0f 3c 3f 94 92 fe 3e
       0.15022182 0.7238378 0.7346166 0.49721205
000280 f7 c1 4b 3f 76 5d 1c 3f 3b 65 29 3f e8 aa 83 3e
       0.7959284 0.6108011 0.6617009 0.2571633
000290 32 1a 58 3f 43 58 1a 3f 93 f4 4c 3f 32 d6 1d 3f
       0.8441497 0.60290927 0.8006069 0.6165496
0002a0 f6 4a cf 3e f0 0b 8c 3d 90 33 7b 3f 2c 51 ad 3e
       0.40486878 0.068382144 0.98125553 0.33850992
0002b0 be 90 1b 3f c5 81 5f 3f 6c 30 e7 3e ec f3 08 3f
       0.60767734 0.8730739 0.4515413 0.53497195
0002c0 cc 01 09 3f e0 49 cc 3d 10 23 b1 3e 15 71 33 3f
       0.53518367 0.09975028 0.34597063 0.70094424
0002d0 d0 d7 f6 3e b8 a9 e6 3e 40 24 36 3e 6d 6c 70 3f
       0.48211527 0.4505136 0.17787266 0.93915445
0002e0 e0 8d 58 3f ee 61 3c 3f 21 6c 0d 3f 3c 02 2d 3f
       0.84591484 0.7358693 0.55243117 0.67581534
0002f0 f4 25 ee 3e 40 91 34 3e 90 a4 b8 3e 72 44 69 3f
       0.4651333 0.17633533 0.3606305 0.91120064
000300 be 5d 53 3f 20 06 cd 3e 00 38 7f 3d 88 ad 68 3f
       0.82564914 0.40043736 0.062309265 0.9088979
000310 8d 2b 39 3f d8 3c aa 3e 50 6b 62 3e be 81 69 3f
       0.7233208 0.33249545 0.22111249 0.91213596

l4.bias f4 [10]
000000 e7 a7 2d 3f 59 d0 67 3f 34 e4 07 3f 2b c8 a4 3e
       0.67834324 0.9055229 0.53082585 0.32183966
000010 01 d5 06 3f b8 51 cd 3e cb 9e 34 3f 4c 90 7e 3f
       0.5266877 0.4010141 0.705548 0.9943893
000020 00 3e 79 3f 98 97 fb 3e
       0.9736023 0.49139094

l4.weight f4 [10, 20]
000000 24 4a 69 3f 54 a9 30 3e e8 c2 63 3f ee 6e 7b 3f
       0.91128755 0.17252094 0.8896928 0.9821614
000010 28 15 61 3f 86 45 c5 3e f9 3d 0a 3f 4a 32 9d 3e
       0.87922907 0.38529605 0.5400081 0.3070243
000020 b8 f0 ca 3e 44 dc 3d 3f d0 ce 79 3f 5e 3c a5 3e
       0.3963678 0.74164224 0.97581196 0.3227262
000030 dc 7f 40 3f fd 15 3c 3f ca 31 ac 3e 0e bf 1c 3f
       0.751951 0.7347105 0.33631736 0.61229026
000040 c0 66 1f 3f 04 27 0e 3f bc 9d 94 3e 36 a7 13 3f
       0.6226616 0.55528283 0.29026592 0.5767702
000050 d5 70 01 3f 42 74 ab 3e 79 a8 74 3f 89 fc 52 3f
       0.50562793 0.33487135 0.9556957 0.8241659
000060 2e ab 9f 3e c4 58 e5 3e 98 85 2f 3f 22 5e 21 3f
       0.31185287 0.44794285 0.6856322 0.6303426
000070 4f e2 4b 3f 44 d2 c3 3e 1d bb f9 3e a8 b3 bc 3d
       0.79642195 0.38246357 0.4877557 0.09213954
000080 2e 47 2a 3f 8b 4d 4e 3f b1 de 7f 3f 3c 4f 58 3f
       0.6651486 0.8058707 0.99949175 0.844959
000090 e4 13 76 3e 68 26 26 3f e0 85 01 3f 50 0e 1e 3e
       0.24031025 0.64902353 0.505949 0.15435147
0000a0 ef 59 2b 3f 40 23 7b 3f 35 7f 57 3f 46 ff b5 3e
       0.669341 0.9810066 0.8417848 0.3554632
0000b0 b8 58 52 3e bd 73 17 3f 87 88 32 3f 5c af 04 3f
       0.20541656 0.5916098 0.69739574 0.5183008
0000c0 60 56 a7 3e 00 d1 45 3c 30 25 84 3e b0 36 85 3e
       0.32683086 0.012073755 0.25809622 0.26018286
0000d0 00 5e fb 3d 5c e0 95 3e 90 f8 71 3e 1b be e5 3e
       0.122737885 0.29272735 0.23629975 0.448716
0000e0 61 5d 5b 3f 60 10 1a 3d e8 97 ac 3d 48 f4 78 3e
       0.8568936 0.037613273 0.08427411 0.24311936
0000f0 2f e4 11 3f 73 b5 45 3f 50 40 69 3d f0 7b 71 3e
       0.56988806 0.77229995 0.0569461 0.23582435
000100 64 74 a7 3e 74 95 af 3e 74 ac da 3e cc 38 75 3f
       0.32705986 0.3429371 0.42709696 0.9578979
000110 1e 49 95 3e ee 66 1d 3f 5c 1e 80 3e f0 88 a0 3e
       0.29157346 0.61485183 0.25023162 0.31354475
000120 26 37 21 3f 08 48 8b 3d b8 2c 5d 3f aa 27 68 3f
       0.62974775 0.06800848 0.8639636 0.9068552
000130 c1 1c 1a 3f d4 d0 9f 3e f7 ad 62 3f 30 66 21 3e
       0.60200125 0.3121401 0.885467 0.15761638
000140 aa ff 83 3e 00 83 61 3e a8 11 1c 3f 34 ab 12 3e
       0.25780994 0.22022629 0.6096444 0.14323121
000150 84 1f 9b 3e a4 17 12 3f d0 d3 15 3e bc e4 48 3f
       0.30297482 0.5706732 0.14631581 0.7847402
000160 d7 f9 e5 3e 20 dd a7 3d dc 56 50 3e be 92 ef 3e
       0.44917175 0.08196473 0.20345634 0.46791643
000170 c0 fc 38 3f 2b 6d 36 3f a6 6f f7 3e 10 57 d7 3d
       0.72260666 0.7126033 0.48327368 0.10514653
000180 70 da f9 3e 74 de 09 3f 04 d5 96 3e 85 6f 09 3f
       0.48799467 0.5385506 0.29459393 0.5368579
000190 d5 a9 40 3f fc 57 b1 3e ee 8c b1 3e b7 18 2c 3f
       0.75259143 0.3463744 0.34677833 0.6722521
0001a0 a2 67 58 3f 6c 05 6d 3e 88 ff 3d 3f 5c fa ba 3e
       0.8453313 0.231466 0.74218035 0.36519134
0001b0 83 75 2f 3f 28 b5 25 3e 66 db 11 3f b0 41 04 3f
       0.68538684 0.16182387 0.569754 0.5166273
0001c0 28 87 b5 3e ff 28 28 3f 59 e4 0d 3f 9a 85 94 3e
       0.3545468 0.65687555 0.55426556 0.2900818
0001d0 de 83 09 3f e0 c3 d5 3e be 21 17 3f a5 85 c9 3e
       0.5371684 0.41751003 0.5903586 0.39359775
0001e0 16 78 6e 3f 18 7f 9f 3e 90 68 e0 3d fd 84 5c 3f
       0.93151987 0.31151652 0.10957444 0.86140424
0001f0 d4 84 4d 3f b9 07 3e 3f 14 8f 56 3e 01 7a 5a 3f
       0.80280805 0.74230534 0.20953017 0.85342413
000200 88 35 e6 3e 50 a6 bd 3e 58 68 bb 3e f4 ca 54 3e
       0.44962716 0.3704095 0.36603045 0.20780545
000210 91 dd b8 3e 1a a4 90 3e fc 07 b7 3e 44 68 78 3e
       0.36106542 0.282502 0.3574828 0.24258524
000220 70 28 0e 3f 00 38 ff 3d 39 3e 41 3f c9 33 75 3f
       0.5553045 0.12461853 0.7548557 0.9578214
000230 08 c8 44 3f 5c 58 64 3f d4 e3 a2 3e a8 70 b9 3e
       0.76867723 0.89197326 0.31814444 0.36218762
000240 00 f4 97 3c 3f 55 0b 3f 0d 17 0c 3f 60 93 6e 3e
       0.018548965 0.5442695 0.5472267 0.23298407
000250 46 35 92 3e 9d 7e 28 3f ee 04 87 3e 4e 71 b6 3e
       0.2855627 0.65818197 0.2637095 0.3563332
000260 64 d6 48 3f 80 04 2f 3d 00 a0 69 3d d3 39 36 3f
       0.78452134 0.0427289 0.057037354 0.7118198
000270 83 5e 18 3f 78 c9 e4 3e 5f 47 3a 3f 28 9d 9a 3e
       0.59519213 0.44684958 0.72765154 0.30198026
000280 8c c1 d8 3e 40 97 34 3d f4 5c 4d 3e fc c5 2c 3f
       0.42335165 0.044089556 0.2005499 0.674896
000290 cf 04 3d 3f 9e 79 5c 3f 40 62 dd 3c 48 47 76 3e
       0.7383546 0.86123073 0.027024388 0.24050629
0002a0 e0 dd c6 3d 80 b2 cc 3b 28 f1 03 3e 6c 18 bc 3e
       0.09710288 0.006246865 0.12884963 0.36737382
0002b0 23 14 22 3f 30 b4 47 3f b4 62 05 3f 38 58 84 3e
       0.63311976 0.7800932 0.52103734 0.25848556
0002c0 40 0e 84 3e 8e f9 80 3e 4a 30 50 3f fa 78 d6 3e
       0.25792122 0.25190395 0.81323683 0.41889173
0002d0 08 2f f1 3d c8 96 05 3f 10 95 30 3f 5c 39 92 3e
       0.117765486 0.521832 0.6897745 0.28559387
0002e0 87 ba 48 3f 04 cf 22 3e c6 e4 6e 3f 90 89 38 3f
       0.7840962 0.15899283 0.9331783 0.72084904
0002f0 b0 4f 57 3e 4a fc 42 3f 18 d3 ff 3e b1 27 6f 3f
       0.21026492 0.7616621 0.4996574 0.9341994
000300 f1 71 10 3f 40 95 d9 3d 8c b9 7c 3e 58 ff 0b 3e
       0.5642386 0.1062417 0.24680156 0.13671625
000310 65 d1 4c 3f b8 36 6d 3f e4 91 a0 3e 11 fb 47 3f
       0.8000701 0.9266162 0.31361306 0.7811747

l3.bias f4 [20]
000000 75 e0 73 3f 34 60 85 3e 5a f9 ab 3e 6f c5 2b 3e
       0.9526437 0.2604996 0.33588678 0.16774534
000010 97 1a 7b 3f d2 23 2c 3f 70 2c 94 3d b8 92 61 3e
       0.9808745 0.6724216 0.07235038 0.22028625
000020 68 80 3f 3f 56 e3 fd 3e 9c d8 99 3e 73 c5 5d 3f
       0.7480531 0.49587506 0.30048072 0.8662941
000030 c0 6d e2 3e 8e 79 c2 3e 0a b2 b9 3e f0 63 e9 3d
       0.44224358 0.37983364 0.36268646 0.11396015
000040 94 4c a4 3e fb 46 61 3f 92 bd e8 3e 80 83 dc 3b
       0.32089674 0.8799893 0.4545713 0.006729543

l3.weight f4 [20, 10]
000000 b1 f5 00 3f 5f 2c 5b 3f 4c fa 24 3e a0 5d 4f 3d
       0.50374895 0.8561458 0.16111106 0.050626397
000010 d4 10 31 3e 85 69 08 3f 0e 5e 7a 3f a8 e9 38 3e
       0.17291576 0.5328601 0.97799766 0.18057883
000020 4e 44 87 3e 18 75 67 3e a4 d8 73 3e 32 c9 7f 3f
       0.264193 0.22603261 0.2381311 0.99916375
000030 b0 d6 27 3d 1f cf 6b 3f 36 3c 09 3f 11 80 78 3f
       0.040976226 0.92112917 0.536075 0.97070414
000040 d0 af 50 3d f8 6b 91 3e 44 c6 68 3f 19 c1 e1 3e
       0.050948918 0.28402686 0.9092753 0.44092634
000050 c0 40 33 3c 41 c7 65 3f d9 fc 1f 3f 54 0d 71 3e
       0.010940731 0.8975716 0.6249519 0.2354024
000060 61 d7 03 3f 28 d9 7e 3f 30 91 fa 3d f6 1a 0a 3f
       0.5150052 0.99550104 0.122347236 0.5394739
000070 04 1a b6 3e 5a 06 3c 3f 46 eb d7 3e e6 52 d5 3e
       0.35566723 0.7344719 0.42171687 0.4166481
000080 c3 3e 27 3f c0 82 6f 3f fa ef b9 3e 80 b2 b2 3d
       0.6533014 0.93558884 0.363159 0.087254524
000090 52 c2 fa 3e 48 22 8a 3e 11 6c 5e 3f 38 dc 99 3e
       0.4897638 0.2697928 0.86883646 0.30050826
0000a0 aa b6 b5 3e cf 9e 1a 3f cb 0f 30 3f e8 aa c5 3d
       0.35490924 0.6039857 0.687741 0.096517384
0000b0 a8 e1 ff 3e a6 60 b5 3e c4 d9 ab 3e 1c 69 01 3f
       0.4997685 0.354253 0.3356458 0.5055101
0000c0 0a 8c 2e 3f f2 d3 c5 3e 60 8f b8 3e f4 25 27 3f
       0.6818243 0.38638264 0.36046886 0.65292287
0000d0 1a 41 f3 3e b8 fe b1 3d 85 6d 0c 3f a1 c3 1e 3f
       0.47510606 0.08691162 0.54854614 0.62017256
0000e0 64 45 28 3e 13 8a 06 3f 46 64 e3 3e ca 8f 9d 3e
       0.1643272 0.52554435 0.4441244 0.30773765
0000f0 c0 20 15 3d ca c5 eb 3e 16 ad 30 3f 1c 59 2c 3f
       0.036408186 0.4604934 0.6901411 0.6732347
000100 80 73 95 3d ee 88 e5 3e 8a ce 65 3f 4d 37 51 3f
       0.072974205 0.44831032 0.8976828 0.8172501
000110 23 e9 45 3f b6 1b 54 3f c0 4c dd 3e 7b 14 18 3f
       0.77308863 0.82854784 0.43222618 0.5940625
000120 49 33 3f 3f 89 0c 0c 3f 32 e3 78 3f 68 9e f1 3d
       0.7468763 0.5470663 0.9722167 0.11797792
000130 51 eb 4a 3e 99 06 6a 3f 99 19 6f 3f ee d9 b2 3e
       0.19816329 0.9141632 0.93398434 0.34931892
000140 8e 91 49 3f 66 e5 17 3f fc ed 39 3f a2 7b 45 3f
       0.78737724 0.5933441 0.7262876 0.77141774
000150 ca 7b 5c 3f 28 25 ba 3e d0 c3 a2 3e c0 53 49 3c
       0.8612639 0.36356473 0.31790018 0.012288034
000160 08 5d 57 3f 74 0f 62 3f 20 66 54 3e e4 f6 34 3f
       0.8412633 0.8830483 0.20742083 0.70689225
000170 fc 8a bf 3e e1 53 5f 3f 30 7e 48 3d c0 25 15 3f
       0.37410724 0.87237364 0.048948467 0.58260727
000180 42 55 8f 3e 30 af 71 3d 30 3f 0e 3d 97 54 6f 3f
       0.27994734 0.059004962 0.03472823 0.9348845
000190 ec 58 d8 3e 9c bc 44 3f 99 97 37 3f 4b 31 3c 3f
       0.42255342 0.76850295 0.71715695 0.73512715
0001a0 11 d0 6d 3f f2 63 d7 3e d5 4e 62 3f 80 4b d5 3c
       0.9289561 0.4206844 0.8840154 0.026036978
0001b0 d8 a7 16 3f 34 0f bf 3e fc 67 8f 3e 3c f1 06 3f
       0.5884986 0.37316287 0.2800902 0.52711844
0001c0 20 48 92 3c 36 9b 19 3f f1 a0 5f 3f 2a d1 bb 3e
       0.017856658 0.6000246 0.8735495 0.36683017
0001d0 22 14 4d 3f a0 6b aa 3c 43 8d 6e 3f b0 de c2 3e
       0.80108845 0.020803273 0.931843 0.38060522
0001e0 86 8e ef 3e 90 3f 27 3d f2 f2 96 3e 4d c8 38 3f
       0.46788424 0.040832102 0.29482228 0.72180635
0001f0 e8 96 d6 3e d7 7b 53 3f e0 c3 d9 3c 53 90 18 3f
       0.41912007 0.8261084 0.026582658 0.5959522
000200 d8 46 53 3f 78 ee 8f 3d 78 67 eb 3e 64 bb fb 3e
       0.82529974 0.07027906 0.45977378 0.49166405
000210 ac b9 0a 3e 50 80 d3 3e a6 21 a2 3e b0 dd 05 3f
       0.1354739 0.41308832 0.31666297 0.52291393
000220 20 2c 18 3d b8 9d fc 3e 57 77 49 3f 99 a9 15 3f
       0.037151456 0.4933908 0.78697723 0.5846191
000230 b8 70 ad 3e e0 d2 24 3e 20 9f b2 3d c2 41 fd 3e
       0.3387506 0.16096067 0.08721757 0.49464232
000240 4c 86 10 3e 90 55 fa 3e 5e 58 5b 3f f0 06 2a 3d
       0.1411373 0.48893404 0.8568171 0.041510522
000250 64 3e e9 3e d9 bc 30 3f 67 53 7f 3f fd 8d 29 3f
       0.45555413 0.6903816 0.99736637 0.6623228
000260 f7 11 42 3f b7 b9 78 3f e8 a7 b4 3e 3c 46 1f 3e
       0.7580866 0.9715838 0.35284352 0.15554136
000270 da 88 e9 3e 30 ef a7 3d 2e 90 53 3f ed 4c 4c 3f
       0.45612222 0.08199918 0.82641876 0.7980488
000280 56 03 fc 3e 52 8b 49 3f 39 57 0b 3f a8 c2 24 3e
       0.49221295 0.7872821 0.54429966 0.1608988
000290 66 9d 7a 3f 08 4b a8 3e f0 41 fa 3d 9e 91 4c 3f
       0.9789642 0.32869744 0.12219608 0.79909694
0002a0 24 0f 3b 3f 40 b8 c0 3c 6c 9c 0c 3f da be 0f 3f
       0.7306998 0.023525357 0.5492618 0.5615059
0002b0 2d 93 7d 3f 7a c3 2d 3f bb 60 26 3f d8 b1 02 3f
       0.990527 0.678764 0.6499135 0.5105262
0002c0 cc e4 40 3f f6 07 00 3f e0 d9 d8 3e 0a c2 1f 3f
       0.75349116 0.5001215 0.42353725 0.62405455
0002d0 6a 96 d7 3e 17 83 0e 3f ea be 09 3f ee 6e b9 3e
       0.42106944 0.5566878 0.53806937 0.36217445
0002e0 d8 80 cc 3d 14 e2 76 3f b1 b7 10 3f 2e f7 e2 3e
       0.099855125 0.9643872 0.5653029 0.44329208
0002f0 af 86 48 3f 44 55 b0 3e c6 c6 35 3f 18 00 e9 3d
       0.7833051 0.34440053 0.7100643 0.11376971
000300 14 3e 18 3e 45 0f 35 3f ba aa 6f 3f 48 96 dc 3d
       0.14867431 0.70726424 0.93619883 0.107708514
000310 e6 0a 1b 3f 68 a9 92 3e 5a 1c 42 3f 70 b1 fd 3d
       0.60563505 0.28644872 0.7582451 0.12387359

l2.bias f4 [10]
000000 18 11 d8 3e e8 c5 37 3f e2 83 a8 3e 86 8f f1 3e
       0.42200541 0.71786356 0.3291312 0.47179812
000010 80 3c 2f 3f 3a cd 13 3f 30 72 63 3d cc fa 0a 3f
       0.6845169 0.57735026 0.05552882 0.54288936
000020 eb 01 0d 3f 63 87 73 3f
       0.5508105 0.9512846

l2.weight f4 [10, 20]
000000 6c 4e 9d 3e d0 70 25 3d 5e c6 3a 3f be 7f df 3e
       0.30723894 0.04039079 0.72958934 0.43652147
000010 76 1d 1d 3f 3c 52 d8 3e a2 f2 d0 3e aa 19 eb 3e
       0.6137308 0.4225024 0.40810114 0.45918018
000020 70 0d 5d 3e f0 38 19 3e 0d 5b 40 3f 90 b6 b5 3e
       0.21587157 0.14963126 0.7513893 0.35490847
000030 40 8e 87 3d 7c 37 0c 3f d7 bb 43 3f d6 61 34 3f
       0.06618929 0.5477216 0.76458496 0.70461786
000040 38 b7 3e 3f 27 44 41 3f ac 83 b9 3e 4a f2 89 3e
       0.7449832 0.7549462 0.3623327 0.26942664
000050 8a a8 ac 3e 20 ea 1b 3f 46 b3 98 3e 5b d1 51 3f
       0.33722335 0.6090412 0.29824275 0.81960076
000060 f2 fa ed 3e 22 fb 8a 3e 50 53 6d 3d f8 b7 fe 3d
       0.4648052 0.27144724 0.05794078 0.12437433
000070 d8 01 ac 3e 0c 55 22 3f 74 cd 3e 3f 53 43 14 3f
       0.33595157 0.6341102 0.74532247 0.5791523
000080 f9 31 34 3f 16 94 3a 3f 7b cd 0f 3f a0 1c ef 3d
       0.7038875 0.7288221 0.56172913 0.11675382
000090 28 55 fe 3d f0 3f 1b 3f e4 9f aa 3e b6 9a c0 3e
       0.12418586 0.60644436 0.33325112 0.37618035
0000a0 c8 fc 3e 3f 92 ee 8a 3e c5 a3 6b 3f d7 66 25 3f
       0.74604464 0.2713514 0.9204677 0.64610046
0000b0 a0 05 ac 3c 52 a9 6e 3f 0c 1e 27 3e e0 42 40 3e
       0.020998776 0.9322711 0.16320056 0.18775511
0000c0 c8 76 6b 3e f4 ca f7 3e 8a f9 45 3f d2 a2 2d 3f
       0.2299453 0.48397028 0.7733389 0.6782657
0000d0 04 3b 34 3f 88 f3 a4 3e d4 3d 7f 3e e9 04 d1 3e
       0.7040255 0.3221705 0.2492593 0.4082406
0000e0 53 0b 0b 3f f4 7a d2 3e 86 54 1e 3f a3 8c 7c 3f
       0.54314154 0.4110943 0.6184772 0.98652095
0000f0 9a df 9d 3e 05 eb 30 3f ba d3 6a 3f 4c 66 f0 3e
       0.30834657 0.6910861 0.9172932 0.46953046
000100 54 18 10 3f b2 70 fb 3e 1a c4 1e 3f a0 2b 7e 3d
       0.5628712 0.49109417 0.6201798 0.062053323
000110 0a 4c f8 3e db b2 2b 3f 06 96 3f 3f 15 88 1a 3f
       0.48495513 0.67069787 0.7483829 0.60363895
000120 4a 54 51 3f 1c f5 b6 3e e5 70 76 3f 2c e8 62 3f
       0.8176924 0.3573388 0.96266013 0.88635516
000130 60 84 a7 3c 1d 45 4c 3f 08 8e 03 3e b2 bf 7b 3f
       0.020448864 0.7979296 0.1284715 0.9833938
000140 02 48 04 3f b2 49 83 3e 2a 3e 40 3f 6c c4 c8 3e
       0.51672375 0.25642163 0.75094855 0.39212358
000150 c2 10 88 3e d0 83 0d 3d 78 f2 76 3e 00 06 a4 3c
       0.26575285 0.034549534 0.24115932 0.020022392
000160 42 95 e3 3e a3 77 19 3f 0e f7 1c 3f 89 1c 70 3f
       0.44449812 0.59948176 0.61314476 0.9379354
000170 b0 e7 0a 3d 97 70 7b 3f b2 ba c7 3e 40 5f f0 3e
       0.03391236 0.98218673 0.39009625 0.4694767
000180 eb f3 67 3f cd 12 23 3e 49 e4 29 3f 70 d1 93 3d
       0.90606564 0.1592514 0.6636396 0.072176814
000190 28 c3 48 3e d4 d1 60 3e 30 3a ba 3d 95 62 5d 3f
       0.19605696 0.21955043 0.0909313 0.8647855
0001a0 1c 68 d4 3e 14 60 7c 3e cb 7f 10 3f 0b 4c 12 3f
       0.4148568 0.24646026 0.56444997 0.5714728
0001b0 e7 87 55 3f 38 4f 0a 3f 56 46 0f 3f e0 09 5d 3e
       0.83410496 0.5402713 0.559667 0.21585798
0001c0 84 38 0b 3f 56 ff 75 3f a0 46 a2 3c 48 ea 9f 3d
       0.5438311 0.96092737 0.019809067 0.078083575
0001d0 44 e4 c4 3e a0 2c fe 3c 48 d2 8e 3d 29 8d 6f 3f
       0.38455403 0.031027138 0.06973702 0.9357477
0001e0 b0 0f 5c 3e 46 fb 8f 3e 79 0c 3c 3f 20 4e 5a 3d
       0.2149036 0.28121394 0.7345653 0.053297162
0001f0 04 13 61 3e c6 be 67 3f 54 84 29 3e 72 a0 42 3f
       0.2197991 0.9052547 0.16554385 0.7602607
000200 50 2f 37 3f d0 d1 e9 3d 9e 96 74 3f ee 6f e0 3e
       0.7155657 0.11416972 0.95542324 0.43835396
000210 ce 0e f3 3e e3 b9 17 3f dc 44 fb 3e 8c 06 ee 3e
       0.47472233 0.59268016 0.49075973 0.4648937
000220 b7 b8 2c 3f 4c 65 c1 3e 33 0a 08 3f cd 9e 54 3f
       0.6746935 0.37772596 0.5314056 0.8305481
000230 9f 77 44 3f 2e 1d b0 3e f8 78 91 3d 40 b8 07 3e
       0.7674503 0.34397262 0.07103151 0.1325388
000240 d6 2a 05 3f 80 a6 8e 3b 3c 01 8c 3e 2d 4d 1b 3f
       0.5201849 0.0043533444 0.27344692 0.60664636
000250 22 bc 21 3f 05 02 19 3f 68 a6 31 3f fb 91 19 3f
       0.6317769 0.59768707 0.6939454 0.59988374
000260 90 e2 d4 3e 8a 00 81 3e 98 fe 64 3f 3f d8 79 3f
       0.41579103 0.25195724 0.8945098 0.9759559
000270 28 8b 71 3f bd a8 3d 3f 06 a9 ff 3e c9 31 6b 3f
       0.9435296 0.740856 0.49933642 0.9187284
000280 f8 09 74 3f 77 be 02 3f 46 57 67 3f 82 52 2e 3f
       0.9532771 0.51071876 0.90367544 0.68094647
000290 d4 a4 6e 3e 5c e9 f0 3e 31 9a 0c 3f 70 e8 71 3e
       0.23305064 0.4705304 0.5492278 0.23623824
0002a0 64 ad 3a 3e ee b2 b3 3e 94 f6 4e 3f cc c9 2d 3e
       0.18230206 0.3509745 0.80845 0.1697151
0002b0 6b b6 02 3f 3e 81 59 3f 6c 5c a9 3e c7 97 2d 3f
       0.510596 0.8496283 0.33078325 0.6780972
0002c0 32 44 e3 3e b6 97 b0 3e b4 6c 46 3e 3d b7 5f 3f
       0.44387966 0.34490746 0.19377404 0.87388974
0002d0 fd 84 25 3f de fc cd 3e 08 f1 06 3f 80 e3 6f 3e
       0.6465605 0.40231985 0.52711535 0.23426628
0002e0 4f b4 18 3f c6 8e b0 3e 7f c4 1a 3f f8 da a2 3d
       0.5965013 0.34483927 0.6045608 0.07951921
0002f0 b9 d0 60 3f 64 e5 6a 3f 13 5f 3a 3f 90 00 c9 3d
       0.87818485 0.9175627 0.7280132 0.098145604
000300 10 76 3b 3f 14 da c8 3e 67 48 6e 3f af 0f 7b 3f
       0.73227024 0.3922888 0.9307923 0.98070806
000310 32 6d d7 3e f8 eb 64 3e 1c 8f 67 3e 00 d9 11 3f
       0.42075497 0.2235564 0.22613186 0.5697174

l1.bias f4 [20]
000000 0a 7d 69 3f f9 84 25 3f e0 94 30 3f 96 55 09 3f
       0.9120642 0.64656025 0.68977165 0.5364622
000010 fe ef e5 3e bf 79 0a 3f 4c ef f5 3e 06 49 21 3f
       0.44909662 0.5409202 0.48034132 0.6300205
000020 59 dc 3d 3f 3a 2b 07 3f 20 3c 99 3d 3c 20 0f 3e
       0.7416435 0.52800333 0.07482171 0.1397714
000030 8a a8 bd 3e cd 5b 36 3f 89 2a 65 3f 8e 2a 12 3f
       0.37042648 0.71233827 0.8951803 0.57096183
000040 d1 68 54 3f 57 e7 44 3f 48 29 ff 3d 60 5d d9 3c
       0.8297244 0.76915497 0.12459046 0.026533782

l1.weight f4 [20, 10]
000000 b1 cc 62 3f e8 40 9c 3d 1c 21 94 3e b4 a3 e0 3e
       0.88593584 0.076295674 0.2893151 0.43874896
000010 5e f8 6f 3f c0 71 c3 3e 3b 88 25 3f ae 58 c5 3e
       0.93738353 0.38172722 0.64660996 0.3854422
000020 7d 4f 25 3f f6 39 37 3f fa 67 03 3f 50 32 4b 3d
       0.64574414 0.71572816 0.5133053 0.04960853
000030 60 fc d3 3c dc ec a7 3e ec a9 ff 3e ec a4 72 3e
       0.025877178 0.32797897 0.49934328 0.23695725
000040 ed bc 61 3f b4 f9 56 3e 54 69 5c 3f 70 18 ff 3d
       0.881789 0.20993692 0.8609822 0.12455833
000050 94 9c 7a 3f e6 b0 8c 3e ee 68 ba 3e 1f 5a 2d 3f
       0.9789517 0.27478713 0.3640818 0.6771564
000060 b0 b2 6e 3d 95 62 14 3f ea 29 7a 3f 6f 81 21 3f
       0.05827588 0.57962924 0.97720206 0.63088125
000070 d8 cb a3 3e b8 8e 93 3e da 24 f2 3e 57 80 29 3f
       0.31991458 0.28819823 0.4729374 0.66211456
000080 fa 98 d3 3e 3d 57 95 3e aa 54 dc 3e ab c5 03 3f
       0.4132765 0.2916812 0.43033344 0.5147349
000090 c8 1d 32 3e 97 26 2f 3f 3b 9a 0e 3f 50 2d 6f 3d
       0.17394173 0.6841826 0.55704087 0.058392823
0000a0 80 f4 ef 3d 64 46 81 3e 4c f0 40 3f 48 36 84 3d
       0.117165565 0.25249016 0.75366664 0.06455666
0000b0 ff cf 75 3f b4 bd 5b 3f 00 57 5d 3f 5c c1 ec 3e
       0.960205 0.8583634 0.86460876 0.46241271
0000c0 30 71 e3 3d 30 64 15 3e fa c3 3e 3f 80 0a a1 3e
       0.11105573 0.14589 0.74517787 0.31453323
0000d0 40 8c 24 3e 1c bc b7 3e 6a 89 0f 3f 3d d5 5c 3f
       0.16069126 0.35885704 0.5606905 0.86262876
0000e0 f6 05 78 3f 57 43 13 3f f8 8c 6d 3e 50 26 79 3d
       0.96884096 0.5752463 0.23198307 0.060827553
0000f0 8b f9 29 3f 06 67 d5 3e 40 f5 3b 3f ea 03 35 3f
       0.663964 0.41680163 0.73421097 0.707091
000100 d1 fd 07 3f 72 32 4d 3f ca 3a c9 3e 89 80 70 3f
       0.5312167 0.801551 0.39302665 0.9394613
000110 0d b4 5c 3f 0d d8 55 3f 0e 0b 9d 3e 08 ac 15 3f
       0.86212236 0.8353279 0.30672497 0.58465624
000120 e8 85 d6 3e b7 8f 78 3f 80 f7 a1 3b 54 56 6b 3e
       0.41899037 0.9709429 0.0049428344 0.2298215
000130 3e 50 64 3f e6 70 ae 3e a8 fb 3c 3f 74 7c 3b 3e
       0.8918494 0.3407051 0.73821497 0.18309194
000140 22 e3 50 3f c0 8f 38 3f 7a 0c 0e 3f 70 ca ab 3e
       0.8159658 0.72094345 0.5548779 0.33552885
000150 e2 14 5e 3f 2a c8 89 3e 0c e4 58 3e 00 f4 9c 3c
       0.86750615 0.26910526 0.21180743 0.019159317
000160 a1 d6 23 3f f3 8b 03 3f a6 88 90 3e 05 37 3d 3f
       0.6399937 0.5138542 0.28229254 0.7391208
000170 1d e3 3b 3f d0 5c 18 3e c0 a3 35 3f 66 32 5a 3f
       0.7339342 0.14879155 0.7095299 0.8523315
000180 aa b0 8e 3e 70 ad 43 3f 9f 54 3d 3f 54 e2 fd 3e
       0.2786916 0.7643652 0.73957247 0.49586737
000190 c4 f7 70 3e 6e 71 d5 3e 18 78 eb 3d f7 0b 7c 3f
       0.23532015 0.41688102 0.114975154 0.98455757
0001a0 32 94 e8 3e 00 ec 99 3a 79 64 2d 3f 04 ed ea 3e
       0.45425564 0.0011743307 0.67731434 0.45883954
0001b0 b1 bf 57 3f 7b 24 40 3f a5 2f 2b 3f ac 56 66 3e
       0.8427687 0.75055665 0.66869575 0.22494
0001c0 74 e9 3c 3e 40 e6 af 3c a4 f7 43 3e 3a 6b e0 3e
       0.1844843 0.021472096 0.19137436 0.43831807
0001d0 ea a1 95 3e 88 68 b5 3e 77 dd e5 3e 80 d6 6d 3c
       0.29225093 0.35431314 0.44895527 0.014516473
0001e0 84 42 44 3f 6c 89 50 3e cf f1 08 3f e8 57 f1 3e
       0.76663995 0.20364922 0.5349397 0.4713738
0001f0 90 9d c5 3d 27 82 87 3e 26 b2 e0 3e cc d2 9d 3e
       0.09649193 0.26466486 0.43885916 0.30824888
000200 a5 ac 50 3f 26 17 3f 3f 6a 03 4b 3f 66 b5 3e 3f
       0.81513435 0.74644697 0.79302084 0.7449554
000210 40 a2 6d 3c 92 e1 fe 3e d3 6c 21 3f 75 9f 34 3f
       0.014504015 0.49781471 0.6305668 0.7055581
000220 04 87 7e 3f f9 20 1e 3f 52 a5 5a 3f 36 eb 56 3f
       0.9942477 0.6176906 0.8540851 0.83952653
000230 ca d0 68 3f 3e b6 40 3f 92 8c f9 3e 13 14 0f 3f
       0.90943587 0.7527808 0.4874006 0.55890006
000240 4c 49 24 3e 48 74 ad 3d f8 1e 07 3e 56 7e 8f 3e
       0.16043586 0.084694445 0.13195407 0.28026074
000250 ac 47 3e 3e 9d be 06 3f 04 71 4d 3f c2 e9 b7 3e
       0.18582028 0.526346 0.80250573 0.3592053
000260 2f 11 0e 3f 9c 7a 91 3e 34 e3 4b 3f 61 07 57 3f
       0.5549497 0.28413856 0.7964356 0.83995634
000270 c8 2a 4c 3f 38 e9 8a 3d 44 9c e4 3e 8c f7 13 3f
       0.7975278 0.06782764 0.4465047 0.577996
000280 22 3a 92 3e 3a ca 3f 3f e4 64 6c 3e 97 64 54 3f
       0.28559977 0.7491795 0.23085362 0.8296599
000290 15 d9 bc 3e 26 ae d2 3e e0 bf fb 3e 58 60 0f 3f
       0.3688437 0.4114849 0.49169827 0.56006384
0002a0 34 ba f1 3e 64 54 20 3f 2e 3c 6b 3f 90 8c a1 3d
       0.47212374 0.6262877 0.918887 0.07888138
0002b0 d3 54 08 3f 9f d2 22 3f 4c 2b c1 3e 10 6a 95 3d
       0.5325443 0.6360263 0.37728345 0.072956204
0002c0 9c dc 2b 3e 5b 7a 26 3f 8c b1 80 3e 1e ce f8 3e
       0.16783375 0.6503045 0.25135458 0.48594755
0002d0 2c 37 21 3f 00 a3 ec 3e c1 7d 42 3f 78 b0 eb 3e
       0.6297481 0.4621811 0.75973135 0.46033072
0002e0 d6 1d 51 3f 48 7a aa 3d a5 4d 59 3f 94 a8 2b 3f
       0.8168615 0.083241045 0.848841 0.67054105
0002f0 ce a4 26 3f 44 63 f0 3e c0 09 c0 3c 80 59 38 3e
       0.6509522 0.46950734 0.02344215 0.18002892
000300 ce a0 94 3e 80 b5 59 3d aa b8 2c 3f b0 b7 2d 3e
       0.29028934 0.053151608 0.67469275 0.16964602
000310 c1 1a 3c 3f fa 23 32 3f 13 14 01 3f c5 96 12 3f
       0.73478323 0.69586146 0.50421256 0.57261306
