tests/data_pth/dare_ties1_cuda.pth (torch, 10428 bytes, 14 tensors)

l7.bias f4 [20]
0	0x3eb65ed8	0.35619235
1	0x3e8a8f9e	0.27062696
2	0x3ee26ecc	0.44225156
3	0x3ef776b1	0.48332742
4	0x3e68da48	0.22739518
5	0x3f770d06	0.9650425
6	0x3efc5c54	0.4928919
7	0x3f4066f8	0.7515712
8	0x3f2232f1	0.6335898
9	0x3f19688d	0.59925157
10	0x3f52b600	0.8230896
11	0x3ea77fb0	0.32714605
12	0x3f0043f2	0.50103676
13	0x3f3ee9f5	0.7457574
14	0x3f45ae07	0.7721867
15	0x3f64597c	0.8919904
16	0x3f733d52	0.9501544
17	0x3f5aba47	0.85440487
18	0x3f296cdf	0.6618175
19	0x3eb77687	0.35832617

l7.weight f4 [20, 10]
0	0x3f2f8fb6	0.6857866
1	0x3e9bf108	0.3045733
2	0x3c3fcd40	0.01170665
3	0x3e98f1d0	0.29871988
4	0x3f736d33	0.950885
5	0x3d13e5d0	0.03610784
6	0x3f305491	0.6887904
7	0x3e86e223	0.26344404
8	0x3f03e95e	0.51527965
9	0x3e342a8c	0.17594355
10	0x3f5c89ca	0.8614775
11	0x3f694f5b	0.9113671
12	0x3e303cbc	0.17210668
13	0x3ec3df40	0.38256264
14	0x3f7c7482	0.98615277
15	0x3e663b1c	0.22483486
16	0x3ef665ce	0.48124546
17	0x3f412e71	0.7546149
18	0x3dd22348	0.102606356
19	0x3ee7dce2	0.45285708
20	0x3f6458e3	0.8919813
21	0x3e24f1b4	0.16107827
22	0x3f4e7eb6	0.80662096
23	0x3f18d9ba	0.59707224
24	0x3f51c328	0.8193841
25	0x3f2f3261	0.6843625
26	0x3f3b75ba	0.7322651
27	0x3f6d827b	0.9277722
28	0x3e81fd4a	0.25388557
29	0x3eec32f2	0.46132618
30	0x3e8e4dda	0.2779377
31	0x3ef54ed3	0.479117
32	0x3e92475c	0.28570068
33	0x3f479536	0.7796205
34	0x3e50013c	0.20312971
35	0x3d1508d0	0.036385357
36	0x3debf900	0.11522102
37	0x3eb1979c	0.3468598
38	0x3e6284f4	0.2212103
39	0x3dd77518	0.10520381
40	0x3f14171c	0.5784776
41	0x3d59ff40	0.05322194
42	0x3f0c7a73	0.5487434
43	0x3ebc37e6	0.36761397
44	0x3f4bdcf2	0.7963401
45	0x3e9e2972	0.30890995
46	0x3e6f0710	0.23342538
47	0x3f21c639	0.6319309
48	0x3ea5af1e	0.32360166
49	0x3e65687c	0.22403139
50	0x3e7705a8	0.24123251
51	0x3e9a764c	0.30168378
52	0x3e8ff97e	0.28120035
53	0x3ebe1c9a	0.37131196
54	0x3f0465c5	0.5171779
55	0x3f5a5dc8	0.8529935
56	0x3d72c030	0.059265316
57	0x3e8e99b2	0.27851635
58	0x3eabf562	0.3358565
59	0x3e8877cb	0.26653895
60	0x3f6476a2	0.8924352
61	0x3c794840	0.01521498
62	0x3f4ba412	0.79547226
63	0x3e03c40c	0.12867755
64	0x3e81ea73	0.25374183
65	0x3f4470e9	0.7673479
66	0x3e09a998	0.13443601
67	0x3f67d3b5	0.90557414
68	0x3f014610	0.5049753
69	0x3f2c1e73	0.6723396
70	0x3ecdb586	0.40177554
71	0x3ecfcdae	0.4058661
72	0x3eb5be6a	0.35496837
73	0x3f32b302	0.69804394
74	0x3f553ef7	0.832992
75	0x3f545b00	0.82951355
76	0x3e50ce88	0.20391285
77	0x3cc57840	0.024105191
78	0x3f680387	0.9063038
79	0x3f1b244c	0.6060226
80	0x3e105476	0.1409472
81	0x3f2a2f46	0.66478384
82	0x3e7520f0	0.23938346
83	0x3ee7d17c	0.4527701
84	0x3efb85f2	0.4912563
85	0x3f2e9786	0.68199956
86	0x3f0adfc3	0.54247683
87	0x3f6592b8	0.89677
88	0x3c53c880	0.012926221
89	0x3f315729	0.6927362
90	0x3f4fa06a	0.8110415
91	0x3f40dc02	0.75335705
92	0x3f098ad5	0.53727466
93	0x3eff4dd4	0.49864066
94	0x3d364120	0.0444957
95	0x3f149529	0.580401
96	0x3f0b0e71	0.5431891
97	0x3eb7b591	0.35880712
98	0x3f65273f	0.8951301
99	0x3ea464a8	0.32108045
100	0x3eac247c	0.33621585
101	0x3f71c5b4	0.94442296
102	0x3f5c197a	0.85976374
103	0x3f26b01e	0.65112484
104	0x3f5a314c	0.8523147
105	0x3e9f4c0e	0.31112713
106	0x3ee0fbd6	0.43942136
107	0x3e226e70	0.15862441
108	0x3e8b60b4	0.27222216
109	0x3f03a334	0.51420903
110	0x3e3b610c	0.18298739
111	0x3e0d3056	0.1378797
112	0x3ef24dcc	0.4732498
113	0x3e559f1c	0.20861477
114	0x3ea26e52	0.31724793
115	0x3ae8e200	0.0017767549
116	0x3ea82a50	0.32844782
117	0x3f4f113f	0.8088569
118	0x3f5456a6	0.82944715
119	0x3dd0ed70	0.102015376
120	0x3f1203e8	0.5703721
121	0x3f34b729	0.7059198
122	0x3f3e1bac	0.74260974
123	0x3f343f46	0.7040905
124	0x3e1b4938	0.1516465
125	0x3efa1cbe	0.48850054
126	0x3f2c82d9	0.6738716
127	0x3eb3e6d4	0.35137045
128	0x3eb75765	0.35808864
129	0x3eb397fc	0.35076892
130	0x3e975f18	0.29564738
131	0x3e1376f0	0.1440084
132	0x3f58388a	0.8446127
133	0x3f459515	0.77180606
134	0x3ec1ca94	0.37849867
135	0x3f7dd38c	0.9915092
136	0x3f144a07	0.57925457
137	0x3d7a9020	0.061172605
138	0x3f34a986	0.7057117
139	0x3ec71438	0.38882613
140	0x3f5331ac	0.8249767
141	0x3f00c44e	0.5029954
142	0x3e05a760	0.1305213
143	0x3f5489d0	0.83022785
144	0x3f66c1b0	0.90139294
145	0x3d7c9940	0.061669588
146	0x3edd3c41	0.43210033
147	0x3f7400aa	0.95313513
148	0x3f07c77a	0.5303875
149	0x3ecfed12	0.40610558
150	0x3f2633d1	0.64922816
151	0x3f641534	0.89094853
152	0x3a558400	0.00081449747
153	0x3ea8ee82	0.32994467
154	0x3f662584	0.89900994
155	0x3f0822b0	0.5317793
156	0x3e25d4c4	0.16194445
157	0x3e9a40c8	0.3012755
158	0x3e6d4680	0.23171425
159	0x3f306b47	0.6891369
160	0x3f39ee5a	0.7262932
161	0x3f7f1788	0.9964528
162	0x3f67739c	0.9041078
163	0x3efab776	0.48968095
164	0x3f1195ba	0.5686909
165	0x3f5500be	0.8320426
166	0x3f020a16	0.5079664
167	0x3e62ba54	0.22141391
168	0x3e8c12ba	0.27358037
169	0x3f5cd2d1	0.8625918
170	0x3ee733ac	0.4515661
171	0x3f433a75	0.76261073
172	0x3ef2a04c	0.47387922
173	0x3f789f90	0.97118473
174	0x3e46c760	0.19411993
175	0x3e24c270	0.16089797
176	0x3d179910	0.037011206
177	0x3eb44854	0.35211432
178	0x3f392214	0.72317624
179	0x3f6fa0af	0.9360456
180	0x3eff0e79	0.4981573
181	0x3f583aaf	0.84464544
182	0x3ea025e2	0.31278902
183	0x3ed0f1ba	0.40809423
184	0x3f5042a8	0.8135171
185	0x3e27cdfc	0.1638717
186	0x3ec543f9	0.38528422
187	0x3efe69b0	0.49690008
188	0x3ee240de	0.44190115
189	0x3e4c489c	0.19949573
190	0x3d3bc360	0.04584062
191	0x3f62bfd8	0.8857398
192	0x3f347cb3	0.70502776
193	0x3f23be77	0.639625
194	0x3ec0f9f0	0.37690687
195	0x3da571b0	0.08078325
196	0x3e15bc20	0.14622545
197	0x3f510b2e	0.81657684
198	0x3f56e76e	0.83946884
199	0x3f754f55	0.95824176

l6.bias f4 [10]
0	0x3f719a76	0.94376314
1	0x3d9ece60	0.07754207
2	0x3f358449	0.70904976
3	0x3efd5e46	0.49485987
4	0x3e493e20	0.19652605
5	0x3f00d5c6	0.5032619
6	0x3e8c58fd	0.27411643
7	0x3ee95d00	0.45578766
8	0x3f4fd900	0.8119049
9	0x3de97c90	0.114007115

l6.weight f4 [10, 20]
0	0x3f1df46b	0.6170108
1	0x3f0be481	0.54645544
2	0x3f3a6c18	0.7282119
3	0x3e620074	0.22070485
4	0x3f5c36b9	0.86021
5	0x3ed572a2	0.4168902
6	0x3f5fb8cb	0.87391347
7	0x3f5f302e	0.8718289
8	0x3eca11f0	0.3946681
9	0x3f490f91	0.7853938
10	0x3f18391e	0.59462154
11	0x3f1f57de	0.6224345
12	0x3f489cea	0.7836443
13	0x3f279662	0.6546384
14	0x3cc8e1a0	0.024521649
15	0x3f6e1f4c	0.93016505
16	0x3e86ae74	0.26304972
17	0x3d85b558	0.06528729
18	0x3e8b113a	0.2716158
19	0x3d7521a0	0.05984652
20	0x3f26d69a	0.65171206
21	0x3f06a240	0.52591324
22	0x3f3a5660	0.7278805
23	0x3f38404f	0.7197313
24	0x3f214769	0.6299959
25	0x3f23c43f	0.6397132
26	0x3f611710	0.87925816
27	0x3f79371f	0.97349733
28	0x3edb6174	0.42847788
29	0x3e888416	0.26663274
30	0x3c94f720	0.018184245
31	0x3e7e7d28	0.24852431
32	0x3e01fb80	0.12693596
33	0x3f693ac7	0.9110531
34	0x3f55214e	0.83253944
35	0x3e06f6e8	0.13180125
36	0x3eac37f2	0.33636433
37	0x3f18e99d	0.59731466
38	0x3f15799e	0.583887
39	0x3c93d060	0.018043697
40	0x3ebed662	0.37272936
41	0x3ebb1f18	0.3654716
42	0x3e2ed910	0.1707499
43	0x3ecf3bfc	0.40475452
44	0x3f0ba664	0.54550767
45	0x3d98eb70	0.07466781
46	0x3f290ea3	0.6603796
47	0x3dc85d68	0.09783441
48	0x3f46de6b	0.7768313
49	0x3f1165c8	0.5679593
50	0x3eead9b2	0.45869213
51	0x3e90dbc4	0.28292668
52	0x3f03a846	0.5142864
53	0x3e317272	0.17328814
54	0x3f0249aa	0.5089365
55	0x3f55714f	0.8337602
56	0x3f568286	0.8379291
57	0x3f36b017	0.7136244
58	0x3f436572	0.7632667
59	0x3f199423	0.59991664
60	0x3df8ed58	0.12154645
61	0x3edc4a28	0.43025327
62	0x3e68c0d5	0.2272981
63	0x3e3e00e0	0.18555021
64	0x3f3e6002	0.74365246
65	0x3f08ae22	0.53390706
66	0x3e423e7c	0.18969148
67	0x3f5466ee	0.8296956
68	0x3ecbadd8	0.3978107
69	0x3e883a6e	0.26607078
70	0x3f037d82	0.51363385
71	0x3edd2fbe	0.43200487
72	0x3f3eebf9	0.74578816
73	0x3f573770	0.84068966
74	0x3f28b705	0.65904266
75	0x3f32a474	0.69782186
76	0x3e8efa8a	0.2792552
77	0x3ec183d2	0.37795883
78	0x3ed851fe	0.42250055
79	0x3ecfa5d2	0.40556198
80	0x3f0330ed	0.5124653
81	0x3f374fa4	0.71605897
82	0x3f168ace	0.5880555
83	0x3f0c90d4	0.5490849
84	0x3f029ea7	0.51023334
85	0x3e6d9ce8	0.23204386
86	0x3eec91e6	0.46205062
87	0x3f2f7917	0.68544143
88	0x3f56cfcb	0.83910817
89	0x3f467583	0.7752306
90	0x3e6da368	0.23206866
91	0x3f541c25	0.82855445
92	0x3e2692d8	0.16266954
93	0x3e53fdf8	0.2070235
94	0x3f0b7a8b	0.5448386
95	0x3f504888	0.81360674
96	0x3f67ff0e	0.9062356
97	0x3ed0beac	0.4077047
98	0x3f70c129	0.9404474
99	0x3f3d29bd	0.7389181
100	0x3ef5224c	0.4787773
101	0x3d6351f0	0.055498064
102	0x3f168d4d	0.5880936
103	0x3f2deb01	0.6793671
104	0x3f76737d	0.9626997
105	0x3e871bc6	0.26388377
106	0x3ecb2646	0.39677638
107	0x3e903c9c	0.2817124
108	0x3f4c8f3f	0.79906076
109	0x3f277860	0.6541805
110	0x3f101149	0.56276375
111	0x3ee16e72	0.44029576
112	0x3e86048c	0.26175344
113	0x3e1a81d4	0.15088588
114	0x3e39b198	0.18134153
115	0x3ecb30fa	0.39685804
116	0x3f00cb7e	0.50310504
117	0x3f6356b2	0.8880416
118	0x3f5cbb2f	0.8622312
119	0x3f6904dd	0.91023046
120	0x3eba833c	0.3642825
121	0x3d5543e0	0.052066684
122	0x3ef887bd	0.4854106
123	0x3edba574	0.42899668
124	0x3ec3031c	0.3808831
125	0x3e9d0a00	0.30671692
126	0x3edf1ae0	0.43575191
127	0x3e5892fc	0.2114982
128	0x3f2a36e5	0.6649001
129	0x3ecd04c2	0.40042692
130	0x3eadc0e8	0.33936238
131	0x3f4103ed	0.75396615
132	0x3f7b2b94	0.9811337
133	0x3f127d1b	0.57222146
134	0x3e191be4	0.14952046
135	0x3e38e9c4	0.18057925
136	0x3d9d44c0	0.07679129
137	0x3ed682ee	0.41896766
138	0x3d33bd50	0.043881714
139	0x3f489f49	0.7836805
140	0x3e6b313c	0.22968
141	0x3f3eadee	0.74484146
142	0x3e62f350	0.22163129
143	0x3f29712a	0.661883
144	0x3eefb0b8	0.46814513
145	0x3f0b5a96	0.544351
146	0x3f14d75b	0.58141106
147	0x3ed23ba0	0.41061115
148	0x3dd38598	0.10328215
149	0x3ebc641c	0.36795127
150	0x3eb74fae	0.35802978
151	0x3e574534	0.21022493
152	0x3dda37b8	0.10655159
153	0x3eca5e4a	0.39525062
154	0x3eb8f256	0.36122388
155	0x3e9e8be4	0.30966103
156	0x3e851125	0.25989643
157	0x3f29d0a2	0.66333973
158	0x3f193f84	0.5986254
159	0x3e9b616e	0.3034777
160	0x3ef13eb6	0.47118157
161	0x3f7a8362	0.97856724
162	0x3eed2904	0.46320355
163	0x3f1ed10b	0.62037724
164	0x3f36b72e	0.7137326
165	0x3e9c1075	0.30481306
166	0x3dbc4d20	0.09194398
167	0x3e0ed990	0.13950181
168	0x3f45310e	0.77027977
169	0x3f569ca4	0.83832765
170	0x3df557ed	0.11979661
171	0x3e82ccc2	0.25546843
172	0x3f005498	0.5012908
173	0x3de83c18	0.11339587
174	0x3f27aa18	0.6549392
175	0x3eb93200	0.3617096
176	0x3d55e9e0	0.052224994
177	0x3f16da7f	0.5892715
178	0x3f1e8578	0.6192241
179	0x3f48c6cf	0.7842836
180	0x3e9c8d70	0.30576658
181	0x3e85d0a0	0.2613573
182	0x3d085160	0.03328073
183	0x3ec11adc	0.37715805
184	0x3f09caae	0.5382489
185	0x3f557db5	0.8339494
186	0x3f217937	0.63075584
187	0x3edea72e	0.43486923
188	0x3e8b0c7e	0.27157968
189	0x3f71d548	0.94466066
190	0x3eff2e38	0.4983995
191	0x3f23e9d6	0.6402868
192	0x3e9fcce2	0.31211
193	0x3f331608	0.6995549
194	0x3eb969d9	0.36213568
195	0x3c2e2bc0	0.010630548
196	0x3f614922	0.88002217
197	0x3cafcfe0	0.021461427
198	0x3db01300	0.08597374
199	0x3f7a2979	0.9771953

l5.bias f4 [20]
0	0x3f519bd1	0.8187838
1	0x3e538666	0.20656738
2	0x3e6dcca0	0.2322259
3	0x3e6ed100	0.23321915
4	0x3f11c252	0.56937134
5	0x3f271a95	0.65274936
6	0x3c7ee040	0.015556395
7	0x3efd5354	0.49477637
8	0x3f618463	0.8809263
9	0x3e46ce75	0.19414695
10	0x3f49c462	0.7881528
11	0x3e710370	0.23536468
12	0x3f2b0972	0.6681129
13	0x3f27935e	0.6545924
14	0x3f1b8519	0.60749966
15	0x3f6aaf23	0.9167349
16	0x3f34f1c9	0.70681435
17	0x3f4612fd	0.77372724
18	0x3f6870d8	0.90797186
19	0x3f2dd627	0.67904896

l5.weight f4 [20, 10]
0	0x3f2b6c43	0.6696207
1	0x3f52ff14	0.8242047
2	0x3e228248	0.15870011
3	0x3a8bd600	0.0010668635
4	0x3f3e824c	0.7441757
5	0x3eb2e1d2	0.34937912
6	0x3ea19efc	0.31566608
7	0x3e96dc94	0.29465163
8	0x3f1ce8fc	0.61293006
9	0x3f31184b	0.69177693
10	0x3f5a8715	0.8536237
11	0x3f446676	0.76718843
12	0x3f18c9b8	0.596828
13	0x3ea2ab0e	0.3177113
14	0x3eb3f7ce	0.35149997
15	0x3ed2e6ca	0.41191703
16	0x3ecaba96	0.3959548
17	0x3e4f9762	0.20272592
18	0x3eb2d3d0	0.34927225
19	0x3da1c220	0.078983545
20	0x3eb8c68a	0.36088973
21	0x3d2c2410	0.04202658
22	0x3e1896a5	0.14901216
23	0x3eb6a7e8	0.35674977
24	0x3f55eb26	0.83561933
25	0x3f6de901	0.9293366
26	0x3f3cee95	0.7380155
27	0x3ec48333	0.38381347
28	0x3f004646	0.5010723
29	0x3f475626	0.7786583
30	0x3e052c80	0.13005257
31	0x3ec70dfe	0.38877863
32	0x3f0f8ff1	0.5607901
33	0x3f30ccb7	0.6906237
34	0x3f414c82	0.75507367
35	0x3d7c53fd	0.061603535
36	0x3d319510	0.043355048
37	0x3e8a8460	0.2705412
38	0x3e298368	0.16554034
39	0x3f274b75	0.65349513
40	0x3f71fdd8	0.9452796
41	0x3df94cd0	0.12172854
42	0x3e9d90ce	0.3077454
43	0x3f7fac83	0.99872607
44	0x3ed04b64	0.40682518
45	0x3d89ce80	0.0672884
46	0x3ea7b164	0.32752526
47	0x3d30ca20	0.04316151
48	0x3f3a72f0	0.7283163
49	0x3ee0838c	0.43850362
50	0x3f460312	0.77348435
51	0x3e7646b0	0.24050403
52	0x3e8fa27e	0.2805366
53	0x3f4dbff8	0.80371046
54	0x3e6a82fc	0.22901529
55	0x3f3e6ad0	0.7438173
56	0x3f262c38	0.6491122
57	0x3f462ef8	0.7741542
58	0x3e038e54	0.12847263
59	0x3f15a074	0.5844796
60	0x3ee4afae	0.44665283
61	0x3f54e133	0.83156127
62	0x3e760d10	0.2402842
63	0x3d086980	0.033303738
64	0x3bed4800	0.007241249
65	0x3f654189	0.89553124
66	0x3f4f4be3	0.8097517
67	0x3f662fa9	0.89916474
68	0x3ec495ff	0.38395688
69	0x3f37db42	0.71818936
70	0x3e876eba	0.26451665
71	0x3eb6bf26	0.3569271
72	0x3f13285b	0.5748345
73	0x3d51fa00	0.05126381
74	0x3f6cef05	0.92552215
75	0x3f085e6f	0.53269094
76	0x3f438c79	0.7638622
77	0x3f1de345	0.6167491
78	0x3ee18018	0.4404304
79	0x3f1e9361	0.6194363
80	0x3c8536e0	0.016261518
81	0x3ed7e1f0	0.42164564
82	0x3e7627a6	0.24038562
83	0x3d769a10	0.06020552
84	0x3f10d041	0.5656777
85	0x3e649848	0.22323716
86	0x3f06bd88	0.5263295
87	0x3eba964e	0.36442798
88	0x3d909b20	0.07060838
89	0x3f7e6b50	0.99382496
90	0x3f06a9da	0.5260292
91	0x3eefe640	0.46855354
92	0x3f792243	0.97317904
93	0x3e8e0e4a	0.27745277
94	0x3f46ab9b	0.776056
95	0x3f11ebf4	0.5700066
96	0x3f08c131	0.53419787
97	0x3ec3bbdc	0.38229263
98	0x3f20d6c0	0.6282768
99	0x3e763e40	0.24047184
100	0x3e47a9cc	0.19498366
101	0x3ea813c4	0.3282758
102	0x3e47db14	0.19517165
103	0x3f24dc64	0.6439879
104	0x3f00dffe	0.50341785
105	0x3db7fa68	0.08983308
106	0x3ef79d66	0.48362273
107	0x3e89fcca	0.26950675
108	0x3f430b0d	0.7618874
109	0x3f6ab43b	0.9168126
110	0x3e022318	0.127087
111	0x3ca50240	0.020142674
112	0x3f16cad6	0.58903253
113	0x3f339ee7	0.7016434
114	0x3f433ed7	0.7626776
115	0x3f4380bc	0.7636831
116	0x3e2f7516	0.17134508
117	0x3f5fb8c3	0.873913
118	0x3f44bfc1	0.76855093
119	0x3f1fd1b6	0.6242937
120	0x3ee6b5fe	0.45060724
121	0x3f5c90a3	0.861582
122	0x3e8f9567	0.28043672
123	0x3f41048f	0.7539758
124	0x3ee9bc1a	0.45651323
125	0x3ecb7daa	0.39744312
126	0x3e7ef50c	0.24898165
127	0x3eea7e68	0.45799565
128	0x3f0214fe	0.5081328
129	0x3d945708	0.072431624
130	0x3e60f7bc	0.21969503
131	0x3f14dc22	0.58148396
132	0x3ea905b6	0.3301217
133	0x3f57c782	0.842888
134	0x3e7ae088	0.24499714
135	0x3f740eef	0.95335287
136	0x3f2154f4	0.63020253
137	0x3d9e8980	0.0774107
138	0x3ec3f5a0	0.38273335
139	0x3e97079a	0.29497987
140	0x3e937730	0.2880187
141	0x3f50fa54	0.8163197
142	0x3de7ea48	0.113239825
143	0x3eb5d0b7	0.355108
144	0x3e8799ca	0.2648452
145	0x3eff50b0	0.49866247
146	0x3d3d5490	0.046223223
147	0x3f0af93b	0.54286546
148	0x3f2d1063	0.6760313
149	0x3f08f5bc	0.5349996
150	0x3f37e932	0.718402
151	0x3dd7b338	0.1053223
152	0x3f32ece2	0.69892704
153	0x3dac9160	0.084261656
154	0x3f0c55d8	0.5481849
155	0x3f4873be	0.7830161
156	0x3e19d3c0	0.15022182
157	0x3f394d6f	0.7238378
158	0x3f3c0fd5	0.7346166
159	0x3efe9294	0.49721205
160	0x3f4bc1f7	0.7959284
161	0x3f1c5d76	0.6108011
162	0x3f29653b	0.6617009
163	0x3e83aae8	0.2571633
164	0x3f581a32	0.8441497
165	0x3f009d05	0.5023959
166	0x3f1a8478	0.6035838
167	0x3f1254fe	0.5716094
168	0x3ecf4af6	0.40486878
169	0x3d8c0bf0	0.068382144
170	0x3f7b3390	0.98125553
171	0x3ead512c	0.33850992
172	0x3f1b90be	0.60767734
173	0x3f5f81c5	0.8730739
174	0x3ee7306c	0.4515413
175	0x3f08f3ec	0.53497195
176	0x3f0901cc	0.53518367
177	0x3dcc49e0	0.09975028
178	0x3eb12310	0.34597063
179	0x3f513ced	0.8173359
180	0x3ef6d7d0	0.48211527
181	0x3e811d56	0.25217694
182	0x3e6df70d	0.23238774
183	0x3f706c6d	0.93915445
184	0x3f588de0	0.84591484
185	0x3f39940c	0.72491527
186	0x3f0d6c21	0.55243117
187	0x3f2d023c	0.67581534
188	0x3eee25f4	0.4651333
189	0x3e349140	0.17633533
190	0x3eb8a490	0.3606305
191	0x3f694472	0.91120064
192	0x3f535dbe	0.82564914
193	0x3c684440	0.014176428
194	0x3d7f3800	0.062309265
195	0x3f68ad88	0.9088979
196	0x3f5e9e35	0.86960155
197	0x3eaa3cd8	0.33249545
198	0x3ea3e798	0.3201263
199	0x3f6981be	0.91213596

l4.bias f4 [10]
0	0x3f2da7e7	0.67834324
1	0x3f670b0f	0.9025125
2	0x3f07e434	0.53082585
3	0x3ec7c19e	0.39014906
4	0x3f27b5b9	0.6551166
5	0x3ecd51b8	0.4010141
6	0x3f349ecb	0.705548
7	0x3f7e904c	0.9943893
8	0x3f793e00	0.9736023
9	0x3efb9798	0.49139094

l4.weight f4 [10, 20]
0	0x3f694a24	0.91128755
1	0x3e30a954	0.17252094
2	0x3f63c2e8	0.8896928
3	0x3f7b6eee	0.9821614
4	0x3f611528	0.87922907
5	0x3ec54586	0.38529605
6	0x3f0a3df9	0.5400081
7	0x3ef99cb3	0.48752365
8	0x3ecaf0b8	0.3963678
9	0x3f1cbb0b	0.61222905
10	0x3f488246	0.7832378
11	0x3ea53c5e	0.3227262
12	0x3f407fdc	0.751951
13	0x3f4343bb	0.76275223
14	0x3eac31ca	0.33631736
15	0x3f1cbf0e	0.61229026
16	0x3eead8b6	0.45868462
17	0x3f0e2704	0.55528283
18	0x3e949dbc	0.29026592
19	0x3f13a736	0.5767702
20	0x3f0170d5	0.50562793
21	0x3eab7442	0.33487135
22	0x3f75b448	0.9597821
23	0x3f52fc89	0.8241659
24	0x3e9fab2e	0.31185287
25	0x3f17e67f	0.59336084
26	0x3eebe347	0.46071836
27	0x3efe3630	0.49650717
28	0x3f5c214d	0.8598831
29	0x3ec3d244	0.38246357
30	0x3f4f578b	0.80992955
31	0x3dbcb3a8	0.09213954
32	0x3f2a472e	0.6651486
33	0x3f4e4d8b	0.8058707
34	0x3f7fdeb1	0.99949175
35	0x3f2a6aea	0.6656939
36	0x3e7613e4	0.24031025
37	0x3f262668	0.64902353
38	0x3ed5da6e	0.4176821
39	0x3e1e0e50	0.15435147
40	0x3f2b59ef	0.669341
41	0x3f7b2340	0.9810066
42	0x3f577f35	0.8417848
43	0x3eb5ff46	0.3554632
44	0x3e5258b8	0.20541656
45	0x3f1773bd	0.5916098
46	0x3f328887	0.69739574
47	0x3f04af5c	0.5183008
48	0x3ea75660	0.32683086
49	0x3c45d100	0.012073755
50	0x3e842530	0.25809622
51	0x3e8536b0	0.26018286
52	0x3dfb5e00	0.122737885
53	0x3edd6907	0.43244192
54	0x3e71f890	0.23629975
55	0x3ed4787c	0.41498172
56	0x3f5b5d61	0.8568936
57	0x3d1a1060	0.037613273
58	0x3dac97e8	0.08427411
59	0x3e78f448	0.24311936
60	0x3eaf740c	0.34268224
61	0x3f0233fe	0.50860584
62	0x3d694050	0.0569461
63	0x3e717bf0	0.23582435
64	0x3ea77464	0.32705986
65	0x3ebbd82e	0.3668837
66	0x3edaac74	0.42709696
67	0x3f2b0d68	0.6681733
68	0x3e95491e	0.29157346
69	0x3f006818	0.50158834
70	0x3e801e5c	0.25023162
71	0x3ea088f0	0.31354475
72	0x3f21049a	0.62897646
73	0x3d8b4808	0.06800848
74	0x3f5d2cb8	0.8639636
75	0x3f6827aa	0.9068552
76	0x3f286030	0.6577177
77	0x3e9fd0d4	0.3121401
78	0x3f62adf7	0.885467
79	0x3ed3e49f	0.41385362
80	0x3e83ffaa	0.25780994
81	0x3e618300	0.22022629
82	0x3f1c11a8	0.6096444
83	0x3e12ab34	0.14323121
84	0x3e9b1f84	0.30297482
85	0x3f185248	0.5950055
86	0x3e15d3d0	0.14631581
87	0x3f48e4bc	0.7847402
88	0x3e296500	0.16542435
89	0x3e850639	0.2598131
90	0x3e5056dc	0.20345634
91	0x3eef92be	0.46791643
92	0x3f4abbad	0.7919262
93	0x3f366d2b	0.7126033
94	0x3ef76fa6	0.48327368
95	0x3dd75710	0.10514653
96	0x3f1c7bad	0.61126214
97	0x3f09de74	0.5385506
98	0x3e96d504	0.29459393
99	0x3eae6235	0.340593
100	0x3f40a9d5	0.75259143
101	0x3eb157fc	0.3463744
102	0x3eb18cee	0.34677833
103	0x3f2c18b7	0.6722521
104	0x3f5867a2	0.8453313
105	0x3e6d056c	0.231466
106	0x3f561291	0.8362208
107	0x3ebafa5c	0.36519134
108	0x3f2f7583	0.68538684
109	0x3e25b528	0.16182387
110	0x3edbaefc	0.4290694
111	0x3f0441b0	0.5166273
112	0x3eb58728	0.3545468
113	0x3f2828ff	0.65687555
114	0x3f0de459	0.55426556
115	0x3e94859a	0.2900818
116	0x3f0983de	0.5371684
117	0x3ed5c3e0	0.41751003
118	0x3f1721be	0.5903586
119	0x3e8d9ac6	0.27657145
120	0x3f6e7816	0.93151987
121	0x3e9f7f18	0.31151652
122	0x3e1bb1fa	0.15204611
123	0x3f5c84fd	0.86140424
124	0x3f4d84d4	0.80280805
125	0x3f3d6d58	0.7399497
126	0x3e568f14	0.20953017
127	0x3f5a7a01	0.85342413
128	0x3ee63588	0.44962716
129	0x3ebda650	0.3704095
130	0x3ebb6858	0.36603045
131	0x3e54caf4	0.20780545
132	0x3f035b6e	0.51311386
133	0x3e90a41a	0.282502
134	0x3eb707fc	0.3574828
135	0x3e786844	0.24258524
136	0x3f0e2870	0.5553045
137	0x3e4dd8ad	0.20102187
138	0x3f413e39	0.7548557
139	0x3f7533c9	0.9578214
140	0x3f44c808	0.76867723
141	0x3f64585c	0.89197326
142	0x3ea2e3d4	0.31814444
143	0x3eb970a8	0.36218762
144	0x3c97f400	0.018548965
145	0x3f0b553f	0.5442695
146	0x3f34e824	0.7066672
147	0x3e6e9360	0.23298407
148	0x3e923546	0.2855627
149	0x3f287e9d	0.65818197
150	0x3e8704ee	0.2637095
151	0x3eb6714e	0.3563332
152	0x3f48d664	0.78452134
153	0x3d2f0480	0.0427289
154	0x3d69a000	0.057037354
155	0x3f3639d3	0.7118198
156	0x3f185e83	0.59519213
157	0x3eb45e03	0.35227975
158	0x3f3a475f	0.72765154
159	0x3e9a9d28	0.30198026
160	0x3f01b7f9	0.50671345
161	0x3d349740	0.044089556
162	0x3e47f494	0.19526893
163	0x3f2cc5fc	0.674896
164	0x3f44064e	0.7657212
165	0x3f5c799e	0.86123073
166	0x3cdd6240	0.027024388
167	0x3e764748	0.24050629
168	0x3dc6dde0	0.09710288
169	0x3bccb280	0.006246865
170	0x3e03f128	0.12884963
171	0x3f11cdef	0.56954855
172	0x3f3cba94	0.73722196
173	0x3f47b430	0.7800932
174	0x3f1de14b	0.61671895
175	0x3e845838	0.25848556
176	0x3f05ee2c	0.52316546
177	0x3e862856	0.2620265
178	0x3f0f3b10	0.559495
179	0x3ed678fa	0.41889173
180	0x3df12f08	0.117765486
181	0x3f0596c8	0.521832
182	0x3f2fcff7	0.68676704
183	0x3e92395c	0.28559387
184	0x3efc3bd3	0.49264392
185	0x3e22cf04	0.15899283
186	0x3f6ee4c6	0.9331783
187	0x3f388990	0.72084904
188	0x3e574fb0	0.21026492
189	0x3f392a6a	0.72330344
190	0x3efcf74c	0.49407423
191	0x3f43ae59	0.7643791
192	0x3f1071f1	0.5642386
193	0x3e5b2cac	0.2140376
194	0x3e7cb98c	0.24680156
195	0x3e0bff58	0.13671625
196	0x3f4cd165	0.8000701
197	0x3f6d36b8	0.9266162
198	0x3ea091e4	0.31361306
199	0x3f47fb11	0.7811747

l3.bias f4 [20]
0	0x3f73e075	0.9526437
1	0x3e856034	0.2604996
2	0x3eabf95a	0.33588678
3	0x3e23465c	0.15944809
4	0x3f7b1a97	0.9808745
5	0x3f2c23d2	0.6724216
6	0x3d942c70	0.07235038
7	0x3e6192b8	0.22028625
8	0x3f3f8068	0.7480531
9	0x3ef2f6cd	0.4745392
10	0x3ed97b70	0.42476988
11	0x3f405ece	0.7514466
12	0x3ee26dc0	0.44224358
13	0x3ebdf780	0.3710289
14	0x3e879102	0.2647782
15	0x3de963f0	0.11396015
16	0x3ea44c94	0.32089674
17	0x3f6d1915	0.926164
18	0x3ee8bd92	0.4545713
19	0x3bdc8380	0.006729543

l3.weight f4 [20, 10]
0	0x3f00f5b1	0.50374895
1	0x3f5b2c5f	0.8561458
2	0x3e24fa4c	0.16111106
3	0x3d4f5da0	0.050626397
4	0x3e3110d4	0.17291576
5	0x3f086985	0.5328601
6	0x3f7a5e0e	0.97799766
7	0x3e38e9a8	0.18057883
8	0x3e87444e	0.264193
9	0x3ebaf900	0.36518097
10	0x3e73d8a4	0.2381311
11	0x3f7fc932	0.99916375
12	0x3d27d6b0	0.040976226
13	0x3f6bcf1f	0.92112917
14	0x3e8822b8	0.26588988
15	0x3f788011	0.97070414
16	0x3d50afd0	0.050948918
17	0x3e916bf8	0.28402686
18	0x3f3bace8	0.7331071
19	0x3f06107e	0.52368915
20	0x3c3340c0	0.010940731
21	0x3f65c741	0.8975716
22	0x3f1ffcd9	0.6249519
23	0x3e710d54	0.2354024
24	0x3f03d761	0.5150052
25	0x3f7ed928	0.99550104
26	0x3dfa9130	0.122347236
27	0x3f368e37	0.7131075
28	0x3eb61a04	0.35566723
29	0x3f3c065a	0.7344719
30	0x3ecdf73a	0.4022768
31	0x3ed552e6	0.4166481
32	0x3f273ec3	0.6533014
33	0x3f6e10e4	0.92994523
34	0x3eb9effa	0.363159
35	0x3db2b280	0.087254524
36	0x3efac252	0.4897638
37	0x3e8a2248	0.2697928
38	0x3f5e6c11	0.86883646
39	0x3e8a14c3	0.26968965
40	0x3eb5b6aa	0.35490924
41	0x3f1a9ecf	0.6039857
42	0x3f0430df	0.5163707
43	0x3dc5aae8	0.096517384
44	0x3effe1a8	0.4997685
45	0x3f1624fd	0.5865019
46	0x3eabd9c4	0.3356458
47	0x3f01691c	0.5055101
48	0x3f2e8c0a	0.6818243
49	0x3ec5d3f2	0.38638264
50	0x3f18dfaa	0.59716284
51	0x3f2b2d99	0.6686645
52	0x3ef3411a	0.47510606
53	0x3db1feb8	0.08691162
54	0x3f0c6d85	0.54854614
55	0x3f1ec3a1	0.62017256
56	0x3e284564	0.1643272
57	0x3f068a13	0.52554435
58	0x3ee36446	0.4441244
59	0x3e9d8fca	0.30773765
60	0x3e60d1d3	0.21955042
61	0x3dde0098	0.10839957
62	0x3f30ad16	0.6901411
63	0x3f2c591c	0.6732347
64	0x3d89f5b6	0.06736319
65	0x3ee588ee	0.44831032
66	0x3f4dc1a7	0.80373615
67	0x3f51374d	0.8172501
68	0x3f45e923	0.77308863
69	0x3f4dd9c7	0.80410427
70	0x3edd4cc0	0.43222618
71	0x3ec162e0	0.37770748
72	0x3f3f3349	0.7468763
73	0x3f0c0c89	0.5470663
74	0x3f78e332	0.9722167
75	0x3df19e68	0.11797792
76	0x3d831138	0.063997686
77	0x3f6a0699	0.9141632
78	0x3f6f1999	0.93398434
79	0x3ea78be0	0.32723904
80	0x3f0bd2ef	0.54618734
81	0x3f17e566	0.5933441
82	0x3f62aeea	0.8854815
83	0x3f09cf28	0.5383172
84	0x3f5c7bca	0.8612639
85	0x3eba2528	0.36356473
86	0x3ea2c3d0	0.31790018
87	0x3c4953c0	0.012288034
88	0x3f575d08	0.8412633
89	0x3f620f74	0.8830483
90	0x3e546620	0.20742083
91	0x3f34f6e4	0.70689225
92	0x3ebf8afc	0.37410724
93	0x3f5f53e1	0.87237364
94	0x3d487e30	0.048948467
95	0x3f1525c0	0.58260727
96	0x3e8f5542	0.27994734
97	0x3d71af30	0.059004962
98	0x3e8115d8	0.25211978
99	0x3f6f5497	0.9348845
100	0x3ed858ec	0.42255342
101	0x3f081123	0.5315115
102	0x3f379799	0.71715695
103	0x3f3c314b	0.73512715
104	0x3f6dd011	0.9289561
105	0x3ed763f2	0.4206844
106	0x3f3ab2dc	0.7292917
107	0x3cd54b80	0.026036978
108	0x3f16a7d8	0.5884986
109	0x3ebf0f34	0.37316287
110	0x3e8f67fc	0.2800902
111	0x3f06f13c	0.52711844
112	0x3c924820	0.017856658
113	0x3f199b36	0.6000246
114	0x3f5fa0f1	0.8735495
115	0x3ebbd12a	0.36683017
116	0x3f0cee5f	0.55051225
117	0x3caa6ba0	0.020803273
118	0x3f194d61	0.59883696
119	0x3ec2deb0	0.38060522
120	0x3efdec56	0.49594373
121	0x3d273f90	0.040832102
122	0x3e96f2f2	0.29482228
123	0x3f38c84d	0.72180635
124	0x3ed696e8	0.41912007
125	0x3f537bd7	0.8261084
126	0x3cd9c3e0	0.026582658
127	0x3f04f36a	0.5193392
128	0x3f5346d8	0.82529974
129	0x3f25bb55	0.6473897
130	0x3f15e5a8	0.5855355
131	0x3efbbb64	0.49166405
132	0x3e71a0c9	0.23596491
133	0x3ed38050	0.41308832
134	0x3ea221a6	0.31666297
135	0x3f05ddb0	0.52291393
136	0x3d182c20	0.037151456
137	0x3efe21f7	0.49635288
138	0x3f497757	0.78697723
139	0x3f15a999	0.5846191
140	0x3ead70b8	0.3387506
141	0x3e24d2e0	0.16096067
142	0x3db29f20	0.08721757
143	0x3efd41c2	0.49464232
144	0x3edc4605	0.4302217
145	0x3efa5590	0.48893404
146	0x3f5b585e	0.8568171
147	0x3d2a06f0	0.041510522
148	0x3ee93e64	0.45555413
149	0x3f1bdc6d	0.6088322
150	0x3f7f5367	0.99736637
151	0x3f298dfd	0.6623228
152	0x3f4211f7	0.7580866
153	0x3f78b9b7	0.9715838
154	0x3eb4a7e8	0.35284352
155	0x3e1f463c	0.15554136
156	0x3ee988da	0.45612222
157	0x3de730bd	0.11288593
158	0x3f53902e	0.82641876
159	0x3f4c4ced	0.7980488
160	0x3f0f65be	0.5601462
161	0x3f17ab6e	0.59245956
162	0x3f0b5739	0.54429966
163	0x3e24c2a8	0.1608988
164	0x3f33b3c4	0.70196176
165	0x3ea84b08	0.32869744
166	0x3dfa41f0	0.12219608
167	0x3f4c919e	0.79909694
168	0x3f3b0f24	0.7306998
169	0x3cc0b840	0.023525357
170	0x3f0c9c6c	0.5492618
171	0x3f0fbeda	0.5615059
172	0x3f7d932d	0.990527
173	0x3f2dc37a	0.678764
174	0x3f2660bb	0.6499135
175	0x3f02b1d8	0.5105262
176	0x3f30fbb9	0.691341
177	0x3f239041	0.6389199
178	0x3ed8d9e0	0.42353725
179	0x3f1fc20a	0.62405455
180	0x3ed7966a	0.42106944
181	0x3f0e8317	0.5566878
182	0x3f058853	0.5216114
183	0x3ef16847	0.4714987
184	0x3dcc80d8	0.099855125
185	0x3f76e214	0.9643872
186	0x3f10b7b1	0.5653029
187	0x3ee2f72e	0.44329208
188	0x3f4886af	0.7833051
189	0x3eb05544	0.34440053
190	0x3f35c6c6	0.7100643
191	0x3de90018	0.11376971
192	0x3e3dec21	0.18547107
193	0x3eebba76	0.46040696
194	0x3f366fed	0.71264535
195	0x3ddc9648	0.107708514
196	0x3f2e54fe	0.6809844
197	0x3e92a968	0.28644872
198	0x3f04f245	0.51932174
199	0x3dfdb170	0.12387359

l2.bias f4 [10]
0	0x3ed81118	0.42200541
1	0x3f00d5db	0.5032632
2	0x3ea883e2	0.3291312
3	0x3ef18f86	0.47179812
4	0x3f2f3c80	0.6845169
5	0x3f13cd3a	0.57735026
6	0x3e764cc9	0.24052729
7	0x3f0afacc	0.54288936
8	0x3f0d01eb	0.5508105
9	0x3f738763	0.9512846

l2.weight f4 [10, 20]
0	0x3e9d4e6c	0.30723894
1	0x3e2ef5a6	0.17085895
2	0x3f110230	0.5664396
3	0x3edf7fbe	0.43652147
4	0x3f1d1d76	0.6137308
5	0x3f089c67	0.5336365
6	0x3ed0e89d	0.4080247
7	0x3f203c8e	0.625924
8	0x3e5d0d70	0.21587157
9	0x3e1938f0	0.14963126
10	0x3f405b0d	0.7513893
11	0x3e635b85	0.2220288
12	0x3d878e40	0.06618929
13	0x3f0c377c	0.5477216
14	0x3f43bbd7	0.76458496
15	0x3f3461d6	0.70461786
16	0x3f3eb738	0.7449832
17	0x3f414427	0.7549462
18	0x3eb983ac	0.3623327
19	0x3e68ae78	0.22722805
20	0x3eaca88a	0.33722335
21	0x3f1bea20	0.6090412
22	0x3e98b346	0.29824275
23	0x3f51d15b	0.81960076
24	0x3eedfaf2	0.4648052
25	0x3e8afb22	0.27144724
26	0x3d6d5350	0.05794078
27	0x3dfeb7f8	0.12437433
28	0x3eac01d8	0.33595157
29	0x3f22550c	0.6341102
30	0x3f319b4a	0.6937758
31	0x3f144353	0.5791523
32	0x3f3431f9	0.7038875
33	0x3f3a9416	0.7288221
34	0x3f0fcd7b	0.56172913
35	0x3e83fa8e	0.25777096
36	0x3e8af932	0.27143246
37	0x3f1b3ff0	0.60644436
38	0x3f4b7630	0.79477215
39	0x3ec09ab6	0.37618035
40	0x3f3efcc8	0.74604464
41	0x3e8aee92	0.2713514
42	0x3f0fe1e4	0.56204057
43	0x3f1ff6f1	0.6248618
44	0x3cac05a0	0.020998776
45	0x3f6ea952	0.9322711
46	0x3ea24f16	0.31700963
47	0x3e4042e0	0.18775511
48	0x3e6b76c8	0.2299453
49	0x3ef7caf4	0.48397028
50	0x3f2ff28a	0.6872946
51	0x3f2da2d2	0.6782657
52	0x3f343b04	0.7040255
53	0x3ea4f388	0.3221705
54	0x3e7f3dd4	0.2492593
55	0x3f0b922b	0.5451991
56	0x3f0b0b53	0.54314154
57	0x3ed27af4	0.4110943
58	0x3f1e5486	0.6184772
59	0x3f7c8ca3	0.98652095
60	0x3e9ddf9a	0.30834657
61	0x3f50c16a	0.81545126
62	0x3f6ad3ba	0.9172932
63	0x3ef0664c	0.46953046
64	0x3f101854	0.5628712
65	0x3efb70b2	0.49109417
66	0x3ee2dacc	0.44307554
67	0x3d7e2ba0	0.062053323
68	0x3ef84c0a	0.48495513
69	0x3f2bb2db	0.67069787
70	0x3efd1c78	0.49435782
71	0x3f1a8815	0.60363895
72	0x3f51544a	0.8176924
73	0x3eb6f51c	0.3573388
74	0x3f7670e5	0.96266013
75	0x3f62e82c	0.88635516
76	0x3ca78460	0.020448864
77	0x3f4c451d	0.7979296
78	0x3e038e08	0.1284715
79	0x3f7c2781	0.9849778
80	0x3f044802	0.51672375
81	0x3ed09340	0.40737343
82	0x3f403e2a	0.75094855
83	0x3ec8c46c	0.39212358
84	0x3ebcb884	0.36859524
85	0x3ed5bf06	0.41747302
86	0x3e76f278	0.24115932
87	0x3ca40600	0.020022392
88	0x3ee39542	0.44449812
89	0x3f1977a3	0.59948176
90	0x3f1cf70e	0.61314476
91	0x3f701c89	0.9379354
92	0x3eb22d81	0.34800342
93	0x3f7b7097	0.98218673
94	0x3ec7bab2	0.39009625
95	0x3ef05f40	0.4694767
96	0x3f67f3eb	0.90606564
97	0x3e1e1a40	0.15439701
98	0x3f2f7e89	0.6855245
99	0x3d93d170	0.072176814
100	0x3e48c328	0.19605696
101	0x3e60d1d4	0.21955043
102	0x3edea496	0.43484944
103	0x3f5d6295	0.8647855
104	0x3ed4681c	0.4148568
105	0x3e7c6014	0.24646026
106	0x3f107fcb	0.56444997
107	0x3f15909d	0.5842379
108	0x3f5587e7	0.83410496
109	0x3ee77ee8	0.4521401
110	0x3f0f4656	0.559667
111	0x3ea5253b	0.32254967
112	0x3f5c47e1	0.8604718
113	0x3f1e0bce	0.6173676
114	0x3ca246a0	0.019809067
115	0x3d9fea48	0.078083575
116	0x3ec4e444	0.38455403
117	0x3e68ed1f	0.22746705
118	0x3d8ed248	0.06973702
119	0x3f5e3c9d	0.8681124
120	0x3e5c0fb0	0.2149036
121	0x3e8ffb46	0.28121394
122	0x3f3c0c79	0.7345653
123	0x3d5a4e20	0.053297162
124	0x3e611304	0.2197991
125	0x3f67bec6	0.9052547
126	0x3e298454	0.16554385
127	0x3f42a072	0.7602607
128	0x3f372f50	0.7155657
129	0x3ed183dc	0.40920913
130	0x3f74969e	0.95542324
131	0x3ee06fee	0.43835396
132	0x3ef30ece	0.47472233
133	0x3f17b9e3	0.59268016
134	0x3efb44dc	0.49075973
135	0x3e815fc2	0.2526837
136	0x3f2cb8b7	0.6746935
137	0x3ec1654c	0.37772596
138	0x3f4eb6d1	0.80747706
139	0x3f549ecd	0.8305481
140	0x3f44779f	0.7674503
141	0x3eb01d2e	0.34397262
142	0x3d9178f8	0.07103151
143	0x3e67dde4	0.22643238
144	0x3e86ec8e	0.26352352
145	0x3b8ea680	0.0043533444
146	0x3e8c013c	0.27344692
147	0x3f237f92	0.6386653
148	0x3f21bc22	0.6317769
149	0x3f190205	0.59768707
150	0x3f31a668	0.6939454
151	0x3f1991fb	0.59988374
152	0x3ed4e290	0.41579103
153	0x3f0b812f	0.54493994
154	0x3f64fe98	0.8945098
155	0x3f79d83f	0.9759559
156	0x3f718b28	0.9435296
157	0x3f3da8bd	0.740856
158	0x3effa906	0.49933642
159	0x3f6b31c9	0.9187284
160	0x3f7409f8	0.9532771
161	0x3f1cdb73	0.6127235
162	0x3f476bcd	0.77898866
163	0x3f32d1d5	0.6985143
164	0x3e6ea4d4	0.23305064
165	0x3ef0e95c	0.4705304
166	0x3ec08bce	0.37606663
167	0x3ec06912	0.37580162
168	0x3e3aad64	0.18230206
169	0x3eb3b2ee	0.3509745
170	0x3f4ef694	0.80845
171	0x3e2dc9cc	0.1697151
172	0x3f02b66b	0.510596
173	0x3f51e0b4	0.81983495
174	0x3ea95c6c	0.33078325
175	0x3f2d97c7	0.6780972
176	0x3ec6bcdd	0.38815966
177	0x3eb097b6	0.34490746
178	0x3e0f1ee4	0.13976628
179	0x3f5fb73d	0.87388974
180	0x3f2584fd	0.6465605
181	0x3ecdfcde	0.40231985
182	0x3f06f108	0.52711535
183	0x3e6fe380	0.23426628
184	0x3f18b44f	0.5965013
185	0x3eb08ec6	0.34483927
186	0x3f1ac47f	0.6045608
187	0x3da2daf8	0.07951921
188	0x3f60d0b9	0.87818485
189	0x3f6ae564	0.9175627
190	0x3f3a5f13	0.7280132
191	0x3edb38cb	0.42816767
192	0x3f3b7610	0.73227024
193	0x3f0c312a	0.5476252
194	0x3f6e4867	0.9307923
195	0x3f7b0faf	0.98070806
196	0x3ed76d32	0.42075497
197	0x3e8cb846	0.2748434
198	0x3e678f1c	0.22613186
199	0x3f11d900	0.5697174

l1.bias f4 [20]
0	0x3f697d0a	0.9120642
1	0x3f2584f9	0.64656025
2	0x3f2233f3	0.6336052
3	0x3f095596	0.5364622
4	0x3ececc12	0.40390068
5	0x3f0a79bf	0.5409202
6	0x3ef5ef4c	0.48034132
7	0x3f0a129e	0.5393466
8	0x3f0c1066	0.5471252
9	0x3f072b3a	0.52800333
10	0x3e9bf20c	0.30458105
11	0x3e0f203c	0.1397714
12	0x3f163cf0	0.58686733
13	0x3e9f8551	0.311564
14	0x3f652a89	0.8951803
15	0x3f122a8e	0.57096183
16	0x3f5468d1	0.8297244
17	0x3f44e757	0.76915497
18	0x3dff2948	0.12459046
19	0x3cd95d60	0.026533782

l1.weight f4 [20, 10]
0	0x3f62ccb1	0.88593584
1	0x3d9c40e8	0.076295674
2	0x3e94211c	0.2893151
3	0x3f163d2c	0.5868709
4	0x3f6ff85e	0.93738353
5	0x3ec371c0	0.38172722
6	0x3f17ee06	0.5934757
7	0x3f0dfe8c	0.5546653
8	0x3f254f7d	0.64574414
9	0x3f3739f6	0.71572816
10	0x3f0367fa	0.5133053
11	0x3d63ef30	0.05564803
12	0x3d35d0d6	0.044388615
13	0x3ea7ecdc	0.32797897
14	0x3eca535c	0.39516723
15	0x3e732756	0.23745474
16	0x3f61bced	0.881789
17	0x3e56f9b4	0.20993692
18	0x3f5c6954	0.8609822
19	0x3dff1870	0.12455833
20	0x3f7a9c94	0.9789517
21	0x3e8cb0e6	0.27478713
22	0x3eba68ee	0.3640818
23	0x3ed3d32a	0.41372043
24	0x3d6eb2b0	0.05827588
25	0x3f146295	0.57962924
26	0x3f7a29ea	0.97720206
27	0x3f21816f	0.63088125
28	0x3ea3cbd8	0.31991458
29	0x3e938eb8	0.28819823
30	0x3ef224da	0.4729374
31	0x3ef83853	0.48480472
32	0x3ed398fa	0.4132765
33	0x3ec15b84	0.37765133
34	0x3edc54aa	0.43033344
35	0x3f0b7600	0.5447693
36	0x3e321dc8	0.17394173
37	0x3f2f2697	0.6841826
38	0x3f0e9a3b	0.55704087
39	0x3d6f2d50	0.058392823
40	0x3deff480	0.117165565
41	0x3ec94c9d	0.39316264
42	0x3f40f04c	0.75366664
43	0x3d843648	0.06455666
44	0x3f248298	0.6426177
45	0x3f5bbdb4	0.8583634
46	0x3f5d5700	0.86460876
47	0x3eecc15c	0.46241271
48	0x3de37130	0.11105573
49	0x3e156430	0.14589
50	0x3f3ec3fa	0.74517787
51	0x3ea10a80	0.31453323
52	0x3e248c40	0.16069126
53	0x3eb7bc1c	0.35885704
54	0x3f07da76	0.5306772
55	0x3f5cd53d	0.86262876
56	0x3f61e314	0.8823712
57	0x3eaec104	0.34131634
58	0x3e6d8cf8	0.23198307
59	0x3d792650	0.060827553
60	0x3f29f98b	0.663964
61	0x3ed56706	0.41680163
62	0x3f3bf540	0.73421097
63	0x3f3503ea	0.707091
64	0x3f07fdd1	0.5312167
65	0x3f4d3272	0.801551
66	0x3eb37f41	0.35058025
67	0x3f708089	0.9394613
68	0x3f5cb40d	0.86212236
69	0x3f55d80d	0.8353279
70	0x3e9d0b0e	0.30672497
71	0x3f15ac08	0.58465624
72	0x3f0f4122	0.5595876
73	0x3f711f2f	0.9418821
74	0x3eb2a32d	0.34890118
75	0x3e6b5654	0.2298215
76	0x3f64503e	0.8918494
77	0x3eae70e6	0.3407051
78	0x3f3cfba8	0.73821497
79	0x3e3b7c74	0.18309194
80	0x3f50e322	0.8159658
81	0x3f2debd2	0.6793796
82	0x3f0e0c7a	0.5548779
83	0x3ec7c187	0.39014837
84	0x3f5e14e2	0.86750615
85	0x3e89c82a	0.26910526
86	0x3ef10711	0.47075704
87	0x3c9cf400	0.019159317
88	0x3f243be5	0.6415389
89	0x3f23fcb7	0.6405749
90	0x3e9088a6	0.28229254
91	0x3f3d3705	0.7391208
92	0x3f3be31d	0.7339342
93	0x3e185cd0	0.14879155
94	0x3f35a3c0	0.7095299
95	0x3f5a3266	0.8523315
96	0x3e8eb0aa	0.2786916
97	0x3f43ad70	0.7643652
98	0x3f3d549f	0.73957247
99	0x3efde254	0.49586737
100	0x3e70f7c4	0.23532015
101	0x3f1051db	0.563749
102	0x3deb7818	0.114975154
103	0x3f7c0bf7	0.98455757
104	0x3ee89432	0.45425564
105	0x3a99ec00	0.0011743307
106	0x3f00bb33	0.50285643
107	0x3eeaed04	0.45883954
108	0x3f57bfb1	0.8427687
109	0x3f40247b	0.75055665
110	0x3f224b3a	0.63396037
111	0x3e6656ac	0.22494
112	0x3e3ce974	0.1844843
113	0x3cafe640	0.021472096
114	0x3e43f7a4	0.19137436
115	0x3ee06b3a	0.43831807
116	0x3e95a1ea	0.29225093
117	0x3eb56888	0.35431314
118	0x3ed47e6c	0.41502702
119	0x3c6dd680	0.014516473
120	0x3f444284	0.76663995
121	0x3e50896c	0.20364922
122	0x3f34e88d	0.70667344
123	0x3e00d334	0.12580568
124	0x3dc59d90	0.09649193
125	0x3e878227	0.26466486
126	0x3ee0b226	0.43885916
127	0x3e9dd2cc	0.30824888
128	0x3f50aca5	0.81513435
129	0x3f3f1726	0.74644697
130	0x3f4b036a	0.79302084
131	0x3f167eed	0.58787423
132	0x3d362144	0.04446532
133	0x3efee192	0.49781471
134	0x3f1bded3	0.6088688
135	0x3f349f75	0.7055581
136	0x3f3ed14e	0.74538124
137	0x3f1e20f9	0.6176906
138	0x3f5aa552	0.8540851
139	0x3f5b4215	0.8564771
140	0x3f2e2ffc	0.6804197
141	0x3f40b63e	0.7527808
142	0x3ef98c92	0.4874006
143	0x3f0f1413	0.55890006
144	0x3e24494c	0.16043586
145	0x3dad7448	0.084694445
146	0x3e071ef8	0.13195407
147	0x3e8f7e56	0.28026074
148	0x3e3e47ac	0.18582028
149	0x3f06be9d	0.526346
150	0x3f4d7104	0.80250573
151	0x3eb7e9c2	0.3592053
152	0x3eaf000e	0.3417973
153	0x3e4bfe3c	0.19921201
154	0x3f4be334	0.7964356
155	0x3f570761	0.83995634
156	0x3f0964ec	0.5366962
157	0x3d8ae938	0.06782764
158	0x3f2639d5	0.64931995
159	0x3f13f78c	0.577996
160	0x3ed26574	0.41093028
161	0x3f3fca3a	0.7491795
162	0x3e6c64e4	0.23085362
163	0x3f546497	0.8296599
164	0x3daf58d8	0.085618675
165	0x3ed2ae26	0.4114849
166	0x3f0a4fce	0.5402802
167	0x3eef0db0	0.4669013
168	0x3ef1ba34	0.47212374
169	0x3f205464	0.6262877
170	0x3f5d945d	0.8655451
171	0x3da18c90	0.07888138
172	0x3f0854d3	0.5325443
173	0x3f22d29f	0.6360263
174	0x3ec12b4c	0.37728345
175	0x3d956a10	0.072956204
176	0x3e2bdc9c	0.16783375
177	0x3f1e8211	0.61917216
178	0x3e61eabe	0.22062203
179	0x3ef8ce1e	0.48594755
180	0x3f21372c	0.6297481
181	0x3eeca300	0.4621811
182	0x3f427dc1	0.75973135
183	0x3e2f4e36	0.17119679
184	0x3f511dd6	0.8168615
185	0x3daa7a48	0.083241045
186	0x3f594da5	0.848841
187	0x3f2ba894	0.67054105
188	0x3f72f355	0.94902545
189	0x3f03b845	0.5145305
190	0x3ddf6e40	0.109097004
191	0x3e79aeae	0.24383041
192	0x3ec5d0a8	0.38635755
193	0x3d59b580	0.053151608
194	0x3f2cb8aa	0.67469275
195	0x3e2db7b0	0.16964602
196	0x3f3c1ac1	0.73478323
197	0x3edd5f0c	0.43236578
198	0x3f011413	0.50421256
199	0x3f26121c	0.6487138
