tests/data_pth/dare_ties1_cpu.pth (torch, 10282 bytes, 14 tensors)

l7.bias f4 [20]
0.35619235 0.27062696 0.44225156 0.5780584 0.22739518 0.9650425 0.5035622 0.7515712
0.41668493 0.59925157 0.8230896 0.12505035 0.6046873 0.53976136 0.7721867 0.8919904
0.7484361 0.69375587 0.6618175 0.009417534
00000000: d85e b63e 9e8f 8a3e cc6e e23e a3fb 133f
00000010: 48da 683e 060d 773f 74e9 003f f866 403f
00000020: ba57 d53e 8d68 193f 00b6 523f 330d 003e
00000030: c9cc 1a3f cd2d 0a3f 07ae 453f 7c59 643f
00000040: 8299 3f3f fc99 313f df6c 293f 004c 1a3c

l7.weight f4 [20, 10]
0.6857866 0.3045733 0.01170665 0.29871988 0.950885 0.03610784 0.6887904 0.25290173
0.51527965 0.30220556 0.8614775 0.9113671 0.17210668 0.38256264 0.98615277 0.22483486
0.48124546 0.7546149 0.102606356 0.362437 0.8919813 0.16107827 0.80662096 0.53518844
0.8193841 0.6843625 0.75581604 0.9277722 0.5229168 0.46132618 0.24162906 0.16919118
0.28570068 0.7796205 0.12872611 0.036385357 0.11522102 0.3468598 0.2212103 0.10520381
0.6550909 0.05322194 0.5487434 0.36761397 0.7963401 0.30890995 0.23342538 0.7665633
0.32360166 0.22403139 0.45010096 0.30168378 0.28120035 0.08947939 0.5171779 0.7885207
0.050986372 0.27851635 0.14127555 0.15761173 0.8924352 0.01521498 0.79547226 0.12867755
0.2139116 0.91710544 0.13443601 0.90557414 0.5049753 0.6723396 0.6038141 0.3346854
0.35496837 0.69804394 0.9655384 0.82951355 0.20391285 0.024105191 0.9063038 0.6060226
0.22466272 0.66478384 0.2984334 0.45517814 0.4912563 0.68199956 0.54247683 0.89677
0.06895414 0.6927362 0.8110415 0.75335705 0.38155234 0.49864066 0.37244567 0.4601543
0.61734027 0.3455472 0.6283405 0.2704413 0.33621585 0.94442296 0.8263103 0.69610333
0.7436817 0.31112713 0.36522573 0.13167024 0.27222216 0.23672855 0.18298739 0.026016474
0.24086028 0.20861477 0.31724793 0.0017767549 0.32844782 0.8088569 0.61107016 0.102015376
0.9013 0.7877162 0.74260974 0.77291524 0.1516465 0.6564581 0.8942256 0.35137045
0.7270244 0.35076892 0.29564738 0.15656856 0.9954243 0.77180606 0.37849867 0.9915092
0.57925457 0.06516881 0.7057117 0.59633976 0.8249767 0.5029954 0.1305213 0.73612064
0.90139294 0.061669588 0.4385475 0.6094665 0.53504956 0.6735177 0.64922816 0.89094853
0.00081449747 0.31235552 0.89900994 0.53839326 0.16194445 0.3012755 0.23171425 0.6891369
0.7262932 0.74032986 0.9041078 0.43863738 0.5686909 0.8320426 0.8205601 0.22141391
0.27358037 0.8625918 0.60248506 0.76261073 0.47387922 0.97118473 0.19411993 0.16089797
0.037011206 0.983824 0.72317624 0.8480929 0.5936833 0.84464544 0.31278902 0.40809423
0.8135171 0.12471686 0.17893744 0.49690008 0.44190115 0.19949573 0.04584062 0.8857398
0.70502776 0.50406563 0.21022695 0.08078325 0.14622545 0.81657684 0.83946884 0.95824176
00000000: b68f 2f3f 08f1 9b3e 40cd 3f3c d0f1 983e
00000010: 336d 733f d0e5 133d 9154 303f 567c 813e
00000020: 5ee9 033f b0ba 9a3e ca89 5c3f 5b4f 693f
00000030: bc3c 303e 40df c33e 8274 7c3f 1c3b 663e
00000040: ce65 f63e 712e 413f 4823 d23d 5891 b93e
00000050: e358 643f b4f1 243e b67e 4e3f 1c02 093f
00000060: 28c3 513f 6132 2f3f 297d 413f 7b82 6d3f
00000070: e0dd 053f f232 ec3e 9c6d 773e 7440 2d3e
00000080: 5c47 923e 3695 473f c7d0 033e d008 153d
00000090: 00f9 eb3d 9c97 b13e f484 623e 1875 d73d
000000a0: 0ab4 273f 40ff 593d 737a 0c3f e637 bc3e
000000b0: f2dc 4b3f 7229 9e3e 1007 6f3e 7e3d 443f
000000c0: 1eaf a53e 7c68 653e a273 e63e 4c76 9a3e
000000d0: 7ef9 8f3e f840 b73d c565 043f 7edc 493f
000000e0: 16d7 503d b299 8e3e 8aaa 103e f864 213e
000000f0: a276 643f 4048 793c 12a4 4b3f 0cc4 033e
00000100: a40b 5b3e 6cc7 6a3f 98a9 093e b5d3 673f
00000110: 1046 013f 731e 2c3f 9093 1a3f e25b ab3e
00000120: 6abe b53e 02b3 323f 862d 773f 005b 543f
00000130: 88ce 503e 4078 c53c 8703 683f 4c24 1b3f
00000140: fc0d 663e 462f 2a3f 43cc 983e 1c0d e93e
00000150: f285 fb3e 8697 2e3f c3df 0a3f b892 653f
00000160: d437 8d3d 2957 313f 6aa0 4f3f 02dc 403f
00000170: d45a c33e d44d ff3e 33b1 be3e 5899 eb3e
00000180: 030a 1e3f 90eb b03e ecda 203f 4877 8a3e
00000190: 7c24 ac3e b4c5 713f 1289 533f d433 323f
000001a0: ed61 3e3f 0e4c 9f3e defe ba3e 90d4 063e
000001b0: b460 8b3e f868 723e 0c61 3b3e 8020 d53c
000001c0: 14a4 763e 1c9f 553e 526e a23e 00e2 e83a
000001d0: 502a a83e 3f11 4f3f 186f 1c3f 70ed d03d
000001e0: 99bb 663f c5a7 493f ac1b 3e3f c6dd 453f
000001f0: 3849 1b3e a30d 283f f8eb 643f d4e6 b33e
00000200: 451e 3a3f fc97 b33e 185f 973e 8253 203e
00000210: 20d4 7e3f 1595 453f 94ca c13e 8cd3 7d3f
00000220: 074a 143f 3a77 853d 86a9 343f b9a9 183f
00000230: ac31 533f 4ec4 003f 60a7 053e 6772 3c3f
00000240: b0c1 663f 4099 7c3d 4c89 e03e ff05 1c3f
00000250: 02f9 083f a86b 2c3f d133 263f 3415 643f
00000260: 0084 553a 10ed 9f3e 8425 663f 24d4 093f
00000270: c4d4 253e c840 9a3e 8046 6d3e 476b 303f
00000280: 5aee 393f 4286 3d3f 9c73 673f 1495 e03e
00000290: ba95 113f be00 553f 3a10 523f 54ba 623e
000002a0: ba12 8c3e d1d2 5c3f 763c 1a3f 753a 433f
000002b0: 4ca0 f23e 909f 783f 60c7 463e 70c2 243e
000002c0: 1099 173d e4db 7b3f 1422 393f 9e1c 593f
000002d0: a1fb 173f af3a 583f e225 a03e baf1 d03e
000002e0: a842 503f 8e6b ff3d 603b 373e b069 fe3e
000002f0: de40 e23e 9c48 4c3e 60c3 3b3d d8bf 623f
00000300: b37c 343f 720a 013f bc45 573e b071 a53d
00000310: 20bc 153e 2e0b 513f 6ee7 563f 554f 753f

l6.bias f4 [10]
0.94376314 0.28226963 0.70904976 0.49485987 0.19652605 0.42310894 0.25709325 0.45578766
0.8119049 0.114007115
00000000: 769a 713f a585 903e 4984 353f 465e fd3e
00000010: 203e 493e bca1 d83e baa1 833e 005d e93e
00000020: 00d9 4f3f 907c e93d

l6.weight f4 [10, 20]
0.5205121 0.45901027 0.7282119 0.22070485 0.86021 0.60158926 0.87391347 0.9182468
0.26243514 0.5014826 0.6121186 0.6224345 0.7836443 0.7087576 0.024521649 0.93016505
0.47574294 0.06528729 0.2716158 0.05984652 0.7458192 0.52591324 0.7278805 0.7197313
0.7441738 0.6397132 0.87925816 0.8354677 0.7067707 0.26663274 0.32903156 0.24852431
0.12693596 0.68688005 0.83253944 0.13180125 0.58101606 0.59731466 0.583887 0.018043697
0.58515584 0.54834336 0.1707499 0.6571704 0.54550767 0.07466781 0.6603796 0.21643437
0.8444871 0.4106493 0.45869213 0.28292668 0.5142864 0.06341529 0.2799445 0.5581257
0.8379291 0.5090318 0.7632667 0.59991664 0.12154645 0.43025327 0.2663617 0.48175094
0.74365246 0.53390706 0.18969148 0.87429947 0.410828 0.26607078 0.46285346 0.6713239
0.74578816 0.30940664 0.65904266 0.92626894 0.2792552 0.37795883 0.42041087 0.40556198
0.5124653 0.71605897 0.5880555 0.5490849 0.44354153 0.23204386 0.46205062 0.6916838
0.83910817 0.7752306 0.13522744 0.5981273 0.18626466 0.2070235 0.5448386 0.81360674
0.9062356 0.4077047 0.9280227 0.7389181 0.6604993 0.055498064 0.5880936 0.6793671
0.9626997 0.39133698 0.69446987 0.2817124 0.7632869 0.6541805 0.41293275 0.44029576
0.26175344 0.15088588 0.18134153 0.3372034 0.50310504 0.8880416 0.8622312 0.91023046
0.3642825 0.052066684 0.3953569 0.42899668 0.3808831 0.30671692 0.43575191 0.2687459
0.6649001 0.40042692 0.33936238 0.75396615 0.9811337 0.57222146 0.14952046 0.18057925
0.07679129 0.6057117 0.043881714 0.7836805 0.22968 0.74484146 0.22163129 0.82746315
0.34522313 0.5143255 0.58141106 0.41061115 0.07246405 0.36795127 0.41128016 0.44146395
0.10655159 0.39525062 0.36122388 0.360839 0.1680668 0.51570797 0.48417348 0.3034777
0.47118157 0.97856724 0.46320355 0.62037724 0.7137326 0.014915789 0.09194398 0.19841948
0.62659776 0.83832765 0.04811406 0.1660677 0.5012908 0.31487936 0.6035851 0.47629008
0.052224994 0.5892715 0.69933534 0.7842836 0.30576658 0.2613573 0.25579727 0.37715805
0.8510079 0.80556124 0.63075584 0.36112258 0.27157968 0.75518465 0.33325076 0.810605
0.31211 0.6995549 0.38978058 0.010630548 0.88002217 0.021461427 0.08597374 0.9771953
00000000: 4840 053f 6503 eb3e 186c 3a3f 7400 623e
00000010: b936 5c3f c101 1a3f cbb8 5f3f 3912 6b3f
00000020: e65d 863e 2a61 003f ceb3 1c3f de57 1f3f
00000030: ea9c 483f 2371 353f a0e1 c83c 4c1f 6e3f
00000040: 9494 f33e 58b5 853d 3a11 8b3e a021 753d
00000050: 02ee 3e3f 40a2 063f 6056 3a3f 4f40 383f
00000060: 2d82 3e3f 3fc4 233f 1017 613f 36e1 553f
00000070: edee 343f 1684 883e d376 a83e 287d 7e3e
00000080: 80fb 013e 5fd7 2f3f 4e21 553f e8f6 063e
00000090: 78bd 143f 9de9 183f 9e79 153f 60d0 933c
000000a0: c6cc 153f 3b60 0c3f 10d9 2e3e 523c 283f
000000b0: 64a6 0b3f 70eb 983d a30e 293f f9a0 5d3e
000000c0: 4e30 583f a040 d23e b2d9 ea3e c4db 903e
000000d0: 46a8 033f e0df 813d e354 8f3e 53e1 0e3f
000000e0: 8682 563f e84f 023f 7265 433f 2394 193f
000000f0: 58ed f83d 284a dc3e 9060 883e 0fa8 f63e
00000100: 0260 3e3f 22ae 083f 7c3e 423e 17d2 5f3f
00000110: 0c58 d23e 6e3a 883e 21fb ec3e e2db 2b3f
00000120: f9eb 3e3f 8c6a 9e3e 05b7 283f f61f 6d3f
00000130: 8afa 8e3e d283 c13e 1840 d73e d2a5 cf3e
00000140: ed30 033f a44f 373f ce8a 163f d490 0c3f
00000150: e017 e33e e89c 6d3e e691 ec3e 3112 313f
00000160: cbcf 563f 8375 463f 1079 0a3e df1e 193f
00000170: 2abc 3e3e f8fd 533e 8b7a 0b3f 8848 503f
00000180: 0eff 673f acbe d03e e592 6d3f bd29 3d3f
00000190: 7b16 293f f051 633d 4d8d 163f 01eb 2d3f
000001a0: 7d73 763f 525d c83e c7c8 313f 9c3c 903e
000001b0: c566 433f 6078 273f ec6b d33e 726e e13e
000001c0: 8c04 863e d481 1a3e 98b1 393e eda5 ac3e
000001d0: 7ecb 003f b256 633f 2fbb 5c3f dd04 693f
000001e0: 3c83 ba3e e043 553d 386c ca3e 74a5 db3e
000001f0: 1c03 c33e 000a 9d3e e01a df3e 1099 893e
00000200: e536 2a3f c204 cd3e e8c0 ad3e ed03 413f
00000210: 942b 7b3f 1b7d 123f e41b 193e c4e9 383e
00000220: c044 9d3d ec0f 1b3f 50bd 333d 499f 483f
00000230: 3c31 6b3e eead 3e3f 50f3 623e a0d4 533f
00000240: 16c1 b03e d6aa 033f 5bd7 143f a03b d23e
00000250: 0868 943d 1c64 bc3e 5093 d23e 9007 e23e
00000260: b837 da3d 4a5e ca3e 56f2 b83e e4bf b83e
00000270: b419 2c3e 7005 043f 96e5 f73e 6e61 9b3e
00000280: b63e f13e 6283 7a3f 0429 ed3e 0bd1 1e3f
00000290: 2eb7 363f 5a61 743c 204d bc3d 7a2e 4b3e
000002a0: b668 203f a49c 563f 4013 453d a70d 2a3e
000002b0: 9854 003f de37 a13e 8e84 1a3f 4bdc f33e
000002c0: e0e9 553d 7fda 163f a407 333f cfc6 483f
000002d0: 708d 9c3e a0d0 853e dcf7 823e dc1a c13e
000002e0: a7db 593f 4339 4e3f 3779 213f 0fe5 b83e
000002f0: 7e0c 8b3e c853 413f d89f aa3e cf83 4f3f
00000300: e2cc 9f3e 0816 333f 5291 c73e c02b 2e3c
00000310: 2249 613f e0cf af3c 0013 b03d 7929 7a3f

l5.bias f4 [20]
0.8187838 0.2331472 0.06995404 0.2830485 0.48385328 0.65274936 0.015556395 0.49477637
0.49829167 0.3277682 0.7881528 0.24501245 0.6681129 0.6545924 0.60749966 0.9167349
0.5959796 0.77372724 0.90656805 0.67904896
00000000: d19b 513f 24be 6e3e 1044 8f3d bceb 903e
00000010: 9ebb f73e 951a 273f 40e0 7e3c 5453 fd3e
00000020: 1620 ff3e 3cd1 a73e 62c4 493f 8be4 7a3e
00000030: 7209 2b3f 5e93 273f 1985 1b3f 23af 6a3f
00000040: 1e92 183f fd12 463f d814 683f 27d6 2d3f

l5.weight f4 [20, 10]
0.63576835 0.55530673 0.15870011 0.0010668635 0.7441757 0.45170015 0.5542827 0.29465163
0.43946177 0.69177693 0.8536237 0.76718843 0.83265483 0.3177113 0.35149997 0.51937234
0.3959548 0.12708247 0.34927225 0.078983545 0.46991476 0.04202658 0.21797633 0.10144848
0.83561933 0.9293366 0.7380155 0.31430888 0.5010723 0.7786583 0.13005257 0.56891847
0.5607901 0.6394359 0.4562901 0.07013768 0.043355048 0.2705412 0.16554034 0.65349513
0.9452796 0.35500196 0.3077454 0.99872607 0.40682518 0.0672884 0.32752526 0.04316151
0.75863284 0.43850362 0.76818824 0.24050403 0.079049945 0.80371046 0.22901529 0.7438173
0.6491122 0.7741542 0.12847263 0.5844796 0.44665283 0.83156127 0.3595333 0.033303738
0.007241249 0.85316217 0.93793577 0.89916474 0.34841922 0.71818936 0.26451665 0.23495978
0.6483297 0.3074797 0.8795871 0.53269094 0.7638622 0.6167491 0.7146101 0.6194363
0.14363433 0.18846625 0.16131932 0.06020552 0.5656777 0.22323716 0.4466528 0.34782025
0.08394005 0.99382496 0.5260292 0.46277916 0.8065973 0.27745277 0.776056 0.8270807
0.53419787 0.38229263 0.6282768 0.5725354 0.19498366 0.3282758 0.19517165 0.6439879
0.50341785 0.28840566 0.6578614 0.52921367 0.5232633 0.9168126 0.08573978 0.020142674
0.58903253 0.76890033 0.77511567 0.7636831 0.15205324 0.873913 0.76855093 0.5486186
0.3807464 0.83391476 0.53084 0.66215616 0.49450225 0.78079087 0.18630397 0.631122
0.5081328 0.072431624 0.21969503 0.6554698 0.3301217 0.842888 0.24499714 0.95335287
0.48560226 0.0774107 0.5269007 0.29497987 0.2880187 0.8163197 0.113239825 0.44222063
0.2648452 0.55887216 0.046223223 0.54712707 0.6760313 0.5349996 0.64434147 0.19447106
0.69892704 0.084261656 0.5481849 0.7830161 0.15022182 0.7238378 0.548517 0.64490044
0.7959284 0.6108011 0.6617009 0.2571633 0.8441497 0.60290927 0.8006069 0.5716094
0.40486878 0.068382144 0.98125553 0.33850992 0.60767734 0.8730739 0.66257924 0.53497195
0.53518367 0.13308421 0.34597063 0.6826365 0.48211527 0.25217694 0.17787266 0.93915445
0.84591484 0.7358693 0.55243117 0.67581534 0.4651333 0.17633533 0.3606305 0.89556926
0.82564914 0.06341991 0.062309265 0.9088979 0.677875 0.33249545 0.22111249 0.5884992
00000000: b7c1 223f 9528 0e3f 4882 223e 00d6 8b3a
00000010: 4c82 3e3f 3e45 e73e 79e5 0d3f 94dc 963e
00000020: 2201 e13e 4b18 313f 1587 5a3f 7666 443f
00000030: de28 553f 0eab a23e cef7 b33e 96f5 043f
00000040: 96ba ca3e e821 023e d0d3 b23e 20c2 a13d
00000050: ab98 f03e 1024 2c3d 3035 5f3e 38c4 cf3d
00000060: 26eb 553f 01e9 6d3f 95ee 3c3f 18ed a03e
00000070: 4646 003f 2656 473f 802c 053e a4a4 113f
00000080: f18f 0f3f 12b2 233f db9e e93e 58a4 8f3d
00000090: 1095 313d 6084 8a3e 6883 293e 754b 273f
000000a0: d8fd 713f d1c2 b53e ce90 9d3e 83ac 7f3f
000000b0: 644b d03e 80ce 893d 64b1 a73e 20ca 303d
000000c0: c335 423f 8c83 e03e fca7 443f b046 763e
000000d0: f0e4 a13d f8bf 4d3f fc82 6a3e d06a 3e3f
000000e0: 382c 263f f82e 463f 548e 033e 74a0 153f
000000f0: aeaf e43e 33e1 543f c014 b83e 8069 083d
00000100: 0048 ed3b d668 5a3f 8f1c 703f a92f 663f
00000110: 0164 b23e 42db 373f ba6e 873e 4c99 703e
00000120: eff8 253f fb6d 9d3e 9f2c 613f 6f5e 083f
00000130: 798c 433f 45e3 1d3f b0f0 363f 6193 1e3f
00000140: e114 133e 4cfd 403e e430 253e 109a 763d
00000150: 41d0 103f 4898 643e adaf e43e 7f15 b23e
00000160: c3e8 ab3d 506b 7e3f daa9 063f 64f1 ec3e
00000170: 297d 4e3f 4a0e 8e3e 9bab 463f 90bb 533f
00000180: 31c1 083f dcbb c33e c0d6 203f ae91 123f
00000190: cca9 473e c413 a83e 14db 473e 64dc 243f
000001a0: fedf 003f e8a9 933e 9b69 283f 8c7a 073f
000001b0: 95f4 053f 3bb4 6a3f 5698 af3d 4002 a53c
000001c0: d6ca 163f a7d6 443f fb6d 463f bc80 433f
000001d0: d8b3 1b3e c3b8 5f3f c1bf 443f 4572 0c3f
000001e0: 31f1 c23e 707b 553f 21e5 073f 1183 293f
000001f0: 662f fd3e e9e1 473f 78c6 3e3e 3691 213f
00000200: fe14 023f 0857 943d bcf7 603e decc 273f
00000210: b605 a93e 82c7 573f 88e0 7a3e ef0e 743f
00000220: dca0 f83e 8089 9e3d f7e2 063f 9a07 973e
00000230: 3077 933e 54fa 503f 48ea e73d be6a e23e
00000240: ca99 873e 3f12 0f3f 9054 3d3d 8510 0c3f
00000250: 6310 2d3f bcf5 083f 90f3 243f 6c23 473e
00000260: e2ec 323f 6091 ac3d d855 0c3f be73 483f
00000270: c0d3 193e 6f4d 393f 9c6b 0c3f 3218 253f
00000280: f7c1 4b3f 765d 1c3f 3b65 293f e8aa 833e
00000290: 321a 583f 4358 1a3f 93f4 4c3f fe54 123f
000002a0: f64a cf3e f00b 8c3d 9033 7b3f 2c51 ad3e
000002b0: be90 1b3f c581 5f3f cb9e 293f ecf3 083f
000002c0: cc01 093f 3a47 083e 1023 b13e 44c1 2e3f
000002d0: d0d7 f63e 561d 813e 4024 363e 6d6c 703f
000002e0: e08d 583f ee61 3c3f 216c 0d3f 3c02 2d3f
000002f0: f425 ee3e 4091 343e 90a4 b83e 0744 653f
00000300: be5d 533f 4ce2 813d 0038 7f3d 88ad 683f
00000310: 3789 2d3f d83c aa3e 506b 623e e2a7 163f

l4.bias f4 [10]
0.67834324 0.9055229 0.5874736 0.13101357 0.5266877 0.4010141 0.705548 0.9943893
0.6538576 0.49139094
00000000: e7a7 2d3f 59d0 673f ab64 163f 6c28 063e
00000010: 01d5 063f b851 cd3e cb9e 343f 4c90 7e3f
00000020: 3663 273f 9897 fb3e

l4.weight f4 [10, 20]
0.66666853 0.28292492 0.82261026 0.9571814 0.87922907 0.38529605 0.5400081 0.3070243
0.426588 0.61222905 0.97581196 0.3227262 0.747505 0.7773878 0.33631736 0.61229026
0.6226616 0.55803823 0.29026592 0.74367744 0.50562793 0.33487135 0.9556957 0.8241659
0.31185287 0.59336084 0.7591669 0.49650717 0.79642195 0.38246357 0.80992955 0.076617874
0.6651486 0.8058707 0.99949175 0.844959 0.24031025 0.64902353 0.65073496 0.13160214
0.669341 0.64178693 0.8417848 0.3554632 0.20541656 0.5916098 0.5515969 0.5183008
0.32683086 0.012073755 0.25809622 0.26018286 0.122737885 0.51596713 0.26007938 0.41498172
0.8568936 0.037613273 0.28300846 0.24311936 0.56988806 0.57021874 0.0569461 0.23582435
0.2177183 0.37496275 0.42709696 0.9578979 0.29157346 0.50158834 0.25023162 0.31354475
0.9899277 0.39587328 0.8639636 0.9068552 0.60200125 0.3121401 0.885467 0.15761638
0.25780994 0.22022629 0.38499492 0.14323121 0.30297482 0.5706732 0.14631581 0.7847402
0.16542435 0.08196473 0.20345634 0.46791643 0.72260666 0.7126033 0.48327368 0.10514653
0.48799467 0.5385506 0.29459393 0.5368579 0.75259143 0.3463744 0.34677833 0.6722521
0.8453313 0.231466 0.74218035 0.36519134 0.68538684 0.12117474 0.64854044 0.5166273
0.3545468 0.5031306 0.55426556 0.2900818 0.5371684 0.5531504 0.5903586 0.52123904
0.93151987 0.4174527 0.4504831 0.86140424 0.80280805 0.7399497 0.20953017 0.8931756
0.44962716 0.29450205 0.36603045 0.4144133 0.02076143 0.282502 0.3574828 0.47465754
0.5553045 0.12461853 0.7548557 0.9578214 0.76867723 0.89197326 0.31814444 0.36218762
0.079282686 0.5442695 0.5472267 0.23298407 0.2855627 0.65818197 0.2637095 0.3563332
0.78452134 0.0427289 0.057037354 0.7118198 0.6175726 0.18271849 0.72765154 0.30198026
0.59209055 0.044089556 0.2005499 0.674896 0.7657212 0.86123073 0.027024388 0.24050629
0.100702666 0.39055005 0.12884963 0.36737382 0.63311976 0.7756832 0.61671895 0.25848556
0.25792122 0.25190395 0.81323683 0.41889173 0.117765486 0.521832 0.6897745 0.28559387
0.7840962 0.15899283 0.9331783 0.72084904 0.21026492 0.7616621 0.4996574 0.8615673
0.5642386 0.1062417 0.24680156 0.13671625 0.54174185 0.9266162 0.31361306 0.7811747
00000000: caaa 2a3f 89db 903e 9696 523f d709 753f
00000010: 2815 613f 8645 c53e f93d 0a3f 4a32 9d3e
00000020: be69 da3e 0bbb 1c3f d0ce 793f 5e3c a53e
00000030: 7d5c 3f3f e302 473f ca31 ac3e 0ebf 1c3f
00000040: c066 1f3f 98db 0e3f bc9d 943e a561 3e3f
00000050: d570 013f 4274 ab3e 79a8 743f 89fc 523f
00000060: 2eab 9f3e 7fe6 173f c358 423f 3036 fe3e
00000070: 4fe2 4b3f 44d2 c33e 8b57 4f3f d5e9 9c3d
00000080: 2e47 2a3f 8b4d 4e3f b1de 7f3f 3c4f 583f
00000090: e413 763e 6826 263f 9196 263f b6c2 063e
000000a0: ef59 2b3f 264c 243f 357f 573f 46ff b53e
000000b0: b858 523e bd73 173f 7435 0d3f 5caf 043f
000000c0: 6056 a73e 00d1 453c 3025 843e b036 853e
000000d0: 005e fb3d 6c16 043f 2029 853e 7c78 d43e
000000e0: 615d 5b3f 6010 1a3d 7ce6 903e 48f4 783e
000000f0: 2fe4 113f dbf9 113f 5040 693d f07b 713e
00000100: 8cf1 5e3e 1efb bf3e 74ac da3e cc38 753f
00000110: 1e49 953e 1868 003f 5c1e 803e f088 a03e
00000120: e76b 7d3f e7af ca3e b82c 5d3f aa27 683f
00000130: c11c 1a3f d4d0 9f3e f7ad 623f 3066 213e
00000140: aaff 833e 0083 613e 0e1e c53e 34ab 123e
00000150: 841f 9b3e a417 123f d0d3 153e bce4 483f
00000160: 0065 293e 20dd a73d dc56 503e be92 ef3e
00000170: c0fc 383f 2b6d 363f a66f f73e 1057 d73d
00000180: 70da f93e 74de 093f 04d5 963e 856f 093f
00000190: d5a9 403f fc57 b13e ee8c b13e b718 2c3f
000001a0: a267 583f 6c05 6d3e 88ff 3d3f 5cfa ba3e
000001b0: 8375 2f3f 762a f83d bf06 263f b041 043f
000001c0: 2887 b53e 2bcd 003f 59e4 0d3f 9a85 943e
000001d0: de83 093f 449b 0d3f be21 173f ec6f 053f
000001e0: 1678 6e3f 5cbc d53e b9a5 e63e fd84 5c3f
000001f0: d484 4d3f 586d 3d3f 148f 563e 28a7 643f
00000200: 8835 e63e f9c8 963e 5868 bb3e fb2d d43e
00000210: e013 aa3c 1aa4 903e fc07 b73e 5006 f33e
00000220: 7028 0e3f 0038 ff3d 393e 413f c933 753f
00000230: 08c8 443f 5c58 643f d4e3 a23e a870 b93e
00000240: f65e a23d 3f55 0b3f 0d17 0c3f 6093 6e3e
00000250: 4635 923e 9d7e 283f ee04 873e 4e71 b63e
00000260: 64d6 483f 8004 2f3d 00a0 693d d339 363f
00000270: 3d19 1e3f 8e1a 3b3e 5f47 3a3f 289d 9a3e
00000280: 3f93 173f 4097 343d f45c 4d3e fcc5 2c3f
00000290: 4e06 443f 9e79 5c3f 4062 dd3c 4847 763e
000002a0: 333d ce3d 2df6 c73e 28f1 033e 6c18 bc3e
000002b0: 2314 223f 2d93 463f 4be1 1d3f 3858 843e
000002c0: 400e 843e 8ef9 803e 4a30 503f fa78 d63e
000002d0: 082f f13d c896 053f 1095 303f 5c39 923e
000002e0: 87ba 483f 04cf 223e c6e4 6e3f 9089 383f
000002f0: b04f 573e 4afc 423f 18d3 ff3e ad8f 5c3f
00000300: f171 103f 4095 d93d 8cb9 7c3e 58ff 0b3e
00000310: 98af 0a3f b836 6d3f e491 a03e 11fb 473f

l3.bias f4 [20]
0.9526437 0.3647673 0.33588678 0.15944809 0.9808745 0.6724216 0.07235038 0.22028625
0.7480531 0.49587506 0.42476988 0.8662941 0.3127169 0.37983364 0.36268646 0.11396015
0.32089674 0.8799893 0.4545713 0.006729543
00000000: 75e0 733f c8c2 ba3e 5af9 ab3e 5c46 233e
00000010: 971a 7b3f d223 2c3f 702c 943d b892 613e
00000020: 6880 3f3f 56e3 fd3e 707b d93e 73c5 5d3f
00000030: 6e1c a03e 8e79 c23e 0ab2 b93e f063 e93d
00000040: 944c a43e fb46 613f 92bd e83e 8083 dc3b

l3.weight f4 [20, 10]
0.50374895 0.8561458 0.16111106 0.050626397 0.44727066 0.5328601 0.97799766 0.3118835
0.19955945 0.22603261 0.2381311 0.99916375 0.040976226 0.92112917 0.26588988 0.97070414
0.050948918 0.28402686 0.9092753 0.52368915 0.010940731 0.8975716 0.6249519 0.2354024
0.5061305 0.7767234 0.122347236 0.79995066 0.35566723 0.7344719 0.42171687 0.4166481
0.6533014 0.92994523 0.37383926 0.087254524 0.4897638 0.2697928 0.86883646 0.30050826
0.35490924 0.6039857 0.687741 0.096517384 0.4997685 0.354253 0.3356458 0.5055101
0.6818243 0.38638264 0.36046886 0.6686645 0.47510606 0.08691162 0.54854614 0.38364255
0.1643272 0.52554435 0.4441244 0.30773765 0.036408186 0.10839957 0.6901411 0.62279135
0.072974205 0.44831032 0.8976828 0.66764534 0.77308863 0.82854784 0.43222618 0.6325944
0.7468763 0.5470663 0.9722167 0.087817416 0.063997686 0.9141632 0.8485781 0.32723904
0.78737724 0.6933149 0.6450368 0.77141774 0.8612639 0.36356473 0.42961252 0.012288034
0.8412633 0.62802076 0.20742083 0.70689225 0.37410724 0.87237364 0.048948467 0.5560616
0.27994734 0.059004962 0.03472823 0.9348845 0.42255342 0.76850295 0.71715695 0.73512715
0.9289561 0.4206844 0.906663 0.026036978 0.5884986 0.37316287 0.2800902 0.4843994
0.017856658 0.61909366 0.8735495 0.36683017 0.7642092 0.090304196 0.931843 0.38060522
0.49594373 0.040832102 0.5726878 0.6182561 0.43861756 0.8261084 0.026582658 0.5193392
0.5453422 0.07027906 0.4868991 0.49166405 0.17641626 0.41308832 0.31666297 0.52291393
0.037151456 0.52147985 0.78697723 0.4029383 0.3387506 0.16096067 0.08721757 0.49464232
0.1411373 0.48893404 0.8604271 0.041510522 0.45555413 0.6903816 0.99736637 0.6623228
0.7580866 0.9715838 0.35284352 0.15554136 0.45612222 0.1700042 0.82641876 0.6904695
0.49221295 0.7872821 0.39370412 0.1608988 0.9789642 0.32869744 0.12219608 0.79909694
0.7306998 0.023525357 0.5492618 0.5615059 0.990527 0.678764 0.6499135 0.5105262
0.75349116 0.5001215 0.42353725 0.62405455 0.42106944 0.2872045 0.53806937 0.36217445
0.099855125 0.9643872 0.5653029 0.49701652 0.7833051 0.34440053 0.7100643 0.11376971
0.14867431 0.70726424 0.93619883 0.107708514 0.756448 0.28644872 0.7582451 0.12387359
00000000: b1f5 003f 5f2c 5b3f 4cfa 243e a05d 4f3d
00000010: a900 e53e 8569 083f 0e5e 7a3f 32af 9f3e
00000020: 5059 4c3e 1875 673e a4d8 733e 32c9 7f3f
00000030: b0d6 273d 1fcf 6b3f b822 883e 1180 783f
00000040: d0af 503d f86b 913e 44c6 683f 7e10 063f
00000050: c040 333c 41c7 653f d9fc 1f3f 540d 713e
00000060: c591 013f 58d7 463f 3091 fa3d 91c9 4c3f
00000070: 041a b63e 5a06 3c3f 46eb d73e e652 d53e
00000080: c33e 273f e410 6e3f dc67 bf3e 80b2 b23d
00000090: 52c2 fa3e 4822 8a3e 116c 5e3f 38dc 993e
000000a0: aab6 b53e cf9e 1a3f cb0f 303f e8aa c53d
000000b0: a8e1 ff3e a660 b53e c4d9 ab3e 1c69 013f
000000c0: 0a8c 2e3f f2d3 c53e 608f b83e 992d 2b3f
000000d0: 1a41 f33e b8fe b13d 856d 0c3f cc6c c43e
000000e0: 6445 283e 138a 063f 4664 e33e ca8f 9d3e
000000f0: c020 153d 9800 de3d 16ad 303f 416f 1f3f
00000100: 8073 953d ee88 e53e 8ace 653f ceea 2a3f
00000110: 23e9 453f b61b 543f c04c dd3e b5f1 213f
00000120: 4933 3f3f 890c 0c3f 32e3 783f 9ed9 b33d
00000130: 3811 833d 9906 6a3f 6a3c 593f e08b a73e
00000140: 8e91 493f 167d 313f 2221 253f a27b 453f
00000150: ca7b 5c3f 2825 ba3e 2cf6 db3e c053 493c
00000160: 085d 573f f8c5 203f 2066 543e e4f6 343f
00000170: fc8a bf3e e153 5f3f 307e 483d 0e5a 0e3f
00000180: 4255 8f3e 30af 713d 303f 0e3d 9754 6f3f
00000190: ec58 d83e 9cbc 443f 9997 373f 4b31 3c3f
000001a0: 11d0 6d3f f263 d73e 111b 683f 804b d53c
000001b0: d8a7 163f 340f bf3e fc67 8f3e 3303 f83e
000001c0: 2048 923c ec7c 1e3f f1a0 5f3f 2ad1 bb3e
000001d0: 37a3 433f 68f1 b83d 438d 6e3f b0de c23e
000001e0: 56ec fd3e 903f 273d ab9b 123f 0846 1e3f
000001f0: 7b92 e03e d77b 533f e0c3 d93c 6af3 043f
00000200: 8c9b 0b3f 78ee 8f3d d74a f93e 64bb fb3e
00000210: 77a6 343e 5080 d33e a621 a23e b0dd 053f
00000220: 202c 183d b47f 053f 5777 493f ee4d ce3e
00000230: b870 ad3e e0d2 243e 209f b23d c241 fd3e
00000240: 4c86 103e 9055 fa3e f344 5c3f f006 2a3d
00000250: 643e e93e d9bc 303f 6753 7f3f fd8d 293f
00000260: f711 423f b7b9 783f e8a7 b43e 3c46 1f3e
00000270: da88 e93e 9515 2e3e 2e90 533f 9cc2 303f
00000280: 5603 fc3e 528b 493f 9693 c93e a8c2 243e
00000290: 669d 7a3f 084b a83e f041 fa3d 9e91 4c3f
000002a0: 240f 3b3f 40b8 c03c 6c9c 0c3f dabe 0f3f
000002b0: 2d93 7d3f 7ac3 2d3f bb60 263f d8b1 023f
000002c0: cce4 403f f607 003f e0d9 d83e 0ac2 1f3f
000002d0: 6a96 d73e 780c 933e eabe 093f ee6e b93e
000002e0: d880 cc3d 14e2 763f b1b7 103f f378 fe3e
000002f0: af86 483f 4455 b03e c6c6 353f 1800 e93d
00000300: 143e 183e 450f 353f baaa 6f3f 4896 dc3d
00000310: 93a6 413f 68a9 923e 5a1c 423f 70b1 fd3d

l2.bias f4 [10]
0.42200541 0.71786356 0.3291312 0.47179812 0.6845169 0.57735026 0.05552882 0.35476673
0.5508105 0.9512846
00000000: 1811 d83e e8c5 373f e283 a83e 868f f13e
00000010: 803c 2f3f 3acd 133f 3072 633d fca3 b53e
00000020: eb01 0d3f 6387 733f

l2.weight f4 [10, 20]
0.28283933 0.04039079 0.5664396 0.43652147 0.41722712 0.5336365 0.40810114 0.45918018
0.21587157 0.14963126 0.7513893 0.35490847 0.06618929 0.70415676 0.76458496 0.70461786
0.7449832 0.7549462 0.3623327 0.22722805 0.33722335 0.6090412 0.29824275 0.81960076
0.4648052 0.27144724 0.05794078 0.12437433 0.33595157 0.6341102 0.74532247 0.5791523
0.7038875 0.7288221 0.56172913 0.11675382 0.12418586 0.60644436 0.33325112 0.37618035
0.74604464 0.2713514 0.9204677 0.64610046 0.020998776 0.9322711 0.26496053 0.18775511
0.19317797 0.48397028 0.55445695 0.6782657 0.96138245 0.52881575 0.2492593 0.40746397
0.72441936 0.4110943 0.3711292 0.98652095 0.30834657 0.81545126 0.9172932 0.46953046
0.5628712 0.5042593 0.6201798 0.062053323 0.48495513 0.67069787 0.7483829 0.60363895
0.8176924 0.3573388 0.96266013 0.88635516 0.020448864 0.7979296 0.08266148 0.6039195
0.51672375 0.25642163 0.75094855 0.50691974 0.26575285 0.034549534 0.20441854 0.020022392
0.44449812 0.59948176 0.4422686 0.9379354 0.03391236 0.98218673 0.39009625 0.4694767
0.90606564 0.15439701 0.6855245 0.072176814 0.31677383 0.21955043 0.29875398 0.8647855
0.4148568 0.17429927 0.56444997 0.5714728 0.83410496 0.5402713 0.559667 0.21585798
0.8604718 0.96092737 0.019809067 0.078083575 0.38455403 0.10184955 0.06973702 0.9357477
0.21675825 0.28121394 0.56013036 0.053297162 0.2197991 0.9052547 0.16554385 0.7730519
0.7155657 0.11416972 0.95542324 0.43835396 0.55673134 0.7309085 0.49075973 0.2526837
0.6746935 0.37772596 0.54332566 0.8305481 0.7674503 0.5730685 0.07103151 0.1325388
0.26352352 0.0043533444 0.27344692 0.7590474 0.4864037 0.59768707 0.6939454 0.59988374
0.41579103 0.25195724 0.8945098 0.9759559 0.74293405 0.740856 0.49933642 0.9187284
0.9532771 0.51071876 0.90367544 0.68094647 0.3863195 0.4705304 0.5492278 0.23623824
0.21990505 0.3509745 0.80845 0.1697151 0.510596 0.8496283 0.33078325 0.6780972
0.44387966 0.34490746 0.19377404 0.87388974 0.6465605 0.40231985 0.52711535 0.4247275
0.5965013 0.37574112 0.6045608 0.07951921 0.87818485 0.9175627 0.7236389 0.098145604
0.83268595 0.3922888 0.9307923 0.98070806 0.42075497 0.12419534 0.22613186 0.5697174
00000000: 51d0 903e d070 253d 3002 113f be7f df3e
00000010: cb9e d53e 679c 083f a2f2 d03e aa19 eb3e
00000020: 700d 5d3e f038 193e 0d5b 403f 90b6 b53e
00000030: 408e 873d 9e43 343f d7bb 433f d661 343f
00000040: 38b7 3e3f 2744 413f ac83 b93e 78ae 683e
00000050: 8aa8 ac3e 20ea 1b3f 46b3 983e 5bd1 513f
00000060: f2fa ed3e 22fb 8a3e 5053 6d3d f8b7 fe3d
00000070: d801 ac3e 0c55 223f 74cd 3e3f 5343 143f
00000080: f931 343f 1694 3a3f 7bcd 0f3f a01c ef3d
00000090: 2855 fe3d f03f 1b3f e49f aa3e b69a c03e
000000a0: c8fc 3e3f 92ee 8a3e c5a3 6b3f d766 253f
000000b0: a005 ac3c 52a9 6e3f e8a8 873e e042 403e
000000c0: 72d0 453e f4ca f73e e4f0 0d3f d2a2 2d3f
000000d0: 291d 763f 7860 073f d43d 7f3e 1e9f d03e
000000e0: 8c73 393f f47a d23e a604 be3e a38c 7c3f
000000f0: 9adf 9d3e 6ac1 503f bad3 6a3f 4c66 f03e
00000100: 5418 103f 2317 013f 1ac4 1e3f a02b 7e3d
00000110: 0a4c f83e dbb2 2b3f 0696 3f3f 1588 1a3f
00000120: 4a54 513f 1cf5 b63e e570 763f 2ce8 623f
00000130: 6084 a73c 1d45 4c3f 6c4a a93d 789a 1a3f
00000140: 0248 043f b249 833e 2a3e 403f 7ec5 013f
00000150: c210 883e d083 0d3d 1853 513e 0006 a43c
00000160: 4295 e33e a377 193f 0871 e23e 891c 703f
00000170: b0e7 0a3d 9770 7b3f b2ba c73e 405f f03e
00000180: ebf3 673f 401a 1e3e 897e 2f3f 70d1 933d
00000190: 2e30 a23e d4d1 603e 48f6 983e 9562 5d3f
000001a0: 1c68 d43e 827b 323e cb7f 103f 0b4c 123f
000001b0: e787 553f 384f 0a3f 5646 0f3f e009 5d3e
000001c0: e147 5c3f 56ff 753f a046 a23c 48ea 9f3d
000001d0: 44e4 c43e 7f96 d03d 48d2 8e3d 298d 6f3f
000001e0: e0f5 5d3e 46fb 8f3e b464 0f3f 204e 5a3d
000001f0: 0413 613e c6be 673f 5484 293e bbe6 453f
00000200: 502f 373f d0d1 e93d 9e96 743f ee6f e03e
00000210: f285 0e3f d21c 3b3f dc44 fb3e c25f 813e
00000220: b7b8 2c3f 4c65 c13e 6417 0b3f cd9e 543f
00000230: 9f77 443f 9eb4 123f f878 913d 40b8 073e
00000240: 8eec 863e 80a6 8e3b 3c01 8c3e ee50 423f
00000250: e809 f93e 0502 193f 68a6 313f fb91 193f
00000260: 90e2 d43e 8a00 813e 98fe 643f 3fd8 793f
00000270: ed30 3e3f bda8 3d3f 06a9 ff3e c931 6b3f
00000280: f809 743f 77be 023f 4657 673f 8252 2e3f
00000290: abcb c53e 5ce9 f03e 319a 0c3f 70e8 713e
000002a0: ca2e 613e eeb2 b33e 94f6 4e3f ccc9 2d3e
000002b0: 6bb6 023f 3e81 593f 6c5c a93e c797 2d3f
000002c0: 3244 e33e b697 b03e b46c 463e 3db7 5f3f
000002d0: fd84 253f defc cd3e 08f1 063f e275 d93e
000002e0: 4fb4 183f 2461 c03e 7fc4 1a3f f8da a23d
000002f0: b9d0 603f 64e5 6a3f 6640 393f 9000 c93d
00000300: e82a 553f 14da c83e 6748 6e3f af0f 7b3f
00000310: 326d d73e 205a fe3d 1c8f 673e 00d9 113f

l1.bias f4 [20]
0.9120642 0.64656025 0.68977165 0.5364622 0.44909662 0.5409202 0.48034132 0.6300205
0.7416435 0.3930412 0.07482171 0.1397714 0.37042648 0.6427532 0.8716653 0.57096183
0.8297244 0.76915497 0.12459046 0.026533782
00000000: 0a7d 693f f984 253f e094 303f 9655 093f
00000010: feef e53e bf79 0a3f 4cef f53e 0649 213f
00000020: 59dc 3d3f b23c c93e 203c 993d 3c20 0f3e
00000030: 8aa8 bd3e 798b 243f 7525 5f3f 8e2a 123f
00000040: d168 543f 57e7 443f 4829 ff3d 605d d93c

l1.weight f4 [20, 10]
0.88593584 0.076295674 0.2893151 0.43874896 0.93738353 0.38172722 0.64660996 0.3854422
0.64574414 0.48126894 0.5133053 0.04960853 0.025877178 0.32797897 0.49934328 0.23695725
0.881789 0.20993692 0.8609822 0.12455833 0.9789517 0.27478713 0.3640818 0.64221925
0.05827588 0.57962924 0.97720206 0.66854376 0.31991458 0.28819823 0.4729374 0.66211456
0.4132765 0.37765133 0.43033344 0.5147349 0.17394173 0.6841826 0.55704087 0.058392823
0.117165565 0.25249016 0.75366664 0.06455666 0.960205 0.8583634 0.8687688 0.46241271
0.11105573 0.14589 0.74517787 0.31453323 0.16069126 0.35885704 0.5606905 0.86262876
0.5703389 0.4760126 0.23198307 0.060827553 0.663964 0.41680163 0.73421097 0.707091
0.5473042 0.71078897 0.39302665 0.9394613 0.86212236 0.8353279 0.30672497 0.58465624
0.41899037 0.9709429 0.0049428344 0.2298215 0.8918494 0.3407051 0.73821497 0.18309194
0.8159658 0.66683614 0.5548779 0.594161 0.40682468 0.3014775 0.21180743 0.019159317
0.6399937 0.4475382 0.28229254 0.7391208 0.774201 0.14879155 0.7095299 0.8523315
0.2786916 0.7643652 0.73957247 0.49586737 0.23532015 0.41688102 0.114975154 0.98455757
0.6034866 0.0011743307 0.67731434 0.52807325 0.8427687 0.75055665 0.66869575 0.22494
0.1844843 0.021472096 0.19137436 0.43831807 0.29225093 0.35431314 0.41502702 0.05486269
0.76663995 0.20364922 0.66148096 0.12580568 0.09649193 0.34000623 0.30253953 0.30824888
0.81513435 0.74644697 0.79302084 0.7449554 0.014504015 0.49781471 0.6305668 0.6941022
0.7525901 0.6176906 0.8540851 0.83952653 0.90943587 0.707707 0.47180057 0.55890006
0.16043586 0.084694445 0.27789548 0.28026074 0.18582028 0.6972456 0.80250573 0.5865146
0.5606189 0.19921201 0.7964356 0.83995634 0.7975278 0.06782764 0.64931995 0.577996
0.17208129 0.45953637 0.23085362 0.87605655 0.085618675 0.4302907 0.49169827 0.4669013
0.47212374 0.7256033 0.918887 0.07888138 0.5325443 0.7676919 0.37728345 0.072956204
0.16783375 0.6503045 0.25135458 0.48594755 0.6297481 0.4621811 0.60389894 0.46033072
0.8168615 0.083241045 0.848841 0.6189096 0.94902545 0.46950734 0.02344215 0.18002892
0.46696743 0.053151608 0.67469275 0.16964602 0.73478323 0.69586146 0.32402363 0.6487138
00000000: b1cc 623f e840 9c3d 1c21 943e b4a3 e03e
00000010: 5ef8 6f3f c071 c33e 3b88 253f ae58 c53e
00000020: 7d4f 253f e268 f63e fa67 033f 5032 4b3d
00000030: 60fc d33c dcec a73e eca9 ff3e eca4 723e
00000040: edbc 613f b4f9 563e 5469 5c3f 7018 ff3d
00000050: 949c 7a3f e6b0 8c3e ee68 ba3e 7b68 243f
00000060: b0b2 6e3d 9562 143f ea29 7a3f af25 2b3f
00000070: d8cb a33e b88e 933e da24 f23e 5780 293f
00000080: fa98 d33e 845b c13e aa54 dc3e abc5 033f
00000090: c81d 323e 9726 2f3f 3b9a 0e3f 502d 6f3d
000000a0: 80f4 ef3d 6446 813e 4cf0 403f 4836 843d
000000b0: ffcf 753f b4bd 5b3f a267 5e3f 5cc1 ec3e
000000c0: 3071 e33d 3064 153e fac3 3e3f 800a a13e
000000d0: 408c 243e 1cbc b73e 6a89 0f3f 3dd5 5c3f
000000e0: bb01 123f ecb7 f33e f88c 6d3e 5026 793d
000000f0: 8bf9 293f 0667 d53e 40f5 3b3f ea03 353f
00000100: 211c 0c3f 44f6 353f ca3a c93e 8980 703f
00000110: 0db4 5c3f 0dd8 553f 0e0b 9d3e 08ac 153f
00000120: e885 d63e b78f 783f 80f7 a13b 5456 6b3e
00000130: 3e50 643f e670 ae3e a8fb 3c3f 747c 3b3e
00000140: 22e3 503f c6b5 2a3f 7a0c 0e3f ef1a 183f
00000150: 534b d03e 425b 9a3e 0ce4 583e 00f4 9c3c
00000160: a1d6 233f ba23 e53e a688 903e 0537 3d3f
00000170: 0932 463f d05c 183e c0a3 353f 6632 5a3f
00000180: aab0 8e3e 70ad 433f 9f54 3d3f 54e2 fd3e
00000190: c4f7 703e 6e71 d53e 1878 eb3d f70b 7c3f
000001a0: 197e 1a3f 00ec 993a 7964 2d3f cf2f 073f
000001b0: b1bf 573f 7b24 403f a52f 2b3f ac56 663e
000001c0: 74e9 3c3e 40e6 af3c a4f7 433e 3a6b e03e
000001d0: eaa1 953e 8868 b53e 6c7e d43e b3b7 603d
000001e0: 8442 443f 6c89 503e d156 293f 34d3 003e
000001f0: 909d c53d 4c15 ae3e 76e6 9a3e ccd2 9d3e
00000200: a5ac 503f 2617 3f3f 6a03 4b3f 66b5 3e3f
00000210: 40a2 6d3c 92e1 fe3e d36c 213f afb0 313f
00000220: bfa9 403f f920 1e3f 52a5 5a3f 36eb 563f
00000230: cad0 683f 492c 353f d88f f13e 1314 0f3f
00000240: 4c49 243e 4874 ad3d 5148 8e3e 567e 8f3e
00000250: ac47 3e3e b07e 323f 0471 4d3f d225 163f
00000260: b884 0f3f 3cfe 4b3e 34e3 4b3f 6107 573f
00000270: c82a 4c3f 38e9 8a3d d539 263f 8cf7 133f
00000280: 1436 303e 5a48 eb3e e464 6c3e 3e45 603f
00000290: d858 af3d 104f dc3e e0bf fb3e b00d ef3e
000002a0: 34ba f13e 23c1 393f 2e3c 6b3f 908c a13d
000002b0: d354 083f 7587 443f 4c2b c13e 106a 953d
000002c0: 9cdc 2b3e 5b7a 263f 8cb1 803e 1ece f83e
000002d0: 2c37 213f 00a3 ec3e 1f99 1a3f 78b0 eb3e
000002e0: d61d 513f 487a aa3d a54d 593f dc70 1e3f
000002f0: 55f3 723f 4463 f03e c009 c03c 8059 383e
00000300: 5b16 ef3e 80b5 593d aab8 2c3f b0b7 2d3e
00000310: c11a 3c3f fa23 323f 6de6 a53e 1c12 263f
