tests/data_pth/joint_abs_diff_ties1.pth (torch, 10390 bytes, 14 tensors)

l7.bias f4 [20]
000000 d6 28 c4 3e 6a 00 fc 3e 43 35 28 3f 52 cf d1 3e
       0.38312405 0.49219066 0.6570627 0.40978485
000010 78 3e 14 3f e6 05 05 3f 4c 0f 53 3e 85 7d 4e 3f
       0.5790782 0.51962125 0.20611304 0.8066028
000020 82 39 d9 3e a3 a5 4b 3f 38 f7 b6 3e 60 47 b6 3c
       0.42426687 0.79549617 0.35735488 0.022250831
000030 f8 c9 b2 3d 04 62 7c 3f e9 b7 25 3f 28 99 01 bd
       0.08729929 0.9858706 0.6473375 -0.0316402
000040 f6 cb e8 3e 82 91 f3 3e 1c 81 02 3e af 12 64 3f
       0.4546811 0.4757195 0.12744564 0.8909101

l7.weight f4 [20, 10]
000000 0c 70 c8 3e 81 20 0f 3f ac d4 85 3e e4 9a b4 3e
       0.39147985 0.5590897 0.26138818 0.35274422
000010 02 62 f2 3e 26 43 91 3e 00 a4 e7 3d de e8 b9 3e
       0.473404 0.28371543 0.113105774 0.36310476
000020 b8 77 f5 3e 3a aa 18 3f f3 37 33 3f 98 b0 5f 3e
       0.479429 0.59634745 0.70007247 0.21844709
000030 1c 1f 3d 3f 6c b4 d2 3e 9a c4 97 3e 3d 2c 41 3f
       0.73875594 0.41153276 0.29642183 0.7545813
000040 1c e4 86 3e 47 51 ef 3e 00 18 b5 3d 9e c0 66 3f
       0.2634591 0.46741697 0.08842468 0.9013766
000050 eb 71 3a 3f fc 8d 1e 3e 3a d9 96 3e 66 32 00 3f
       0.72830075 0.1548385 0.29462606 0.500769
000060 3f 3f 1e 3f d0 ae 46 3f 18 d4 55 3e 93 ad 99 3e
       0.61815256 0.7761049 0.20881689 0.3001524
000070 8a d6 3f 3f 40 40 94 3e bf 69 4a 3f 46 b6 bd 3e
       0.74936736 0.2895527 0.79067606 0.37053126
000080 1a 0c 88 3e 52 dc d5 3e 86 a5 72 3f 8e f1 4c 3f
       0.26571733 0.41769654 0.9478382 0.80056083
000090 30 88 19 3f 7c 9a 4e 3f 84 9c 0e 3e 55 72 10 3f
       0.5997343 0.80704474 0.13926893 0.56424457
0000a0 eb b6 de 3e 40 0c 70 3d c0 b6 18 3f c0 c4 a4 3c
       0.4349893 0.058605433 0.59653854 0.020113349
0000b0 e8 ac c7 3e 9f d8 5f 3f 6c af cd 3e 52 c6 11 3f
       0.38999104 0.8743991 0.401729 0.5694324
0000c0 76 ed 64 3f 8c 39 65 3e 8a 3e 78 3f 5a 3f 4f 3f
       0.89424837 0.22385234 0.9697043 0.8095604
0000d0 6a 80 aa 3e d2 bb 63 3f 87 ef 43 3f 4a 10 1d 3f
       0.33301097 0.88958466 0.76537365 0.6135298
0000e0 37 a6 58 3f 7b 0f 71 3f 00 70 4a 3a d4 c0 d1 3e
       0.84628624 0.94164246 0.0007722378 0.4096743
0000f0 28 c2 1e 3f e8 e3 ee 3d a8 f0 50 3f 7a 55 b8 3e
       0.6201501 0.116645634 0.8161721 0.36002713
000100 5c a6 5c 3f 83 a9 06 3f bc 38 11 3f d9 ce 20 3f
       0.86191344 0.52602404 0.56727195 0.62815624
000110 9c 35 1f 3f 5e 63 a0 3e 87 25 56 3f 6c b8 c1 3e
       0.62191176 0.3132581 0.8365101 0.37836015
000120 ea f4 dd 3e 80 b7 b7 3d 64 59 00 3f f7 84 22 3f
       0.43350917 0.08970547 0.501364 0.6348414
000130 ae 73 18 3f 73 ca f7 3e 3e a1 bc 3e 68 c9 cd 3e
       0.59551513 0.48396644 0.36841768 0.40192723
000140 9c a4 61 3e 30 8c 3c 3f 28 03 4d 3f 38 2b e9 3d
       0.2203545 0.7365141 0.8008294 0.113851964
000150 c4 5a 49 3e fe 07 3f 3f 5e 03 ec 3e 56 48 04 3f
       0.1966353 0.7462157 0.4609632 0.51672876
000160 35 3f 1f 3f e0 02 ab 3e ec 98 7c 3f 2a 2c 4e 3f
       0.6220582 0.3340063 0.9867084 0.8053614
000170 cd a3 14 3f a3 86 77 3f 3d 90 0a 3f 02 16 ad 3e
       0.5806244 0.96689814 0.5412634 0.33805853
000180 92 88 85 3e e9 2f 00 3f 70 a8 19 3e ec d5 52 3f
       0.26080757 0.50073105 0.1500566 0.8235767
000190 f0 7d 0e 3f a0 4e f7 3e 84 e7 1f 3f 7a 90 e4 3e
       0.55660915 0.48302174 0.6246264 0.44641477
0001a0 33 e9 29 3f 2c f2 10 3f a6 cb 11 3f d8 95 cf 3d
       0.6637146 0.56619525 0.5695137 0.10136002
0001b0 b8 40 ba 3e d2 c7 0b 3f b0 46 36 3e 5a 6f 1d 3f
       0.363775 0.54601777 0.17800403 0.61498034
0001c0 f0 d4 67 3f 63 8d 13 3f 7a 94 4f 3f 74 1b 2d 3f
       0.9055929 0.57637614 0.8108593 0.67620015
0001d0 f8 05 26 3f 2c 52 ca 3e 54 7d 0a 3f 6c f1 79 3e
       0.6485286 0.39515817 0.54097486 0.24408501
0001e0 18 0d 38 3f 4d e9 5d 3f 46 2f d5 3e 7c 9b 1d 3f
       0.7189498 0.86684114 0.4163763 0.61565375
0001f0 aa 5c 24 3f e0 7b 97 3e 65 7b 46 3f c8 8a 15 3f
       0.64203894 0.29586697 0.77532035 0.5841489
000200 c4 a9 51 3f 88 da 04 3f 9b 1f 72 3f a4 a1 11 3f
       0.81899667 0.5189595 0.94579476 0.5688727
000210 48 d4 d1 3e 64 dc 3c 3e 3a a7 f1 3e d0 dc 80 3d
       0.4098227 0.18443447 0.47197896 0.06292117
000220 08 42 a2 3d fb 2e 38 3f 2c a6 d3 3e f9 4c d1 3e
       0.07922751 0.71946687 0.41337717 0.40879038
000230 a8 55 ec 3d 7a 97 8c 3e 3f 41 36 3f 58 76 ff 3d
       0.11539775 0.27459317 0.7119331 0.12473744
000240 20 ea 96 3c 4f 73 04 3f 38 4c de 3e 9a a4 c1 3e
       0.018422186 0.51738447 0.43417525 0.37820894
000250 36 1f 42 3f 83 66 28 3f 9e 80 00 3f d0 e1 52 3f
       0.75828874 0.6578142 0.50196254 0.8237581
000260 88 8c 01 3f 40 6c 60 3e bc 6c ba 3e 40 de ca 3d
       0.5060506 0.21916294 0.36411083 0.09905672
000270 53 e3 53 3f 72 b3 f6 3e 51 53 4f 3f 30 dc f1 3e
       0.82768744 0.4818378 0.80986506 0.47238302
000280 b4 6f 19 3e 84 71 f3 3e dc 0e a9 3e fc 29 28 3f
       0.14984018 0.47547543 0.3301915 0.65689063
000290 f2 14 81 3e 38 f5 3e 3f 27 9e 3a 3f b8 c0 6e 3e
       0.25211293 0.74592924 0.7289757 0.23315704
0002a0 09 9d 4c 3f 09 2d 12 3f cd 7c af 3e 34 a6 ce 3e
       0.79927117 0.5709997 0.34274903 0.40361178
0002b0 4f 99 3c 3f 44 b4 2a 3f d7 ba 1a 3f 55 30 0e 3f
       0.7367143 0.66681314 0.60441345 0.555425
0002c0 6d ec 17 3f 6c 4d 18 3f be 1d f1 3e 3d 8b 30 3f
       0.5934513 0.59493136 0.47093004 0.6896246
0002d0 eb e8 72 3f a6 05 87 3f 66 f8 98 3e 00 11 24 3f
       0.94886655 1.0548599 0.29877013 0.6408844
0002e0 d0 40 23 3f f7 a7 61 3f ff 58 f1 3e 8f a1 11 3f
       0.6377077 0.8814692 0.4713821 0.56887144
0002f0 92 d6 26 3f 70 fa f4 3e 4e c9 3b 3f c2 b2 37 3f
       0.6517116 0.4784732 0.7335404 0.7175714
000300 b8 fd 88 3d 38 6b 03 3f 0c ab 7f 3e 14 0f e3 3e
       0.06689018 0.5133548 0.24967593 0.4434744
000310 0e 07 a0 3e 83 ea 75 3f 56 e9 bd 3e 10 3c 7c 3d
       0.31255382 0.9606096 0.37092084 0.061580718

l6.bias f4 [10]
000000 d0 6f 30 3d e2 08 47 3f 3e 86 dc 3e 74 aa 13 3e
       0.043075383 0.7774793 0.4307117 0.14420491
000010 8c 1c 2e 3f 56 9f 1d 3f c7 aa 22 3f b4 07 c5 3e
       0.6801231 0.6157125 0.63541836 0.3848244
000020 8c 06 1f 3f 20 1b 22 3f
       0.62119365 0.6332264

l6.weight f4 [10, 20]
000000 e6 8d ab 3e 20 d4 5e 3e 10 38 37 3f 58 0a 38 3f
       0.33506697 0.21760607 0.7156992 0.71890783
000010 52 cf 12 3f fa 35 eb 3e 94 e6 5a 3e 8c 2e d9 3e
       0.57347596 0.45939618 0.21377021 0.42418325
000020 98 87 26 3f b2 98 6c 3f d0 4e fa 3e 2e 86 df 3e
       0.6505065 0.92420495 0.48888254 0.43657058
000030 eb 2a 54 3f c4 c0 f8 3e fc 4a 5c 3e fc 87 25 3e
       0.8287799 0.48584569 0.2151298 0.16165155
000040 82 7b f6 3e 20 af 5f 3e 19 62 75 3f 41 92 43 3f
       0.48141104 0.21844149 0.9585281 0.7639504
000050 1e f1 14 3f cc 0d 0c 3e 28 73 a0 3e dd 69 5b 3f
       0.58180416 0.13677138 0.31337857 0.8570841
000060 a8 e1 23 3f 74 ca 50 3f fd 45 32 3f 7e 49 0e 3f
       0.640162 0.8155892 0.69638044 0.5558089
000070 ac e9 37 3f 20 6a 9a 3c 1e ef bc 3e 28 3b 0c 3f
       0.7184093 0.018849432 0.36901182 0.54777765
000080 5f b8 44 3f b0 23 4a 3f 75 0f 22 3f 06 1c 13 3f
       0.7684383 0.78960705 0.63304836 0.57464635
000090 22 b2 35 3f 43 37 cc 3e 9a fa 04 3f 86 67 2f 3f
       0.70974934 0.3988591 0.5194489 0.6851734
0000a0 04 22 f2 3e 0c 91 f3 3e 05 3d 41 3f 74 f8 ee 3e
       0.47291577 0.475716 0.75483733 0.4667393
0000b0 80 1e 7d 3e 10 c7 e6 3d f8 d6 3f 3e 5a 0d 0d 3f
       0.24718666 0.11268437 0.18734348 0.550985
0000c0 7a 15 72 3f 70 27 00 3f 04 5b ba 3e 2a 4e 49 3f
       0.9456402 0.50060177 0.36397564 0.78634894
0000d0 f0 3a 5d 3f 69 04 93 3e a8 be ad 3e 68 fa d3 3e
       0.86418056 0.28714302 0.33934522 0.41401982
0000e0 6a 79 e1 3e f6 78 0b 3f a8 5a 4a 3e f8 4b ff 3e
       0.44037944 0.54481447 0.19761145 0.49862647
0000f0 1b 29 70 3f c0 bb 8f 3c 94 c6 32 3e 70 74 db 3e
       0.9381272 0.01754558 0.17458564 0.42862272
000100 bc b7 20 3f 44 a7 6f 3e b8 41 32 3f ce 55 41 3f
       0.62780356 0.2340365 0.6963153 0.7552155
000110 c8 52 89 3e c0 36 7c 3d 5d 73 d0 3e 27 1b 06 3f
       0.2682097 0.06157565 0.40713015 0.5238518
000120 78 c3 b9 3d a2 a6 9b 3e 80 9c bf 3c d2 c8 1e 3f
       0.09070486 0.30400568 0.023390055 0.6202518
000130 0a c2 80 3e 67 29 1a 3f 58 87 19 3e bb 81 00 3f
       0.2514804 0.60219425 0.14993036 0.50197953
000140 f8 29 b2 3e fd 15 4c 3f ec b4 4d 3e 3d e0 1f 3f
       0.34797645 0.7972105 0.20088547 0.62451535
000150 40 ad 16 3f 08 ae da 3d e5 3f 1d 3f ad 93 38 3f
       0.5885811 0.10677725 0.6142562 0.72100335
000160 16 52 94 3e c3 b6 23 3f 99 09 ca 3e 38 8e 00 3f
       0.28968877 0.6395075 0.39460447 0.5021701
000170 aa c5 29 3f c6 1e 19 3f 5e d7 4b 3f a0 56 d6 3e
       0.66317236 0.5981258 0.796255 0.41862965
000180 91 e3 16 3f 74 d2 bb 3e 68 7e 14 3f 2b bc 19 3f
       0.5894099 0.36684 0.5800538 0.60052747
000190 a6 9d 00 3f a0 1b 1f 3e 4c 6f 3a 3f e1 71 53 3f
       0.5024055 0.15537882 0.72826076 0.8259564
0001a0 f0 4b f4 3e 68 db 03 3e 12 e0 1a 3f 70 0c dc 3d
       0.47714186 0.12876666 0.60498154 0.1074456
0001b0 d0 ba 3e 3e 4f 79 f4 3e c3 8b 23 3f a9 ee 43 3f
       0.18625951 0.477488 0.63885134 0.7653604
0001c0 46 20 49 3f b6 e5 c6 3e 0a 8c f2 3e 4a 66 bc 3e
       0.7856487 0.3884713 0.47372466 0.3679679
0001d0 99 97 0f 3f 40 7a 8a 3c d8 ad 63 3e 3c b4 7d 3f
       0.56090695 0.016903996 0.22234285 0.9910314
0001e0 22 c5 25 3f bf 29 0f 3f dc 15 f5 3e 5d 50 46 3f
       0.64753926 0.55923074 0.4786824 0.77466375
0001f0 a2 cd 8f 3e 4a cd ec 3e bc df 37 3f cc 6e 8b 3e
       0.28086573 0.46250373 0.71825767 0.2723297
000200 08 e9 84 3e 64 cb 1e 3f 0a 62 b5 3e 82 8d 87 3e
       0.2595904 0.620291 0.3542636 0.2647515
000210 64 51 03 3f ba 16 6d 3f eb 02 fd 3e 8e 83 fb 3e
       0.5129607 0.92612803 0.4941629 0.49123806
000220 fa f1 07 3f 64 e3 29 3f d4 ea d3 3e 90 6a 31 3e
       0.531036 0.66362596 0.41390097 0.17325807
000230 70 c2 16 3f 38 29 1a 3e 00 51 d0 3d a6 f1 d5 3e
       0.5889044 0.15054786 0.101716995 0.41785926
000240 a8 4c c7 3e 30 90 e9 3e 4b 86 5e 3f 4c 82 67 3f
       0.38925672 0.4561782 0.86923665 0.9043319
000250 cb d2 44 3f fb e0 14 3f a8 83 e3 3e 9a fb c1 3e
       0.76884145 0.5815579 0.44436383 0.3788727
000260 f4 0b ba 3e ec 38 33 3f 2a cf 11 3f e3 41 6f 3f
       0.36337245 0.7000873 0.5695673 0.9345991
000270 fb 31 13 3f 27 26 c9 3e 88 39 29 3f d4 a4 f0 3e
       0.5749814 0.3928692 0.6610341 0.47000754
000280 f9 e3 24 3f 99 8b 69 3f 8d 09 8e 3f 1c a0 db 3e
       0.6441036 0.91228634 1.1096665 0.4289559
000290 4c 63 6a 3f 10 3e 63 3e b1 9b b4 3e bd 84 0c 3f
       0.91557765 0.22191644 0.35275033 0.5489004
0002a0 d4 2f cc 3e 2c f2 c0 3e 88 79 b2 3e 0a 68 23 3f
       0.3988024 0.37684762 0.34858346 0.63830626
0002b0 9a c6 8c 3e b6 49 97 3e ec 2c 13 3f f7 08 08 3f
       0.2749527 0.29548424 0.5749042 0.5313868
0002c0 52 df a5 3e ec e6 33 3f 6e 78 de 3e d8 c1 c9 3d
       0.32396942 0.70274234 0.43451256 0.09851426
0002d0 da 86 d5 3e 90 a2 01 3f 10 05 c6 3e 3a a9 fc 3e
       0.41704446 0.50638676 0.38675737 0.4934786
0002e0 d0 50 c4 3e 56 bb e7 3e 1d a6 76 3f 31 e7 62 3f
       0.38342905 0.45260113 0.9634722 0.8863402
0002f0 14 d4 7a 3e 20 31 7b 3d 38 df 8c 3d 15 00 21 3f
       0.24494964 0.061326146 0.06878513 0.6289075
000300 b2 5d 1d 3f e7 e7 04 3f 18 58 b2 3e 5e 48 e8 3e
       0.6147109 0.51916355 0.34832835 0.45367712
000310 1c 71 05 3f cb 48 5b 3f c6 0c 88 3e ad 12 25 3f
       0.52125716 0.8565795 0.26572245 0.6448162

l5.bias f4 [20]
000000 1e ad 9c 3e a8 a6 c2 3d 78 aa 78 3e 80 8c 94 3e
       0.30600828 0.095044434 0.24283779 0.29013443
000010 be 72 f7 3e 83 34 0b 3f a8 55 cf 3d 1e e3 34 3f
       0.4832973 0.54377 0.101237595 0.70659053
000020 9a 0d ed 3e b8 24 56 3e e7 8d 4d 3f ac 49 95 3e
       0.4629944 0.20912445 0.8029465 0.2915777
000030 9e 15 44 3f 16 79 43 3f 01 98 20 3f e8 25 62 3e
       0.76595485 0.7635664 0.6273194 0.22084773
000040 06 81 84 3e c6 d8 98 3e 78 63 3b 3e 49 75 8a 3e
       0.25879687 0.29852885 0.18299663 0.27042606

l5.weight f4 [20, 10]
000000 a6 f4 c7 3e ba 0c 0e 3f 17 24 40 3f f7 84 2c 3f
       0.3905384 0.5548817 0.7505507 0.6739039
000010 20 89 8b 3e d5 21 01 3f 34 ea 3c 3f c4 12 9e 3e
       0.27253056 0.5044225 0.73794866 0.30873692
000020 c0 f6 03 3f cf 1a 4d 3f 15 49 4a 3f 5a 5e b5 3e
       0.51548386 0.8011903 0.79017764 0.35423547
000030 16 0e 6e 3e 08 66 6c 3e 62 c7 de 3e c2 c3 f4 3e
       0.23247561 0.23085797 0.43511492 0.478056
000040 40 5f cf 3e 2e e4 e0 3e 36 e8 95 3e 28 ac fe 3d
       0.40502357 0.43924087 0.29278725 0.1243518
000050 2c b7 04 3f 49 8f 06 3f a4 e8 f9 3e 98 f3 82 3e
       0.51842 0.52562386 0.48810303 0.25576472
000060 84 5b 84 3e 74 c0 80 3e 16 dc 05 3f 5e 8a c6 3e
       0.2585107 0.2514683 0.5228895 0.3877744
000070 5f 7b 0d 3f 4c 30 12 3f 20 bd ae 3e a0 f2 39 3d
       0.55266374 0.57104945 0.34128666 0.0453974
000080 43 7b 64 3f ed 68 26 3f 4a 14 00 3f cf 18 1a 3f
       0.8925058 0.65003854 0.5003096 0.60194105
000090 48 30 55 3e a8 39 d6 3d dc 25 15 3f fe 4f 12 3f
       0.20819199 0.10460216 0.58260894 0.5715331
0000a0 4e af fe 3e 4e 82 b9 3e 83 a2 14 3f 02 15 06 3f
       0.49743122 0.36232227 0.58060473 0.52375805
0000b0 1e dd c7 3e 64 15 5d 3e 3f 1c 2b 3f 25 0c 60 3f
       0.39035887 0.21590191 0.66839975 0.8751853
0000c0 24 88 25 3f 14 d6 49 3e 7e db d4 3e 10 23 db 3e
       0.6466086 0.1971057 0.4157371 0.42800188
0000d0 cf d7 ad 3e 22 03 a5 3e b8 a2 2e 3e c0 79 0c 3d
       0.3395371 0.32228953 0.1705426 0.034295797
0000e0 ae 20 ff 3e 3c c4 03 3f c1 38 68 3f 50 d1 99 3e
       0.4982962 0.51471305 0.907116 0.30042505
0000f0 65 4d a9 3e 7d 40 15 3f e8 06 83 3e 23 a4 48 3f
       0.3306686 0.58301526 0.25591207 0.7837545
000100 47 d3 5f 3f e0 26 fa 3d 12 8d 41 3f 93 96 44 3f
       0.8743176 0.12214446 0.7560588 0.7679226
000110 f4 eb 3c 3f 30 66 41 3e 00 8a a3 3b de 22 cf 3e
       0.73797536 0.18886638 0.004990816 0.4045629
000120 3f ee be 3e 72 1b ce 3e 96 73 4d 3f 60 ac 5e 3f
       0.37291142 0.40255314 0.80254495 0.86981773
000130 23 95 58 3f 01 f8 0c 3f 18 97 71 3e f8 f9 f4 3e
       0.84602565 0.55065924 0.23592794 0.4784696
000140 9c bb e8 3e 82 c4 e9 3e d8 24 e3 3d 10 1a 6c 3f
       0.45455635 0.45657736 0.11091012 0.9222727
000150 6e e8 38 3f f5 20 15 3f 41 c0 1f 3f 78 43 10 3f
       0.7222966 0.58253413 0.6240273 0.5635295
000160 59 18 17 3f 73 90 0d 3f 1e 77 89 3e 51 38 17 3f
       0.59021527 0.55298537 0.26848692 0.59070307
000170 c9 0f 6e 3f 98 2a 6f 3e 28 63 a2 3d f3 8a b1 3e
       0.92992836 0.23356092 0.07929069 0.34676322
000180 64 ae bd 3e 10 2e 41 3d 19 1f b9 3e 58 40 99 3e
       0.37047112 0.04716307 0.36156538 0.29931903
000190 80 ef 4f 3f e8 12 19 3f 8a f2 1f 3f 08 f4 39 3f
       0.81224823 0.59794474 0.6247946 0.7263799
0001a0 b6 b6 f2 3e 5a ba 1a 3f 0f a6 54 3f 30 28 2a 3e
       0.47405022 0.604406 0.83065885 0.16616893
0001b0 ff 2b a8 3e fc 39 0d 3f 6b 33 2c 3f 6c 95 ae 3e
       0.32846066 0.551666 0.6726596 0.34098375
0001c0 a2 5a 19 3f 39 39 77 3f 3c 75 0b 3f 42 5d cd 3e
       0.5990392 0.9657169 0.5447576 0.40110213
0001d0 00 8b f5 3d 0e 7a fc 3e b3 51 7c 3f 8c 7c 73 3e
       0.11989403 0.4931187 0.98562163 0.2377798
0001e0 b2 28 c8 3e 76 db bc 3e 06 6c 13 3f cc 00 88 3e
       0.39093548 0.36886185 0.57586706 0.26563108
0001f0 0e 75 2c 3f 9f 7c 57 3f b3 85 1d 3f b4 71 66 3e
       0.6736611 0.8417453 0.61532134 0.22504312
000200 82 60 e7 3e e9 90 bc 3e 02 aa 94 3e cc a6 65 3e
       0.45190817 0.36829308 0.29035956 0.22426909
000210 64 a0 aa 3e 72 f6 c6 3e 3a e6 b3 3e 44 e3 63 3e
       0.33325493 0.38859898 0.35136586 0.22254664
000220 0a f4 16 3f c0 e8 36 3c cc 9a 4e 3e 8c d7 30 3e
       0.58966124 0.01116389 0.20176238 0.17269725
000230 ea e7 00 3f f8 62 86 3e 88 80 4e 3f 8e 5c be 3e
       0.5035387 0.26247382 0.80664873 0.3717999
000240 e3 d4 47 3f 09 e1 4a 3f d4 ee 39 3f 9e e1 2a 3f
       0.78059214 0.79249626 0.7263005 0.66750515
000250 70 69 f8 3d 91 4b a7 3e 2c e6 43 3e 99 3c 18 3f
       0.121294856 0.3267484 0.19130772 0.59467465
000260 10 00 b1 3d ec 57 83 3e 0a c9 e5 3e 00 d8 d8 3d
       0.0864259 0.25653017 0.44879943 0.10588074
000270 d1 45 71 3f 10 61 1c 3d 36 1f 98 3e 2a 48 da 3e
       0.94247156 0.038178504 0.29711312 0.42633182
000280 86 5d 2d 3f 86 fc fd 3e f0 8f ef 3e 2b c9 3b 3f
       0.6772083 0.49606723 0.46789503 0.7335383
000290 9c 69 b9 3e 26 c8 bf 3e 6b 8e 1e 3f 58 b9 ef 3e
       0.36213386 0.3745739 0.6193606 0.46821094
0002a0 66 94 b7 3e 02 ed 94 3e ee cc 8e 3e 60 36 0d 3f
       0.35855407 0.29087073 0.27890724 0.55161095
0002b0 ee c4 d5 3e af 34 ad 3e d1 49 1b 3f 8c 26 12 3f
       0.41751808 0.33829257 0.6065951 0.5709007
0002c0 ec 38 31 3f 07 ac 69 3f 1c 42 3e 3f 4a ce 9d 3e
       0.6922748 0.9127812 0.74319625 0.3082145
0002d0 e2 f4 9a 3e c0 8d 7f 3d 95 29 4e 3f 41 dc f9 3e
       0.30264956 0.062391043 0.805322 0.48800853
0002e0 28 1e fb 3e 02 bf ab 3e bc 6b de 3e 6a 70 a8 3e
       0.49046445 0.33544165 0.4344157 0.32898265
0002f0 4a f8 fa 3e 5a 10 36 3f fb 57 fc 3e 80 e4 71 3d
       0.49017555 0.711187 0.49285874 0.059055805
000300 ac b7 bb 3e eb ab 1f 3f cb 04 73 3f ab 7d 0e 3f
       0.36663568 0.623717 0.9492919 0.55660504
000310 27 42 63 3f 3c 85 5b 3e 84 20 6c 3e 89 7a 34 3f
       0.88772815 0.21437544 0.23059279 0.70499474

l4.bias f4 [10]
000000 30 3e 3b 3f 0c 9b 77 3e c2 a3 c6 3e 99 18 26 3f
       0.73141766 0.2418024 0.38796812 0.64881283
000010 00 7b 12 3d b0 9f 51 3e 5a 15 cc 3e 27 6f 1f 3f
       0.035761833 0.20471072 0.3986004 0.6227898
000020 29 31 1b 3f 14 4e 02 3e
       0.6062189 0.12725097

l4.weight f4 [10, 20]
000000 ec 16 62 3f 98 43 13 3f 60 4e 09 3f f3 75 20 3f
       0.88316226 0.57525015 0.53635216 0.62679976
000010 80 4c b1 3d 0b 4e 29 3f d0 f3 8c 3d c6 32 b9 3e
       0.08657169 0.6613471 0.06882441 0.3617155
000020 bc c2 b9 3e 68 da da 3d 2b f3 08 3f b6 09 75 3f
       0.36281383 0.10686189 0.53496045 0.9571794
000030 71 43 00 3f ff 52 23 3f 4a d1 10 3f 19 04 01 3f
       0.5010291 0.63798517 0.5656935 0.5039688
000040 a4 a3 1d 3f 3f dc 10 3f f3 7c 1c 3f bc 03 06 3f
       0.6157782 0.5658607 0.6112816 0.5234945
000050 9c f8 04 3e 68 1b 47 3f 80 5e 0c 3f 3f 63 11 3f
       0.12985462 0.77776194 0.54831696 0.5679206
000060 e5 b8 3d 3f 29 af 42 3f 00 53 20 3d f7 43 db 3e
       0.7411025 0.76048523 0.039141655 0.4282529
000070 be e9 d8 3e 79 b2 5d 3f f6 6a bf 3e 14 79 18 3e
       0.4236583 0.8660045 0.37386292 0.14889938
000080 64 da 80 3e 90 06 d2 3e d8 08 5d 3e fe dc 35 3f
       0.2516662 0.41020632 0.21585405 0.7104033
000090 d6 a9 cd 3e 43 0a ee 3e 3c f8 39 3f bb ec 17 3f
       0.40168637 0.46492204 0.726444 0.593456
0000a0 6e 1d 04 3f 7c 10 16 3f ec 36 1d 3e 8e a1 85 3e
       0.51607406 0.58618903 0.15352982 0.2609982
0000b0 9c 51 9b 3e 36 41 5b 3f bb 7f 47 3f e6 0a ec 3e
       0.303357 0.8564638 0.77929276 0.46102065
0000c0 b5 44 65 3f a4 e6 11 3f c7 8e 48 3f 5e 10 89 3e
       0.89557964 0.56992555 0.7834286 0.267703
0000d0 d4 8b 1f 3f 18 86 0b 3e c8 83 0e 3e d2 78 10 3f
       0.62322736 0.13625371 0.13917458 0.5643436
0000e0 89 82 67 3f 7c bd 1b 3e 14 14 b1 3e 48 b4 55 3e
       0.90433556 0.15209001 0.3458563 0.20869553
0000f0 3c 8a 75 3e d1 b9 68 3f c5 66 29 3f 44 3c 0c 3f
       0.23978513 0.90908533 0.6617244 0.5477946
000100 b1 64 35 3f ac e3 15 3f 34 8d 21 3f 03 b0 75 3f
       0.7085677 0.58550525 0.63106084 0.959717
000110 08 36 82 3d 84 93 8a 3e 00 a5 32 3e 5a 33 78 3f
       0.06357962 0.2706567 0.17445755 0.96953356
000120 bf 98 07 3f 2d 8c 57 3f 74 5c fa 3e 84 39 c1 3e
       0.5296745 0.84198266 0.4889866 0.37739193
000130 b3 21 63 3f 70 f5 5b 3e 5a 7b ad 3e 99 99 67 3f
       0.88723296 0.21480346 0.33883172 0.90468746
000140 17 30 40 3f 4c 3f 5c 3f 63 5d 2d 3f c0 33 b0 3e
       0.7507338 0.86034083 0.6772062 0.34414482
000150 66 84 3b 3f e0 e2 69 3f a8 6c b6 3e 0a c7 47 3f
       0.732489 0.9136181 0.35629773 0.78038085
000160 bb f2 16 3f ec d4 1b 3e 55 9e 58 3f 10 a2 3b 3f
       0.5896413 0.15217942 0.84616596 0.7329416
000170 38 4e 05 3f 1e db c3 3e 18 c5 20 3f d1 4f 35 3f
       0.5207248 0.3825311 0.6280074 0.70824915
000180 82 11 63 3f 21 ee 55 3f 00 eb d2 3d 33 ed 51 3f
       0.8869859 0.8356648 0.10298729 0.8200256
000190 51 de 29 3f a4 53 a8 3e ac b2 a2 3e ca 42 fe 3e
       0.6635485 0.32876313 0.3177694 0.4966033
0001a0 f4 7c b8 3e a8 46 11 3f 90 4a b7 3e 40 82 83 3e
       0.36032832 0.5674844 0.35799074 0.2568531
0001b0 d7 46 3f 3f 0e eb 0a 3f f3 c9 15 3f f9 14 fc 3e
       0.7471747 0.54264915 0.58511275 0.4923475
0001c0 db ca 45 3f e7 8a ba 3e 3c 69 c8 3e 93 c4 59 3f
       0.7726266 0.364341 0.39142787 0.85065573
0001d0 c8 94 c8 3d 68 73 93 3e d0 04 e7 3e a0 72 ba 3e
       0.09794003 0.28798985 0.4512086 0.36415577
0001e0 30 61 f8 3e f8 ec 20 3e 87 d9 01 3f 20 3c 70 3d
       0.48511648 0.15715396 0.50722545 0.05865109
0001f0 00 1f 53 3e fa 63 db 3e 8c fc 17 3f 78 32 d2 3e
       0.20617294 0.42849714 0.5936973 0.4105413
000200 de 46 44 3f f9 2e 0a 3f 40 74 1c 3f 62 fa 4d 3f
       0.76670635 0.53977925 0.61114883 0.8046018
000210 9a b1 37 3f d6 45 70 3f 24 f6 10 3f c4 3a fd 3e
       0.71755373 0.9385656 0.5662558 0.49458897
000220 9d 63 8a 3e 28 81 40 3e 5a fa 19 3f 18 0f dd 3e
       0.27029124 0.18799269 0.6014763 0.43175578
000230 d7 72 29 3f a2 eb ad 3e f8 b5 81 3d 9e 11 39 3f
       0.66190857 0.33968836 0.06333536 0.72292507
000240 e1 d6 79 3f 70 ad 08 3f 11 ba 2e 3f aa f9 e5 3e
       0.97593504 0.53389645 0.68252665 0.4491704
000250 bc 8c 7e 3e ec 15 a2 3e 60 7c c7 3e 8b 71 2d 3f
       0.24858373 0.3165735 0.38962078 0.6775138
000260 a0 61 ea 3c bc 31 8b 3e 06 7e 22 3f 76 22 02 3f
       0.028611004 0.27186382 0.63473547 0.50833833
000270 50 2f 53 3f fa b5 9c 3e b2 14 51 3f 00 76 e9 3d
       0.8249407 0.30607587 0.81672204 0.1139946
000280 0b 68 ef 3e 26 14 e9 3e 45 5b 46 3f 05 6b 86 3e
       0.46759066 0.45523185 0.77483016 0.26253524
000290 73 a9 31 3f 4b e7 15 3f f7 ce 38 3f c0 8a 32 3f
       0.69399184 0.5855605 0.72190803 0.69742966
0002a0 0b 78 27 3f 16 d4 cd 3e 5c 5a 73 3e 29 52 e9 3e
       0.65417546 0.4020087 0.23764938 0.45570496
0002b0 90 d2 23 3e 00 83 6d 3b f4 90 28 3e ed 4d 54 3f
       0.15998292 0.0036241412 0.16461545 0.82931405
0002c0 fd 53 0d 3f 86 6e c3 3e 1f 25 33 3f 39 67 00 3f
       0.5520628 0.3817026 0.6997852 0.50157505
0002d0 ac 22 13 3f d4 c0 5b 3e 40 83 21 3e d2 32 27 3f
       0.5747478 0.21460277 0.15772724 0.6531192
0002e0 aa 26 be 3e 6f 34 46 3f a8 98 eb 3d b6 ef 72 3f
       0.37138873 0.7742376 0.11503726 0.9489702
0002f0 f1 c4 62 3f 72 69 d8 3e 8b 16 23 3f 0e 41 49 3e
       0.8858176 0.42267948 0.6370627 0.19653723
000300 f0 86 25 3f 54 0a 33 3f 8f c0 e9 3e 2b bd 73 3f
       0.64659023 0.69937634 0.45654723 0.9521052
000310 4a 28 14 3f 7d 73 2f 3f fd 74 64 3f 3e 5b c0 3e
       0.57873976 0.68535596 0.8924101 0.37569612

l3.bias f4 [20]
000000 66 f5 96 3e 56 9d ca 3e cb 14 ed 3e 4c 36 7f 3e
       0.294841 0.39573163 0.46304926 0.24923056
000010 c0 ce c4 3d 8c 1f 2e 3f 20 47 2c 3d b8 97 92 3e
       0.09609747 0.68016887 0.042060018 0.28631377
000020 e7 01 27 3f 0c e6 d5 3e 64 6f aa 3e b0 bc 2b 3f
       0.6523728 0.41777074 0.3328811 0.6708479
000030 1a 1a b1 3e 7a 8d 8c 3e 22 1c 51 3f 43 7f 26 3f
       0.34590226 0.27451688 0.8168355 0.65037936
000040 7e ec 83 3e bc 23 30 3f c2 3e f1 3e ee 40 b9 3e
       0.25766367 0.68804526 0.47118193 0.3618235

l3.weight f4 [20, 10]
000000 4f 72 60 3f f0 c4 ef 3d 52 c5 10 3f 1e 24 8f 3e
       0.8767442 0.11707485 0.56551087 0.27957243
000010 d2 50 bd 3e 56 46 b5 3e d0 c8 10 3f 5e b9 66 3f
       0.36975724 0.35405225 0.56556416 0.901266
000020 da f1 29 3f 26 c7 29 3f ef 60 3a 3f b8 53 77 3e
       0.6638466 0.663195 0.7280416 0.2415303
000030 37 35 1b 3f db 53 28 3f 5d 26 38 3f 8c 58 92 3e
       0.60628074 0.65752953 0.7193354 0.2858318
000040 af 8b 14 3f b6 39 85 3e ea 4f 12 3f a0 02 98 3e
       0.5802564 0.26020592 0.5715319 0.29689503
000050 6a 59 23 3f f0 1e ad 3e 42 89 95 3e 12 74 23 3f
       0.6380831 0.33812666 0.29206282 0.63848984
000060 c9 c7 00 3f e4 b4 9b 3e dc 6c b8 3e c9 e1 15 3f
       0.5030485 0.30411446 0.36020553 0.58547646
000070 d8 15 c7 3d 56 f8 21 3f 23 4a 1e 3f 5c 74 0a 3f
       0.09720963 0.63269556 0.61831874 0.540838
000080 6c 70 04 3f ec e5 1c 3f 64 d4 f1 3e a0 91 36 3f
       0.5173404 0.6128833 0.47232354 0.71315956
000090 ae e7 00 3f 80 64 e9 3d a0 88 76 3d 70 b7 3c 3f
       0.50353515 0.11396122 0.06018889 0.73717403
0000a0 8e 4c c9 3e 61 5e 51 3f ec 64 50 3e 70 22 5e 3f
       0.3931622 0.81784636 0.20350999 0.867713
0000b0 18 e4 dd 3e 84 3d 5a 3e a5 c7 25 3f 4e 19 d5 3e
       0.43338084 0.21312529 0.6475776 0.41620868
0000c0 b0 08 70 3e 11 51 f7 3e 18 15 f9 3d 32 29 2b 3f
       0.23440814 0.48304036 0.121622264 0.66859734
0000d0 75 7a 1c 3f 59 3e 79 3f a0 b2 17 3e 3c 64 65 3e
       0.61124355 0.9736076 0.14814234 0.22401518
0000e0 40 42 d9 3e e8 ab 49 3f fc c7 40 3e b4 4f 9a 3e
       0.42433357 0.78777933 0.18826288 0.30138934
0000f0 6a 7c fe 3e ca 93 e5 3e c0 e2 ed 3e be 2a cd 3e
       0.49704295 0.44839317 0.4646206 0.40071672
000100 b9 f0 63 3f 69 31 3d 3f 5a 67 0d 3f 42 1b 19 3f
       0.8903919 0.7390352 0.55235827 0.5980722
000110 56 3e e4 3e d2 d9 3e 3f b0 a1 7e 3e c3 57 24 3f
       0.4457881 0.7455112 0.24866366 0.64196414
000120 dc 80 6f 3e bf e4 2f 3f 0e c2 d3 3e dc 0b 08 3f
       0.23389 0.68708414 0.4135899 0.53143096
000130 98 e4 2c 3e 8c f6 04 3f 3c 48 0b 3f 1a 98 53 3e
       0.16884077 0.519387 0.54407096 0.20663491
000140 c7 d9 4b 3f d4 7f 56 3e 88 c1 b2 3d 3c af 1d 3f
       0.79629177 0.209472 0.087283194 0.6159551
000150 55 52 11 3f 72 3a 9c 3e 24 a0 2b 3e b2 9a e7 3e
       0.56766254 0.3051334 0.16760308 0.4523521
000160 80 dc c9 3c 48 f4 d5 3d 24 cd 4a 3f ee 50 b0 3e
       0.024641275 0.104469836 0.7921927 0.34436744
000170 8c 41 e9 3e 9e 50 8f 3e f3 00 31 3f f3 d2 6c 3f
       0.4555782 0.27991194 0.69142073 0.9250938
000180 6c d3 59 3e e8 1f de 3e de 95 85 3e 57 86 54 3f
       0.21272057 0.43383718 0.26090902 0.83017486
000190 1c a0 19 3f b4 d6 a0 3e a8 15 dc 3e 7e 10 a0 3e
       0.6000993 0.31413805 0.42985272 0.31262583
0001a0 3a 79 c1 3e 6c f8 47 3f 0c 1e fe 3e 88 b4 84 3e
       0.377878 0.78113437 0.496323 0.25918984
0001b0 60 7c 35 3d fc 14 c2 3e d2 bd 83 3e e3 3f 36 3f
       0.044308066 0.37906635 0.2573076 0.71191233
0001c0 08 94 c0 3e 66 18 1e 3f 4a 3b 2d 3f 32 da 4c 3f
       0.3761294 0.6175598 0.6766859 0.8002044
0001d0 cc ca 7b 3e a8 e5 f5 3d 5a 50 fc 3e 5a 31 4e 3f
       0.2458908 0.12006694 0.49280053 0.80544055
0001e0 f8 69 99 3e b0 69 a4 3d c6 45 fc 3e ec 29 22 3f
       0.2996366 0.08027971 0.49271983 0.6334522
0001f0 da bc cf 3e 7e 5a f2 3e 45 80 22 3f 20 04 ba 3e
       0.4057377 0.47334665 0.63476974 0.36331272
000200 80 be 88 3e 54 2c 18 3e b3 53 48 3f 3e 4a 58 3f
       0.2670784 0.1486066 0.78252715 0.84488285
000210 0c 6c 39 3e 98 f0 7c 3f c4 b7 ac 3e 9c 6a 7d 3f
       0.18107623 0.98804617 0.33733952 0.989908
000220 00 6e 82 3e 91 e8 fb 3e 80 e9 ca 3e 00 0c 0e 3d
       0.25474548 0.49200872 0.3963127 0.034679413
000230 fa 7c e9 3e 50 29 38 3f 5a 7f 4b 3f dd 56 c4 3e
       0.45603162 0.7193804 0.794912 0.3834752
000240 02 90 12 3f 80 db e3 3b 48 56 fb 3d c8 4a fb 3d
       0.5725099 0.0069536567 0.12272316 0.12270123
000250 8c 6c 4d 3e 20 b2 97 3c 70 ca 3d 3e 6c 32 f1 3e
       0.20060939 0.018517554 0.18534255 0.4710878
000260 60 05 c9 3e 5e eb d0 3e a8 31 8c 3e c7 9f 13 3f
       0.39261913 0.4080457 0.27381635 0.57665676
000270 82 9d 1b 3f bc af b3 3e ce c7 04 3f 9f a3 13 3f
       0.6078721 0.35095012 0.5186738 0.5767154
000280 7c 41 a3 3e d4 e3 67 3f 4c f0 3c 3e e2 c3 c6 3e
       0.31885898 0.90582013 0.18451041 0.38821322
000290 c8 68 dd 3e 50 76 75 3e fe c2 3e 3f 68 c3 b8 3d
       0.43244004 0.23970914 0.74516284 0.09021646
0002a0 e6 a3 01 3f 49 9b 6d 3f 7a af 5a 3f 80 b3 f9 3e
       0.50640714 0.9281507 0.85424006 0.4876976
0002b0 18 87 bb 3d d0 73 65 3f 6a 81 fa 3e e4 a6 f3 3e
       0.091566265 0.8962984 0.4892686 0.47588265
0002c0 7c 80 17 3f 07 a9 12 3f f0 ad 3a 3d 41 68 7a 3f
       0.59180427 0.57289165 0.045576036 0.9781533
0002d0 c7 3b 54 3f c6 61 b9 3e 10 ec 07 3f 91 5e 57 3f
       0.82903713 0.36207408 0.5309458 0.8412867
0002e0 0d 54 69 3f f0 98 b8 3d 40 52 24 3d 0e 91 c1 3e
       0.91143876 0.090135455 0.040117502 0.3780598
0002f0 94 a3 4b 3f 3a 09 ab 3e 06 71 16 3f a6 ac c7 3e
       0.79546475 0.33405477 0.5876621 0.38998908
000300 60 b7 72 3e 9c 0d 32 3f b2 07 04 3f 29 92 5b 3f
       0.23702765 0.69552016 0.5157424 0.857699
000310 38 1b bb 3e 7c 05 86 3e 8c 7a 26 3f 0b 1d 82 3e
       0.36544204 0.2617606 0.6503074 0.25412783

l2.bias f4 [10]
000000 0b 2e 38 3f cd 33 d6 3e 4c 33 03 3f 48 2d cc 3e
       0.71945256 0.41836396 0.5125015 0.39878297
000010 5b 18 2d 3f 67 d2 15 3f 0d bf 0e 3f 1f 1a 5b 3f
       0.6761529 0.58524173 0.5576027 0.8558673
000020 07 44 35 3f d0 fd 28 3d
       0.70806926 0.04125768

l2.weight f4 [10, 20]
000000 d4 9d b9 3e 2c 9a 1a 3e da 99 64 3f 28 dc c7 3e
       0.36253226 0.15097874 0.8929726 0.39035153
000010 c0 8c 07 3e 54 d6 13 3f 68 35 c6 3e 74 52 90 3e
       0.13237286 0.57748914 0.3871262 0.28187907
000020 68 7c a9 3e eb 7b 50 3f 13 8c 5a 3f 0c d2 04 3f
       0.33102727 0.81439084 0.85369986 0.51883006
000030 76 c4 37 3f 60 6a ef 3e 81 95 44 3f 19 e7 47 3f
       0.7178415 0.46760845 0.76790625 0.78087
000040 9b ba 13 3f c2 8d 92 3e 9a 2a 4e 3f b3 d5 02 3f
       0.5770661 0.28623778 0.80533755 0.5110733
000050 1a cc a9 3e f3 c3 33 3f c0 6b 6d 3d 3b 3f 1d 3f
       0.3316353 0.7022087 0.057964087 0.6142461
000060 d2 9f 31 3f 47 83 3b 3f 0c 0a d4 3e 12 85 64 3e
       0.6938449 0.7324719 0.41413915 0.22316387
000070 1c 1d 70 3e 38 26 45 3f 25 91 40 3f ac 22 5d 3e
       0.23448604 0.7701144 0.7522147 0.21595258
000080 8c 35 70 3f 55 dc 1e 3f 7a 76 cb 3e ee 4d ef 3e
       0.93831706 0.6205495 0.39738828 0.46739143
000090 be 65 f2 3e d8 bd 1c 3f 7e 9b b5 3e f9 ef 03 3f
       0.47343248 0.6122718 0.35470194 0.51538044
0000a0 30 1c 53 3f bd 4f 08 3f 2c 69 2f 3f c4 56 14 3e
       0.82464886 0.5324667 0.68519855 0.14486223
0000b0 93 bb 17 3f e0 65 c5 3c 45 49 34 3f f0 54 36 3e
       0.5927059 0.02409643 0.704243 0.17805839
0000c0 a0 79 8c 3c d2 d0 ca 3e d0 75 a4 3d d6 35 51 3f
       0.01714784 0.39612442 0.080302835 0.8172277
0000d0 57 4c 34 3f 66 8e 29 3f dd a3 58 3f 94 8b c7 3e
       0.70428985 0.6623291 0.84625036 0.38973677
0000e0 52 a1 00 3f a8 05 94 3e a0 24 7f 3e 78 d1 2e 3e
       0.50246155 0.28910565 0.24916315 0.17072093
0000f0 ce 41 b7 3e 24 0d c4 3e 54 af 56 3f d4 5c e6 3e
       0.35792392 0.38291276 0.8386128 0.44992697
000100 48 40 2b 3f 08 a8 a1 3e 10 b8 fc 3e ae cd a7 3e
       0.6689496 0.3157351 0.4935918 0.3277411
000110 30 99 7b 3e 1d 0c 7e 3f 15 26 6e 3f df bf 09 3f
       0.24570155 0.99237233 0.9302686 0.538084
000120 1c 49 b5 3e 80 8f 36 3f 1c 62 20 3f 10 70 c7 3e
       0.3540734 0.71312714 0.62649703 0.38952684
000130 11 c1 80 3e 2c 60 4d 3f 78 ce ac 3d ef 54 0b 3f
       0.25147298 0.8022487 0.08437818 0.54426473
000140 b4 78 09 3e ec 27 8f 3e be 08 20 3f 2c 99 c4 3e
       0.13424951 0.27960145 0.6251334 0.3839811
000150 d8 21 5e 3f b0 ab 27 3f 8a e5 13 3f e8 44 75 3e
       0.8677039 0.6549635 0.57772124 0.23952067
000160 26 7f cf 3e 77 d6 52 3f d3 f1 02 3f 7c d2 c2 3e
       0.40526694 0.823585 0.51150244 0.38051212
000170 34 16 05 3e f0 f5 15 3f 4e 21 5a 3f 73 dc 5f 3f
       0.12996751 0.58578396 0.8520707 0.87445754
000180 a4 8b 17 3f cc 34 0d 3e 9e 63 c5 3e 9b 87 47 3f
       0.5919745 0.13789672 0.38552564 0.7794129
000190 19 0e 58 3f e6 81 e7 3e 1d fb 5a 3f 8a 22 96 3e
       0.8439651 0.45216292 0.8553942 0.29323226
0001a0 54 1c b9 3e 28 63 96 3d 90 1f 1f 3f a8 b9 c9 3e
       0.36154425 0.07343131 0.62157536 0.39399457
0001b0 dc 3d 37 3f 70 52 46 3e bc 4b ce 3e c0 ff 84 3e
       0.71578765 0.19367385 0.40292156 0.25976372
0001c0 5e 7a a5 3e 12 c6 82 3e ef b7 5b 3f ab ca 08 3f
       0.3231992 0.2554174 0.85827535 0.53434247
0001d0 81 51 72 3f 29 3b 0b 3f 48 a6 9e 3d 68 a4 dc 3e
       0.94655615 0.54387146 0.077465594 0.43094182
0001e0 38 70 45 3f 5f ba 40 3f 3c 1c 1a 3f 67 c5 58 3f
       0.7712436 0.7528438 0.6019933 0.8467621
0001f0 3e ee a1 3e bb 13 0b 3f 34 8e 41 3f c7 c2 6a 3f
       0.31627077 0.5432698 0.7560761 0.91703457
000200 5f 93 2a 3f c6 e6 13 3f 5a 28 85 3e 64 88 fe 3e
       0.6663112 0.5777401 0.26007348 0.49713433
000210 d0 6f 05 3f 62 d9 0a 3f 33 1e 1e 3f b9 05 3e 3f
       0.5212374 0.5423795 0.6176483 0.7422748
000220 78 b5 11 3f d8 13 18 3f 18 df ef 3e 6a db b7 3e
       0.56917524 0.5940528 0.46849895 0.35909587
000230 2e 41 57 3e 9f 39 1c 3f 4c 96 26 3f 9f b3 59 3f
       0.21020958 0.6102542 0.65073085 0.85039705
000240 09 01 08 3f b7 c9 71 3f 6a f7 41 3f b0 c8 eb 3e
       0.5312658 0.9444842 0.7576815 0.4605155
000250 48 79 70 3f 20 20 58 3f 02 2c 31 3f e9 9b 9c 3e
       0.9393506 0.8442402 0.69207776 0.305877
000260 70 db 22 3e b0 b3 d9 3e ef b2 19 3f 28 a8 7b 3e
       0.15904021 0.42519903 0.60038656 0.24575865
000270 0f 2d f1 3e a5 a8 18 3f 3b a2 28 3f 7c 7c ba 3e
       0.4710469 0.5963233 0.65872544 0.364231
000280 03 f2 b8 3e 08 62 f0 3e 99 7a 0e 3f 85 c6 25 3f
       0.3612214 0.46949792 0.5565582 0.6475604
000290 c4 eb b8 3e 20 a9 86 3e 51 8b 16 3f 02 c4 db 3e
       0.36117375 0.26300907 0.5880633 0.4292298
0002a0 76 8b b9 3e b4 be 31 3e c2 bf ea 3e d0 75 b7 3e
       0.36239213 0.17357904 0.45849425 0.3583207
0002b0 7a 6f 48 3f 82 8e 25 3f 60 9f 38 3f 24 f1 3e 3f
       0.782951 0.64670575 0.72118187 0.745867
0002c0 80 9a 2a 3e 62 df cf 3e 64 ac 0c 3f e2 c8 8f 3e
       0.166605 0.40600115 0.5495055 0.2808295
0002d0 8a 74 4c 3f 64 ec 98 3e 6c 1c 04 3f f4 1b 0e 3f
       0.79865324 0.29867852 0.5160587 0.55511403
0002e0 54 3e 42 3f ff c7 1a 3f c0 27 8f 3c e0 b9 49 3f
       0.75876355 0.6046142 0.017475009 0.7879925
0002f0 09 d6 61 3f d4 e7 6b 3f c4 d0 2d 3e f8 f8 48 3e
       0.88217217 0.92150617 0.16974169 0.19626224
000300 43 15 45 3f 84 2f 5f 3e 06 d8 87 3e 40 4a 53 3c
       0.7698557 0.2179547 0.26532 0.012896121
000310 59 63 eb 3e e8 fc 34 3f be 46 f1 3e a2 ca 98 3e
       0.45974234 0.70698404 0.47124285 0.29842097

l1.bias f4 [20]
000000 6c 94 94 3e 62 05 e6 3e 2f 3b 72 3f 7e f7 1d 3f
       0.29019487 0.44925982 0.94621557 0.6170577
000010 ca 41 14 3f 4b 41 f6 3e ab c7 d4 3e 5b 7d 00 3f
       0.57912886 0.4809669 0.41558585 0.5019128
000020 f8 3e 0b 3e 5d ad 41 3f d4 c0 ad 3e fe 1c 38 3f
       0.1359824 0.75655156 0.3393618 0.7191924
000030 f3 c5 1a 3f f0 ba b0 3d d8 5b ea 3e 12 64 20 3f
       0.60458297 0.086294055 0.45773196 0.62652695
000040 e0 bc b4 3c 6e bf 4d 3f 5b f0 ff 3e 25 ca d8 3e
       0.022062719 0.80370224 0.49988064 0.42341724

l1.weight f4 [20, 10]
000000 98 cd df 3d d6 4b 87 3e c8 f1 66 3f 38 f0 26 3e
       0.10927886 0.26425046 0.9021268 0.16302574
000010 70 9f 22 3e 75 ae 74 3f 38 00 27 3e da 65 16 3f
       0.15881133 0.955787 0.16308677 0.58749163
000020 8a 2f 2e 3f 67 7a 4b 3f 7a 48 75 3f 60 78 ea 3d
       0.6804129 0.79483646 0.95813715 0.11448741
000030 9a fa 13 3f c3 5c 7c 3f 55 fe 33 3f 72 ff df 3e
       0.5780426 0.98579043 0.70309955 0.43749577
000040 2b 8e 12 3f a0 e3 2a 3f 95 98 e4 3e 50 bb 55 3f
       0.5724818 0.6675358 0.4464766 0.8348894
000050 02 48 9c 3e 1d 08 03 3f 69 2d 30 3f 2a 67 43 3f
       0.30523688 0.51184255 0.6881929 0.7632929
000060 c0 8f 0c 3e 2b 3c 10 3f 35 0f 37 3f b6 08 10 3f
       0.13726711 0.5634181 0.7150758 0.5626329
000070 88 9c 04 3f 81 f0 15 3f f0 87 d0 3d f6 8f 8b 3e
       0.5180135 0.58570105 0.10182178 0.2725827
000080 e6 74 46 3f 02 52 82 3e 14 e3 f9 3e cc 6c 32 3f
       0.7752212 0.25453192 0.4880606 0.6969726
000090 e6 5b d0 3e 6a f9 4f 3f 32 6e a9 3e 20 5a dd 3e
       0.40695113 0.8123995 0.33091885 0.43232822
0000a0 00 79 e3 3b 7c 48 43 3e c9 4f d7 3e 0a ea 12 3f
       0.0069419146 0.1907062 0.4205306 0.57388365
0000b0 80 8e 86 3e 03 79 c9 3e 92 a1 8d 3e e0 17 01 3d
       0.26280594 0.39350137 0.2766233 0.03151691
0000c0 06 b4 12 3f 70 0b b8 3e 82 97 7c 3f 32 38 d5 3e
       0.57305944 0.35946226 0.9866868 0.41644436
0000d0 a0 28 39 3e 53 7b 0f 3f df e3 34 3f 94 9f 09 3f
       0.18081903 0.5604755 0.70660204 0.5375912
0000e0 c3 4d 66 3f 82 dc 3f 3f 06 39 d5 3e b1 b5 5d 3f
       0.89962405 0.74945843 0.41645068 0.86605364
0000f0 0d 71 bc 3e 0e 39 07 3f 0e 53 0f 3f 24 97 cb 3e
       0.36805 0.52821434 0.55986106 0.3976375
000100 ee 42 fc 3e 48 d2 2d 3e 27 cb ce 3e 23 97 62 3f
       0.49269813 0.16974747 0.40389368 0.88511866
000110 8b ad 4e 3f 76 09 76 3f a0 3b c6 3d 76 05 0f 3f
       0.80733556 0.96108186 0.09679341 0.5586771
000120 7c bd 53 3e 98 4b 4d 3e c0 89 2f 3e 9e 9d 30 3f
       0.20677751 0.20048368 0.17142391 0.68990505
000130 1d 76 0a 3f 8b 84 0e 3f 38 aa dc 3d 15 2d 2a 3f
       0.54086477 0.55670995 0.10774654 0.6647504
000140 80 10 a5 3e 31 c6 37 3f d6 2d 96 3e dd e4 06 3f
       0.3223915 0.7178679 0.29331845 0.5269297
000150 97 68 c0 3e d4 f4 d0 3e 28 fd 4a 3f 9a 90 1f 3f
       0.37579796 0.4081179 0.79292536 0.6233002
000160 b4 e9 e6 3e a0 0e 91 3e 5a b7 09 3f 90 21 b9 3e
       0.45100176 0.2833147 0.537954 0.3615842
000170 0e fc 26 3f 8d ca 18 3f df 24 12 3f 5f 92 1d 3f
       0.65228355 0.5968407 0.5708751 0.6155147
000180 1f de 30 3f 02 24 d8 3e 3a a8 47 3f 85 fa 1a 3f
       0.6908893 0.42214972 0.7799107 0.6053851
000190 b8 59 a3 3e e8 a5 89 3d 70 23 1d 3f 2e bf a3 3e
       0.31904387 0.06721097 0.613822 0.31981796
0001a0 81 d5 c2 3e 05 cd 07 3f c1 88 03 3f c6 65 4a 3f
       0.38053516 0.5304721 0.51380545 0.79061544
0001b0 24 90 6a 3f f4 76 b9 3e a0 fc 6c 3e 0e 15 fb 3e
       0.9162619 0.36223567 0.23143244 0.490395
0001c0 bc 1f 51 3f dd bf 4e 3f 3a ec 13 3f b3 b5 37 3f
       0.8168905 0.8076151 0.5778233 0.71761626
0001d0 b0 57 a7 3e 14 76 16 3f f9 8d 1f 3f ef 65 ea 3e
       0.32684088 0.5877392 0.6232601 0.45780894
0001e0 cc c9 eb 3e 70 ab b6 3d 00 11 4e 3f e6 d6 c6 3e
       0.46052396 0.08919418 0.8049469 0.3883583
0001f0 26 07 b8 3e 2b 85 1c 3f d4 56 49 3e 32 59 91 3e
       0.35942954 0.611407 0.19662029 0.28388363
000200 90 f7 06 3f 76 cb 42 3f 14 2e 77 3e fe 35 c6 3e
       0.527215 0.76091707 0.24138671 0.38713068
000210 20 c3 92 3c 4f 5a 15 3f e0 39 1b 3f b1 91 9e 3e
       0.017915308 0.58340925 0.60635185 0.3097053
000220 73 f5 34 3f c4 8b ce 3e 7a 1f 6c 3f 00 31 fa 3e
       0.70687026 0.40341008 0.9223553 0.4886551
000230 f7 f4 2b 3f 70 e7 5e 3d 26 04 8a 3e 82 58 cf 3e
       0.6717066 0.054419935 0.2695629 0.40497214
000240 5c 25 0a 3f 76 fd e5 3e 72 18 e6 3e ad a3 06 3f
       0.53963256 0.44919938 0.44940525 0.525935
000250 4e d5 f3 3e 6b 9f 18 3f 64 2c d1 3e 78 b1 1a 3f
       0.47623676 0.5961825 0.4085418 0.60427046
000260 58 26 96 3e e1 b0 07 3f 45 3a 16 3f d2 53 2d 3f
       0.2932613 0.5300427 0.5868266 0.67706025
000270 e0 40 52 3e 64 c2 c3 3e 50 0b 95 3e 96 b4 6f 3f
       0.2053256 0.38234246 0.29110193 0.9363493
000280 71 79 34 3f 5a 0b 47 3f 56 78 05 3f ac f0 67 3f
       0.70497805 0.77751696 0.52136743 0.9060161
000290 77 7f 01 3f 00 08 a1 3e ca 5c d7 3e 14 3b 05 3f
       0.5058512 0.31451416 0.4206298 0.5204327
0002a0 f4 f2 02 3e 19 39 26 3f 1c fb ef 3e 56 bd a8 3e
       0.12787992 0.64930874 0.4687127 0.32956952
0002b0 b4 53 0c 3f f4 18 53 3e a8 12 af 3e d2 1c a2 3e
       0.5481522 0.20614988 0.3419392 0.31662613
0002c0 1c 5b d5 3e 1c 80 2f 3f 24 32 f2 3e 83 7f 57 3f
       0.41671073 0.68554854 0.4730388 0.8417894
0002d0 0c ac 1d 3f ee fd bc 3e 53 d8 27 3f 46 88 3f 3f
       0.6159065 0.36912483 0.6556446 0.7481731
0002e0 a8 19 d0 3d 9b 8e 39 3f 67 1c 6d 3f 23 84 4b 3f
       0.101611435 0.72483224 0.92621464 0.794985
0002f0 90 f6 d2 3e 78 80 9a 3e 9e 5b c6 3e c0 fa 47 3f
       0.41203737 0.3017614 0.38741773 0.7811699
000300 e3 2e 3b 3f ae e1 cf 3e 5c b3 1e 3e 90 73 be 3e
       0.7311842 0.40601867 0.15498108 0.37197542
000310 a3 e0 59 3f fb 46 09 3f d9 81 4d 3f 1d b8 5b 3f
       0.85108393 0.5362393 0.80276257 0.8582781
